data/Agent1_Actor_checkpoint_latest.pth (torch_old, 159687 bytes, 10 tensors)

fc1.weight f4 [256, 24]
0	0xbd8904dc	-0.0669038
1	0x3ec8d63d	0.3922595
2	0xbd41bbe6	-0.047298335
3	0x3dfd4772	0.12367143
4	0x3e40ff78	0.18847454
5	0x3e202e24	0.15642601
6	0x3c950179	0.018189179
7	0x3e6caabd	0.23112006
8	0xbdb9faf8	-0.090810716
9	0x3ee80950	0.45319605
10	0xbd1fda9c	-0.03902684
11	0x3df31c2c	0.11870608
12	0x3e15644f	0.14589046
13	0xbda43122	-0.08017184
14	0x3cb0856a	0.021547992
15	0x3e2cfdf1	0.16893746
16	0xbdd0e57b	-0.1020002
17	0x3ee43386	0.4457056
18	0x3caf0434	0.021364309
19	0xbe16e56f	-0.1473596
20	0x3d713a4b	0.058893483
21	0xbede7ea7	-0.43456003
22	0xbc41b303	-0.011822465
23	0xbdd38529	-0.10328133
24	0x3e54164b	0.20711629
25	0x3e4fc003	0.2028809
26	0xbd64aea0	-0.055830598
27	0xbdb33fcd	-0.087524034
28	0xbe08a116	-0.133427
29	0xbd70bbc9	-0.058772836
30	0x3d47fa7c	0.048822865
31	0xbd22076f	-0.03955787
32	0x3e43094b	0.19046514
33	0x3e87f6f6	0.26555604
34	0x3d76e964	0.060281172
35	0xbd59be88	-0.05316022
36	0xbe0f316a	-0.13983694
37	0xbe7fcd38	-0.24980628
38	0xbcf35aab	-0.02970632
39	0x3c8b5492	0.0170081
40	0x3dca0156	0.09863536
41	0x3e4b3a9e	0.1984658
42	0x3d3fd375	0.04683252
43	0xbda574fd	-0.08078954
44	0xbdcc52e0	-0.09976745
45	0xbf05c2cd	-0.5225037
46	0xbc124f53	-0.008930045
47	0xbda8970d	-0.08231936
48	0x3d764c46	0.060131334
49	0x3e944f30	0.28966665
50	0xbc327a8f	-0.010893478
51	0x3d58b331	0.052905265
52	0x3dc742a0	0.097295046
53	0xbc8f1d22	-0.017469946
54	0x3cb9fd95	0.022703925
55	0x3d4d4469	0.05011407
56	0x3dcbd84c	0.09953365
57	0x3ec78255	0.38966623
58	0x3b9bf658	0.004759591
59	0x3dda0431	0.10645331
60	0x3dd313ff	0.10306548
61	0xbe3ed26f	-0.18634962
62	0xbc9e26d6	-0.019305628
63	0x3dbfcd57	0.09365337
64	0xbc8ccec5	-0.01718844
65	0x3eaca5c2	0.33720213
66	0xbc0be9b2	-0.008539604
67	0xbddd6811	-0.10810865
68	0x3e01bda4	0.12669998
69	0xbe863132	-0.26209408
70	0x3ba9e563	0.0051848157
71	0xbdb922fa	-0.090398744
72	0xbcb566fa	-0.02214383
73	0x3ee239ee	0.44184822
74	0xbd201420	-0.039081693
75	0x3d1e26c5	0.038611192
76	0xbd67efbb	-0.05662511
77	0xbe22f041	-0.15911962
78	0xbd1f27ad	-0.038856197
79	0x3d818116	0.06323449
80	0xbcc4c035	-0.024017433
81	0x3ef1a65a	0.4719723
82	0xbd2fa399	-0.04288063
83	0x3b52513c	0.0032091876
84	0x3d07f88c	0.033196017
85	0xbec6e4a9	-0.3884633
86	0x3d787c93	0.06066568
87	0x3c8b160d	0.016978288
88	0xbc6a8eaa	-0.01431624
89	0x3ee42c1e	0.4456491
90	0xbc327a9d	-0.010893491
91	0x3e045ea3	0.12926726
92	0x3dbc81e5	0.09204463
93	0xbf10a98a	-0.56508696
94	0x3d24a30c	0.040194556
95	0x3e2e9f6f	0.17053007
96	0x3df2435c	0.11829254
97	0x3e58192d	0.21103354
98	0x3c8087e6	0.015689801
99	0xbd08e806	-0.0334244
100	0x3e78bd02	0.24290851
101	0xbdb998ad	-0.09062324
102	0xb9acb97f	-0.00032944602
103	0xbcb3420e	-0.021882083
104	0x3d94e9f6	0.07271187
105	0x3e191e8f	0.14953063
106	0x3c90bb0b	0.017667314
107	0xbe1ddf70	-0.15417266
108	0x3cc4936a	0.023996074
109	0xbe6f91b7	-0.2339543
110	0xbc940ce5	-0.018072555
111	0xbda6c6a5	-0.08143357
112	0x3d5bbaf2	0.05364508
113	0x3d6006bb	0.05469392
114	0xbc2a275e	-0.010385362
115	0xbd86e025	-0.06585721
116	0xbe34c9dd	-0.1765513
117	0xbe8c7f49	-0.2744086
118	0xbdbf662b	-0.09345659
119	0xbd808720	-0.06275773
120	0x3d69039f	0.05688822
121	0x3ea6aace	0.3255219
122	0xbd46570a	-0.04842285
123	0xbdc6a6b7	-0.09699767
124	0x3c69ee7e	0.014278052
125	0xbe43414a	-0.19067875
126	0xbd4b1c4e	-0.04958754
127	0xbd8c8e41	-0.0686307
128	0x3df29a44	0.1184583
129	0x3e81453c	0.25248134
130	0xbd9c481b	-0.076309405
131	0xbd8ac528	-0.06775886
132	0x3d840dc1	0.06447936
133	0xbe97e3b5	-0.29665914
134	0x3be22f32	0.006902599
135	0xbd9f2218	-0.07770175
136	0x3defb134	0.11703721
137	0x3e973121	0.2952967
138	0x3c8b078d	0.016971374
139	0x3db645fa	0.08900066
140	0xbc8ce7e0	-0.01720041
141	0xbea20d76	-0.31650895
142	0x3aa8fd82	0.0012892934
143	0x3dcb1326	0.09915762
144	0x3e2b1a7f	0.16709326
145	0x3d83a462	0.06427838
146	0xbcd303be	-0.02575862
147	0xbe130c59	-0.14360179
148	0xbd0a6496	-0.033787332
149	0xbe3c97c6	-0.18417272
150	0xbc7f5467	-0.015584088
151	0xbe285eba	-0.16442385
152	0x3e4a1102	0.1973305
153	0x3df4c0f5	0.11950866
154	0xbd020c94	-0.031750277
155	0x3d976c77	0.07393735
156	0x3cc4c691	0.024020465
157	0xbe078c95	-0.13237222
158	0x3cc8dea7	0.024520231
159	0x3cc737ad	0.02431854
160	0x3df3f74b	0.11912402
161	0x3e2b52ed	0.16730852
162	0xbcec047d	-0.028810734
163	0x3d306b84	0.043071285
164	0x3cbd9b4e	0.023145344
165	0xbd0c7667	-0.034292605
166	0x3c13b97c	0.009016391
167	0xbc7d2184	-0.015449885
168	0xbcf50dc6	-0.029913794
169	0x3de08359	0.109625526
170	0xbd3d6e2c	-0.046247646
171	0x3d4d3d75	0.050107438
172	0x3ee29766	0.44256133
173	0xbe7b0393	-0.24513082
174	0x3d4376d4	0.047720745
175	0x3cb7f2fd	0.022454733
176	0x3d5c4c8e	0.053783946
177	0x3df588fa	0.11989017
178	0x3d2c1879	0.042015526
179	0x3d174428	0.036930233
180	0x3e031483	0.12800793
181	0xbe2e1f02	-0.17004016
182	0xbd2c00d3	-0.041992974
183	0x3d62b3fe	0.055347435
184	0x3cd8a9e2	0.026448194
185	0x3d1f1327	0.038836624
186	0x3caafa3a	0.02087127
187	0xbd8f2ef0	-0.069913745
188	0xbe95e74e	-0.29278034
189	0x3d74287b	0.059608918
190	0xbd7db8e5	-0.061943907
191	0xbd99d840	-0.075119495
192	0x3bcab1e1	0.0061857556
193	0xbdc34093	-0.09533801
194	0xbb20a7e6	-0.0024514138
195	0xbcdcf62e	-0.026972856
196	0xbe987a79	-0.2978094
197	0xbe069848	-0.13144028
198	0x3cae7a9d	0.021298701
199	0xbca1d5ba	-0.019755233
200	0xbd848276	-0.06470196
201	0xbd638ba6	-0.0555531
202	0x3cabab07	0.020955576
203	0xbcd58d3b	-0.02606832
204	0x3da32669	0.079663105
205	0xbdc1097f	-0.09425639
206	0xbd37a1fb	-0.04483221
207	0xbb9a0a9f	-0.004700973
208	0xbde6dd61	-0.112726934
209	0xbda467f2	-0.080276385
210	0x3d7ee217	0.062227335
211	0xbd33995d	-0.04384743
212	0x3eb2b6a0	0.34904957
213	0xbd7f6e54	-0.062361076
214	0xbc381a3f	-0.011236726
215	0xbd96b389	-0.07358462
216	0x3cf76495	0.030199328
217	0x3def8f30	0.11697233
218	0xbc1b36b1	-0.009473489
219	0xbbbd5b61	-0.0057787155
220	0x3e34ade5	0.1764446
221	0xbcf88d14	-0.030340709
222	0x3c758964	0.01498637
223	0xbde12243	-0.10992863
224	0xbca2f4f3	-0.019892192
225	0x3e536ca8	0.20646918
226	0x3c36287e	0.0111180525
227	0xbd7970c5	-0.06089856
228	0x3e4cc98e	0.19998762
229	0xbe232118	-0.15930593
230	0xbc664e4f	-0.014056756
231	0xbda8cd88	-0.08242327
232	0x3db8b4e0	0.09018874
233	0x3e113972	0.1418207
234	0xbcf2e8c6	-0.02965201
235	0xbda01120	-0.07815766
236	0x3e872044	0.26391804
237	0xbe98b034	-0.29821932
238	0x3c674f94	0.014118094
239	0xbd975f12	-0.0739118
240	0x3d1d8d3f	0.03846478
241	0xbdd3c5b6	-0.10340445
242	0x3c29a99f	0.010355382
243	0x3c63ea9f	0.0139109185
244	0xbeac8774	-0.33697093
245	0xbebdfced	-0.3710703
246	0xbd1d8606	-0.038457893
247	0x3d56c13f	0.052430388
248	0x3d203dbe	0.039121382
249	0xbddefcd4	-0.10888067
250	0x3c9ca30f	0.019120721
251	0xbd00a695	-0.031408865
252	0xbe163020	-0.14666796
253	0xbd80c313	-0.062872075
254	0xbd332c41	-0.043743376
255	0xbd1406d0	-0.03613931

fc1.bias f4 [256]
0	0x3ec0f0e7	0.37683794
1	0x3e899adb	0.26875958
2	0xbe25570c	-0.16146487
3	0x3ddb5ac7	0.10710674
4	0xbe58c757	-0.21169792
5	0xbd317175	-0.04332109
6	0xbd9a6fb5	-0.07540838
7	0x3dabcde1	0.08388878
8	0x3e78c0bd	0.24292274
9	0x3cb37b55	0.021909395
10	0x3d639519	0.055562112
11	0xbe7a4d26	-0.24443492
12	0xbdc844a8	-0.0977872
13	0xbde69171	-0.112582095
14	0x3eac91d1	0.33705
15	0xbe080df1	-0.13286568
16	0xbe2d4f99	-0.16924895
17	0xbe32b0ce	-0.17450258
18	0xbdcbbf59	-0.09948606
19	0xbe8a868d	-0.2705578
20	0xbe518c8c	-0.2046377
21	0x3e8ab8fa	0.2709425
22	0xbc9469a6	-0.018116783
23	0x3e07b330	0.13251948
24	0xbdad9882	-0.08476354
25	0x3d5b1126	0.05348315
26	0xbe4600f4	-0.19336301
27	0xbdc54790	-0.0963279
28	0xbe2be9c5	-0.16788395
29	0x3e7739d6	0.24143156
30	0xbe0ef7fd	-0.13961788
31	0x3cda5500	0.02665186
32	0xbdb5f70a	-0.088850096
33	0xbea3d5b0	-0.31998968
34	0xbe7fa641	-0.24965765
35	0x3dc07df3	0.09399023
36	0xbe4b6954	-0.19864398
37	0x3dbf40a1	0.09338499
38	0xbe33303a	-0.17498866
39	0xbedbdbe0	-0.4294119
40	0xbe82367c	-0.25432193
41	0xbd5f4177	-0.05450579
42	0x3e18c0a0	0.1491723
43	0xbdcdc588	-0.10047442
44	0xbecc1add	-0.39864245
45	0xbd92645c	-0.07148048
46	0x3e67676e	0.22598049
47	0xbe41eda5	-0.1893831
48	0xbda91eeb	-0.0825785
49	0x3ce8200b	0.028335592
50	0xbe21efa1	-0.15814067
51	0xbe84fa56	-0.2597224
52	0x3de813fd	0.113319375
53	0xbea6b69e	-0.325612
54	0xbb891382	-0.0041832337
55	0xbd6c173d	-0.05763935
56	0x3d94a3ad	0.07257781
57	0xbd91a01d	-0.07110617
58	0x3dd74b4a	0.10512407
59	0xbe22f6c4	-0.15914446
60	0xbdd85d38	-0.10564655
61	0x3e7f4c27	0.24931394
62	0xbe8e2358	-0.2776134
63	0x3d30a3e4	0.04312505
64	0xbd14f605	-0.036367435
65	0xbec56481	-0.3855324
66	0xbc012613	-0.007882613
67	0xbde7c8e0	-0.11317611
68	0xbdbdb097	-0.092621975
69	0xbdce3da0	-0.10070348
70	0xbe9b077a	-0.30279142
71	0xbe140cf2	-0.14458063
72	0xbde22e0f	-0.11043941
73	0xbe2242f3	-0.15845852
74	0xbe2b85d4	-0.1675027
75	0x3e1b033a	0.1513795
76	0x3b6bb4b7	0.0035965869
77	0xbe834696	-0.2563979
78	0x3df56a77	0.11983197
79	0xb646c3b0	-2.9618204e-06
80	0xbe9bc232	-0.30421597
81	0xbeb72132	-0.35767514
82	0xbe11f008	-0.14251721
83	0xbda1147f	-0.078652374
84	0xbe9895a7	-0.29801676
85	0xbe098477	-0.13429438
86	0x3d8d514e	0.06900273
87	0xbe550bb9	-0.20805253
88	0xbedab1fe	-0.42713922
89	0xbcf99e23	-0.030470913
90	0xbe08206b	-0.13293616
91	0xbd3e1f07	-0.04641631
92	0xbe229312	-0.15876415
93	0x3e0b6a4f	0.13614772
94	0xbe83ac6d	-0.25717488
95	0xbd866ec7	-0.06564098
96	0x3e12689e	0.14297721
97	0x3c2d5211	0.010578648
98	0xbe17d6ed	-0.14828081
99	0x3e3c4e26	0.18389186
100	0x3d3f45ee	0.04669755
101	0x3df53a4a	0.119740084
102	0xbea87393	-0.32900676
103	0x3dbb7971	0.091540225
104	0x3e1229cc	0.14273757
105	0x3d8ac7aa	0.06776364
106	0xbbd6717c	-0.00654429
107	0xbd6487bc	-0.05579351
108	0xbe50d6a8	-0.20394385
109	0xbd7b60d6	-0.061371647
110	0x3db5e049	0.088806696
111	0xbea7b299	-0.32753447
112	0xbe296bec	-0.16545075
113	0xbeafb1de	-0.3431539
114	0x3dd27e7f	0.102780335
115	0xbe65f79b	-0.22457735
116	0xbe97b7fd	-0.2963256
117	0x3b929f2d	0.0044745416
118	0x3ec11994	0.37714827
119	0x3dc669ee	0.09688173
120	0xbd91dc1d	-0.071220614
121	0x3e4e7742	0.20162681
122	0xbe0ee5bd	-0.13954826
123	0x3e10ac79	0.14128293
124	0x3c8dd194	0.017311849
125	0xbe5fa38f	-0.21839736
126	0x3e50ce3f	0.20391177
127	0xbcb19f2b	-0.021682343
128	0x3d2d7256	0.042345367
129	0xbe1dcc22	-0.15409902
130	0xbc046dad	-0.008082789
131	0xbe49d876	-0.1971148
132	0x3e208704	0.15676504
133	0xbe33d2d0	-0.17560887
134	0xbe2c70c7	-0.16839896
135	0x3e0447d6	0.12918028
136	0xbe327cc2	-0.17430404
137	0xbde924f4	-0.113840014
138	0x3e0bf671	0.13668229
139	0xbb8817cd	-0.004153228
140	0xbd14ee51	-0.03636009
141	0xbe400e24	-0.18755394
142	0xbe8151cc	-0.2525772
143	0x3ca97c10	0.02068904
144	0xbd0bffec	-0.034179613
145	0x3e05d060	0.1306777
146	0x3da8d1a2	0.08243109
147	0xbe17c4e7	-0.14821206
148	0xbd969c4c	-0.0735403
149	0xbce2a45e	-0.027666267
150	0x3e056350	0.13026166
151	0x3e83b16c	0.257213
152	0xbdf7c56c	-0.12098202
153	0x3e6ba034	0.23010331
154	0x3d485852	0.048912354
155	0x3dc7e565	0.097605504
156	0xbe2dd229	-0.16974701
157	0x3e92ef93	0.28698406
158	0xbe0e3447	-0.1388713
159	0xbe9bbc98	-0.30417323
160	0xbe030d88	-0.1279813
161	0xbdc372ec	-0.09543404
162	0xbe1f867e	-0.15578648
163	0x3eb7566e	0.35808128
164	0x3cf53f3d	0.02993738
165	0xbe78d53a	-0.2430009
166	0x3e5a5e18	0.21324956
167	0xbe11a544	-0.142232
168	0xbe501615	-0.20320924
169	0xbebc2d0e	-0.36753124
170	0x3ce659c3	0.028118974
171	0xbd5d1d7e	-0.053983204
172	0xbe067c6b	-0.13133399
173	0xbeb6e66f	-0.35722682
174	0x3cfb976a	0.030711848
175	0xbe563e97	-0.20922314
176	0x3e2fed03	0.17180257
177	0xbdcde89c	-0.10054132
178	0xbe813363	-0.25234517
179	0x3e300544	0.17189509
180	0x3d0f0722	0.03491891
181	0xbe84eef0	-0.25963545
182	0x3da2f11d	0.07956145
183	0xbe89df7a	-0.26928312
184	0x3e24ea49	0.16104998
185	0xbd30fce6	-0.043209933
186	0xbe716a29	-0.23575653
187	0x3e135882	0.14389232
188	0xbcc9e24b	-0.024644038
189	0xbe6d412d	-0.23169394
190	0xbde69658	-0.112591445
191	0x3e21ca10	0.15799737
192	0x3cdb328c	0.026757501
193	0xbea65f97	-0.32494804
194	0xbe31e53e	-0.17372605
195	0xbea28a1b	-0.3174599
196	0xbc3510e5	-0.011051391
197	0xbe9f380e	-0.31097454
198	0xbeeff2a3	-0.46864805
199	0x3d84f581	0.06492139
200	0xbcceb78f	-0.025234012
201	0xbe4b47c2	-0.19851592
202	0x3d8ea3da	0.06964846
203	0xbe2c5522	-0.1682935
204	0x3e2cdcfe	0.16881177
205	0x3eeda81e	0.46417326
206	0x3e7c6c0e	0.24650595
207	0x3d46106e	0.048355512
208	0xbc69b3d1	-0.014264063
209	0xbda74942	-0.0816827
210	0x3e84abed	0.2591242
211	0xbd706c3a	-0.058696963
212	0xbc47331e	-0.012158183
213	0xbea1bdc3	-0.3159009
214	0xbe560404	-0.2089997
215	0xbcc084e2	-0.023500863
216	0xbed6f26e	-0.41981834
217	0xbe8be913	-0.2732626
218	0xbeb7dd7e	-0.35911173
219	0x3cf51edb	0.02992194
220	0x3de3ba21	0.11119486
221	0xbd894cca	-0.067040995
222	0xbdef1569	-0.116740055
223	0xbe0f0443	-0.1396647
224	0xbd05cfbb	-0.03266881
225	0x3dbbf37a	0.09177299
226	0xbd88e7e5	-0.06684855
227	0x3c5f5f9d	0.013633636
228	0xbe4d5193	-0.2005065
229	0xbdcf7d6a	-0.10131343
230	0xbeb6432b	-0.3559812
231	0xbd20a41e	-0.039219014
232	0xbdd4261f	-0.103588335
233	0xbe0f7d5e	-0.14012668
234	0x3c8a7291	0.016900333
235	0x3e31d276	0.1736544
236	0xbe8b2bfb	-0.27181992
237	0x3daa62e6	0.08319645
238	0xbe47b64d	-0.19503136
239	0x3c5f4c86	0.013629084
240	0xbdf7cc6e	-0.12099539
241	0x3e82f9ff	0.25581357
242	0xbe66077c	-0.22463793
243	0xbe3e11fb	-0.18561547
244	0x3e4843c6	0.19557104
245	0xbe4eb8a8	-0.20187628
246	0xbe9a8ab7	-0.30183956
247	0xbddf443b	-0.10901686
248	0xbe887a6d	-0.26655903
249	0x3d2e1d41	0.042508367
250	0xbe35eeb3	-0.17766838
251	0xbdb9112c	-0.090364784
252	0x3e539212	0.2066119
253	0xbdb59bdf	-0.08867621
254	0xbe551dcf	-0.20812152
255	0xbdc2937c	-0.09500787

fc2.weight f4 [128, 256]
0	0xbe06949f	-0.13142632
1	0xbd8eeec7	-0.06979137
2	0x3d63540e	0.055500083
3	0xbd986525	-0.07441167
4	0xbd162812	-0.036659308
5	0xbbddb468	-0.006765891
6	0xbae32094	-0.0017328435
7	0xbdd4c59b	-0.10389253
8	0xbde9f8b7	-0.11424392
9	0xbdd7da0a	-0.105396345
10	0xbbbadd22	-0.0057026306
11	0xbd48edd9	-0.049054954
12	0x3c2ae7f9	0.010431283
13	0xbd313432	-0.043262668
14	0xbd3bb962	-0.04583109
15	0x3e03f6dc	0.12887138
16	0xbd607358	-0.0547975
17	0xbd0bff5c	-0.034179077
18	0xbcab2977	-0.020893795
19	0xbdb3476d	-0.08753858
20	0xbde0a25a	-0.10968466
21	0x3d323a4f	0.04351264
22	0x3be3e2c8	0.0069545247
23	0x3c21ea39	0.009882503
24	0xbb4a733d	-0.0030891441
25	0x3d1588c7	0.036507394
26	0xbd3686dd	-0.04456221
27	0x3dc5cb7d	0.09657953
28	0x3dcc6fcd	0.09982262
29	0x3ac68b73	0.001514776
30	0x3d993e47	0.074825816
31	0xbd4c7173	-0.04991288
32	0x3c809f7c	0.015701048
33	0xbdce06fd	-0.10059927
34	0xbdffd21d	-0.12491248
35	0xbdf36777	-0.11884969
36	0x3cf6a6ee	0.030108895
37	0xbcf3cc11	-0.029760392
38	0xbcd16d55	-0.025564829
39	0x3ce417a1	0.027843298
40	0xbd09cbb8	-0.033641547
41	0xbc26347f	-0.010144352
42	0x3cf85e58	0.030318424
43	0x3cfc8638	0.03082572
44	0x3d0897f4	0.03334804
45	0xbd572bea	-0.052532114
46	0xbe1de556	-0.15419516
47	0xbd5bd1e0	-0.05366695
48	0x3e139724	0.14413124
49	0xbd3a8d55	-0.04554494
50	0xbcf13e3b	-0.02944862
51	0x3b375c24	0.0027978504
52	0xbdef377a	-0.11680503
53	0x3ce22ee5	0.027610252
54	0x3d810ed2	0.06301655
55	0xbd352435	-0.044223983
56	0xbdcebfbe	-0.10095166
57	0xbd993579	-0.07480902
58	0xbde5e47f	-0.11225223
59	0x3b9ae2c9	0.004726742
60	0x3c185738	0.009298138
61	0xbc2b8793	-0.010469335
62	0x3d012681	0.03153086
63	0xbbe7d3d9	-0.0070748148
64	0x3ab47357	0.0013767284
65	0x3d116ab0	0.035502136
66	0xbc7cbe0b	-0.015426169
67	0xbd08c123	-0.033387315
68	0xbdce5314	-0.1007444
69	0x3d594205	0.053041477
70	0x3dc01a89	0.09380061
71	0xbcb95750	-0.022624642
72	0xbdc4c714	-0.09608284
73	0xbdac659a	-0.084178165
74	0xbe0fedc7	-0.14055549
75	0xbdbd5b75	-0.0924596
76	0x3d9f07d3	0.07765164
77	0xbd2c3af3	-0.042048406
78	0xbdb51394	-0.08841625
79	0x3db35ebb	0.08758303
80	0xbdcc5d7b	-0.099787675
81	0x3d2e6ae1	0.042582396
82	0xbdc87b8f	-0.09789192
83	0xbaa2a5d3	-0.0012409039
84	0xbd3b6227	-0.045747902
85	0xbd37c9ce	-0.04487019
86	0x3d6de0f7	0.05807587
87	0xbdb7fcab	-0.089837395
88	0xbd9f77fc	-0.07786557
89	0xbd84fada	-0.06493159
90	0xbd9fb1b9	-0.0779757
91	0x3d1acdee	0.037794046
92	0x3e1ac8d1	0.15115668
93	0xbe33ab65	-0.1754585
94	0x3cc02d87	0.02345921
95	0xbdddaae0	-0.108236074
96	0xbcb328b2	-0.021869991
97	0xbda23338	-0.079199255
98	0xbd4a9696	-0.049460016
99	0x3b4ffb64	0.0031735534
100	0xbe03f745	-0.12887295
101	0xbbc7f4aa	-0.0061021643
102	0x3c8451af	0.016152231
103	0x3c19d72a	0.009389678
104	0xbc861397	-0.016366763
105	0x3cbfb3bb	0.023401132
106	0x3db2e308	0.08734709
107	0xbca56549	-0.020189898
108	0x3cf99078	0.030464396
109	0xbdf70add	-0.12062619
110	0x3d10ea20	0.03537953
111	0xbd96ae96	-0.073575184
112	0x3c602508	0.013680704
113	0xbd3c6c79	-0.046001885
114	0xbdb3c48c	-0.08777723
115	0xbcb8c284	-0.02255369
116	0x3c8a5816	0.016887706
117	0xbc57f842	-0.013181748
118	0x3c92a6e1	0.01790184
119	0xbbe84934	-0.0070888046
120	0x3d15368b	0.03642897
121	0xbd161ed5	-0.036650497
122	0x3d1c0e4f	0.038099583
123	0x3dbdce63	0.09267881
124	0xbde6c91d	-0.11268828
125	0xbd12768d	-0.03575759
126	0x3dac737b	0.08420464
127	0xbd91074f	-0.07081472
128	0x3d8d02fa	0.06885333
129	0x3d9660e4	0.07342699
130	0xbd2efc1f	-0.04272091
131	0xbd38266e	-0.044958524
132	0x3d52a32e	0.05142515
133	0x3a1ef803	0.00060641783
134	0x3da08389	0.07837588
135	0xbda32b96	-0.07967298
136	0x3be1b83c	0.0068884175
137	0xbd558d25	-0.05213656
138	0xbd49e379	-0.0492892
139	0xbd9bcc06	-0.07607274
140	0xbca81407	-0.020517362
141	0x3da13a26	0.07872419
142	0xbd8b28e9	-0.06794912
143	0x3c021cca	0.007941434
144	0xbe00a97c	-0.12564653
145	0xbd907bae	-0.0705484
146	0x3cae1016	0.021247905
147	0xbb326879	-0.0027222915
148	0xbc83a109	-0.016067998
149	0xbde50ed8	-0.11184472
150	0x3c6e5395	0.014546295
151	0xbd499e78	-0.049223393
152	0x3d940d19	0.07229061
153	0x3d8386e9	0.064222164
154	0xbc3381a5	-0.010956203
155	0xbdc3c5f9	-0.09559245
156	0xbdd6ba42	-0.104847446
157	0x3cfc5a6e	0.030804839
158	0xbcee5f07	-0.029098047
159	0x3e478b13	0.19486646
160	0x3d5343ce	0.051578335
161	0x3caba0b5	0.020950655
162	0xbd8dc667	-0.06922608
163	0x3d7543a9	0.05987898
164	0xbd8f5100	-0.069978714
165	0xbce79ef3	-0.028274035
166	0xbcce8c85	-0.02521349
167	0xbd30347a	-0.043018796
168	0xbc09e447	-0.008416242
169	0x3c3f1a58	0.011663996
170	0xbc56c596	-0.013108632
171	0x3c3077aa	0.010770718
172	0xbddca5b5	-0.107737936
173	0x3e248018	0.16064489
174	0xbd02c7bc	-0.031928763
175	0x3d046c4b	0.03232984
176	0x3d1e2f2a	0.038619198
177	0xbdb4395b	-0.08800002
178	0x3cb68a1e	0.022282656
179	0xbe165536	-0.14680943
180	0xbdf837af	-0.12119996
181	0x3ddc8389	0.10767276
182	0x3c3ae580	0.011407256
183	0xba56b51f	-0.00081904413
184	0x3c7c3582	0.015393617
185	0x3d5f8c96	0.054577433
186	0xbe24c6dc	-0.16091484
187	0x3d92e669	0.071728535
188	0x3da72584	0.081614524
189	0x3c006cfd	0.007838485
190	0xbd2f0b91	-0.04273564
191	0x3cbf4997	0.02335052
192	0xbd7896c6	-0.060690664
193	0x3cd48b36	0.025945287
194	0xbcefc19b	-0.029267123
195	0xbbba5d6b	-0.005687406
196	0x3d07da6e	0.033167295
197	0x3de40667	0.11134034
198	0x3d423f3f	0.047423597
199	0x3d662bb0	0.056194007
200	0xbdb4e70e	-0.08833133
201	0xbe0c0f18	-0.13677633
202	0x3da0fa24	0.078602105
203	0xbd928729	-0.07154686
204	0xbe031818	-0.1280216
205	0xbdebf390	-0.11521065
206	0xbdbda015	-0.09259049
207	0xbcc6798a	-0.024227876
208	0x3d18883d	0.037239302
209	0x3db6056c	0.08887753
210	0x3c968ad3	0.018376743
211	0xbd42a060	-0.047516227
212	0xbc193c02	-0.009352686
213	0x3bab5bde	0.0052294573
214	0xbd696c13	-0.056987833
215	0xbd619bfc	-0.0550804
216	0x3da72fb0	0.081633925
217	0x3dad2c21	0.084556825
218	0xbce6fd21	-0.028196873
219	0xbd33ddf9	-0.04391286
220	0xbe0487bf	-0.12942408
221	0x3d18248c	0.03714423
222	0xbc2b953b	-0.010472591
223	0xbdb1af3f	-0.08676004
224	0xbe15962f	-0.14608072
225	0xbca49f09	-0.020095365
226	0xbd78b821	-0.060722474
227	0xbb5238d0	-0.003207732
228	0xbd01ee94	-0.031721666
229	0xbdb26610	-0.08710873
230	0xbd95d3a4	-0.07315758
231	0xbd741d62	-0.059598334
232	0xbc4d70f7	-0.01253914
233	0x3df4c0e1	0.11950851
234	0x3d6fc8d4	0.058541134
235	0x3d36bdca	0.04461459
236	0x3d4ba8ac	0.049721405
237	0x3bc16f84	0.0059031863
238	0x3df81a27	0.12114363
239	0xbd8194be	-0.063271984
240	0x3d235a06	0.039880775
241	0xbb103109	-0.0022001883
242	0x3d23750d	0.03990655
243	0x3ca54149	0.020172732
244	0x3df9fa50	0.122059464
245	0xbd208caa	-0.039196648
246	0xbdb8f0b4	-0.090302855
247	0x3d63d822	0.055626042
248	0x3c7ef65d	0.015561667
249	0x3c02f6e6	0.0079934355
250	0xbcc2e473	-0.023790574
251	0x3d1d0e47	0.038343694
252	0xbe0c8905	-0.13724144
253	0xbd85eea8	-0.06539661
254	0x3d1a3512	0.037648268
255	0xbda206e5	-0.07911471

fc2.bias f4 [128]
0	0xbd93db66	-0.07219581
1	0x3dc0faf8	0.094228685
2	0xbc157736	-0.00912266
3	0xbc933842	-0.017971162
4	0xbe386d48	-0.18010437
5	0xbe257fdf	-0.1616206
6	0x3e00e5c3	0.12587647
7	0x3d376c92	0.044781275
8	0xbe47e133	-0.195195
9	0x3ba95f70	0.0051688477
10	0x3dca1d39	0.09868855
11	0xbe820581	-0.25394824
12	0x3dc2185b	0.09477302
13	0x3ea652c4	0.3248502
14	0x3d80dee3	0.06292512
15	0x3d9a253c	0.07526633
16	0xbdac5d4c	-0.084162325
17	0xbc87580d	-0.016521478
18	0xbb7ed4c6	-0.0038884147
19	0xbde373c9	-0.11106069
20	0x3eb09b8b	0.3449367
21	0xbe600ad0	-0.21879125
22	0xbddf470c	-0.10902223
23	0x3e4bfd84	0.19920927
24	0xbc596e8c	-0.013270985
25	0xbe2456aa	-0.16048685
26	0x3dc71ca0	0.09722257
27	0x3d60ad14	0.05485256
28	0xbdb43c85	-0.08800606
29	0x3cac77f8	0.0210533
30	0x3e31a574	0.17348272
31	0x3eb198eb	0.3468698
32	0xbe00c1fb	-0.12573998
33	0xbd63670c	-0.055518195
34	0x3ce74bd1	0.028234394
35	0x3e8f724f	0.28016898
36	0x3e8296f5	0.25505796
37	0xbcea84ac	-0.028627716
38	0xbd138567	-0.036015894
39	0xbdb27125	-0.08712987
40	0x3c845be0	0.01615709
41	0x3dbc9725	0.09208516
42	0xbdfd34aa	-0.123635605
43	0xbd4eb9ba	-0.05047009
44	0x3ccfba53	0.025357401
45	0x3d2d819e	0.04235994
46	0x3e4a3c1e	0.19749495
47	0xbe828144	-0.25489247
48	0x3edd1ab3	0.43184432
49	0xbdb35d6c	-0.08758053
50	0xbd9c8c54	-0.07643953
51	0x3d276058	0.040863365
52	0xbd997dfd	-0.074947335
53	0xbcdf9577	-0.02729295
54	0x3e4e5e01	0.20153047
55	0xbd89f78a	-0.067366675
56	0xbe9d6794	-0.30743086
57	0x3d06f5fa	0.032949425
58	0x3ec1f483	0.3788186
59	0xbd2e3f68	-0.042540938
60	0xbc829c18	-0.015943572
61	0x3cb66b4a	0.022267956
62	0xbe063f1f	-0.13110016
63	0xbe6cb785	-0.23116882
64	0xbe4151ae	-0.18878815
65	0x3e3466ec	0.17617387
66	0xbd4fdf05	-0.050749797
67	0xbe8c6e75	-0.27428022
68	0x3cc97650	0.024592549
69	0x3d9f0f95	0.07766644
70	0x3da0fd4b	0.07860812
71	0xbd55b999	-0.052178953
72	0x3caaf60b	0.020869276
73	0x3c9ec935	0.019383052
74	0xbcafb16b	-0.021446904
75	0xbe71b6b7	-0.23604856
76	0x3e421f4b	0.1895725
77	0xbdbb6515	-0.09150139
78	0xbcd7f336	-0.02636109
79	0xbe424b88	-0.18974125
80	0x3d99442f	0.07483708
81	0x3dc05699	0.09391517
82	0xbdedf1d4	-0.11618391
83	0x3dce74cd	0.10080872
84	0x3dbdfcfd	0.09276769
85	0x3e36e213	0.17859678
86	0x3ed31a70	0.41231108
87	0xbdae2720	-0.08503556
88	0xbecebab3	-0.40376815
89	0xbe5adedc	-0.21374077
90	0xbf0a8fc1	-0.541256
91	0xbe034a18	-0.12821233
92	0x3a08bb1b	0.0005215869
93	0xb9c89e7c	-0.00038265053
94	0x3ed429c0	0.41438103
95	0xbe363f36	-0.1779755
96	0x3e752889	0.23941244
97	0xbe26aa8c	-0.16275996
98	0xbd7ed839	-0.062217925
99	0x3be8c1d3	0.007103184
100	0xbe038634	-0.12844163
101	0x3caa85e5	0.020815799
102	0x3d36f320	0.044665456
103	0x3d8cc5e3	0.068736814
104	0x3dbade14	0.09124389
105	0x3e02c24d	0.12769432
106	0xbd696cff	-0.056988712
107	0xbd375080	-0.044754505
108	0xbd865527	-0.0655921
109	0xbd575940	-0.05257535
110	0x3cdacfdc	0.026710443
111	0x3e77dcae	0.24205276
112	0x3ceafdf6	0.028685551
113	0xbe1331c9	-0.1437446
114	0xbe445e16	-0.19176516
115	0x3ce22bc0	0.027608752
116	0xbd79c6fa	-0.060980774
117	0xbe48f995	-0.19626458
118	0x3c95e105	0.018295774
119	0xbd38ee62	-0.045149215
120	0xbc3ad979	-0.011404389
121	0x3cdc3d05	0.026884565
122	0xbe28e48d	-0.16493435
123	0xbb077d33	-0.002067399
124	0xbdf9090c	-0.12159929
125	0xbe120840	-0.1426096
126	0x3e35bf54	0.17748767
127	0x3e71b3e0	0.23603773

fc3.weight f4 [2, 128]
0	0x3c43d8e6	0.011953568
1	0x3c4dab59	0.0125530595
2	0xbbe9c50e	-0.0071340865
3	0x3dc54497	0.09632223
4	0x3c149992	0.009069817
5	0xbd90c96e	-0.0706967
6	0x3e10546f	0.14094709
7	0x3cf0f72f	0.029414741
8	0xbd8173b4	-0.06320897
9	0x3e4b5a1b	0.19858591
10	0x3c277db1	0.010222838
11	0xbda74b28	-0.08168632
12	0xbe697ae2	-0.22800782
13	0x3db46134	0.088076025
14	0x3d078d94	0.033094004
15	0x3dac32f3	0.08408155
16	0x3c2f2bff	0.010691642
17	0xbd4d23ff	-0.050083157
18	0x3d8484cd	0.06470642
19	0x3d546a39	0.051859114
20	0x3b815a10	0.003947504
21	0xbe2f7e92	-0.17138126
22	0x3cb04835	0.021518806
23	0x3c87fe4b	0.016600749
24	0xbddb3fa9	-0.107055016
25	0xbeaaa0a7	-0.33325693
26	0xbd87d28d	-0.06631956
27	0x3d30ce5e	0.043165557
28	0xbcb04289	-0.021516101
29	0x3c4a1dd4	0.012336213
30	0x3dff1254	0.12454668
31	0x3db2f907	0.087389044
32	0x3c15ad38	0.009135537
33	0x3c9a4404	0.01883126
34	0xbbf89f9a	-0.0075873854
35	0x3dbf6b08	0.093465865
36	0x3e08b81f	0.13351487
37	0x3e5875b8	0.21138656
38	0x3c24472c	0.010026734
39	0xbe8b7871	-0.27240327
40	0xbc4bda39	-0.012442165
41	0x3ce65e07	0.028121008
42	0x3c1e0c8a	0.009646544
43	0x3c4316f4	0.011907328
44	0xbecb6d9f	-0.39732072
45	0x3e744e2a	0.23857942
46	0x3b89e4e4	0.004208194
47	0xbe218877	-0.15774713
48	0x3c9f6634	0.019457914
49	0x3bfe7cf9	0.0077663627
50	0xbc824cb8	-0.015905723
51	0xbcccfced	-0.025022948
52	0xbb93c367	-0.0045093778
53	0x3afedf2c	0.0019445173
54	0x3d8a8fc9	0.06765706
55	0x3d660608	0.056158096
56	0xbd890c7c	-0.06691834
57	0x3e8dacc4	0.27670872
58	0x3cd1cd44	0.025610574
59	0x3b5cd256	0.0033694706
60	0x3cc4cbea	0.024023015
61	0x3ded43c2	0.115851894
62	0x3c8dba95	0.017300883
63	0xbc1ce1a8	-0.009575285
64	0x3ddc7b42	0.10765697
65	0x3d00e9f9	0.031473134
66	0x3d9cf28a	0.07663448
67	0xbd60707b	-0.05479477
68	0xbeda93db	-0.4269093
69	0x3cf16ab3	0.029469823
70	0x3c8bf1dc	0.017083101
71	0xbd437ed8	-0.04772839
72	0x3d882394	0.06647411
73	0xbd6d0214	-0.05786331
74	0xbc057cc0	-0.0081474185
75	0x3c952490	0.01820591
76	0xbe3acd76	-0.1824244
77	0x3c5aea26	0.013361489
78	0xbac627dc	-0.001511808
79	0x3922f983	0.00015542474
80	0xbdf69e87	-0.120419554
81	0x3cbfa109	0.023392217
82	0xbcb11ea8	-0.021621063
83	0xbe4efaa9	-0.20212807
84	0xbe85325a	-0.26014978
85	0x3e2a282f	0.16616891
86	0x3d164e1b	0.03669558
87	0x3bffe9b0	0.00780984
88	0xbd35b8ff	-0.04436588
89	0xbe9c2265	-0.3049499
90	0xbe190867	-0.14944611
91	0xbd246fed	-0.040145803
92	0x3812b2d4	3.497566e-05
93	0xbe4efc47	-0.20213424
94	0x3c96ab24	0.018392153
95	0xbe40e384	-0.1883679
96	0x3c21398f	0.009840383
97	0x3ca08558	0.019594833
98	0xbd1bd9e3	-0.03804959
99	0xbc7dd0b8	-0.015491657
100	0x3cb0b5cf	0.021571068
101	0x3a8b3b7c	0.0010622586
102	0xbedb090e	-0.42780346
103	0xbedd85f9	-0.43266276
104	0x3d056848	0.032570153
105	0xbedee588	-0.43534493
106	0x3cda9e97	0.02668695
107	0x3dd3e926	0.10347204
108	0xbc881be9	-0.016614871
109	0x3bae3bdd	0.005317195
110	0x3d9e8a31	0.07741202
111	0xbc5ba918	-0.013407014
112	0x3d19c592	0.037541933
113	0xbe4b4c9b	-0.19853441
114	0x3d5dab2f	0.05411833
115	0x3ddd8266	0.10815887
116	0x3d3bc2e0	0.045840144
117	0x3e7306aa	0.23733011
118	0x3e1986dc	0.14992851
119	0xbe24d07e	-0.16095158
120	0x3c2f5206	0.010700708
121	0xba5a7c55	-0.0008334567
122	0xbd5f93fb	-0.054584485
123	0x3a5c23eb	0.0008397686
124	0x3d3a7614	0.045522764
125	0xbc24d0a9	-0.010059514
126	0x3e1bda97	0.15220104
127	0xbdc83cbe	-0.09777211
128	0xbc7c5fcd	-0.0154037
129	0xbcd0a8ce	-0.025471117
130	0xbe22d57b	-0.15901749
131	0xbd209c63	-0.039211642
132	0xbcfd0ec9	-0.03089084
133	0xbde9b8ff	-0.11412238
134	0x3e859e4f	0.26097342
135	0xbe22c287	-0.15894519
136	0xbdbe6cd7	-0.09298103
137	0x3acb3478	0.0015503308
138	0xbc808ae9	-0.015691238
139	0xbd9c203c	-0.07623336
140	0x3df48b6a	0.119406536
141	0x3c13b01b	0.009014155
142	0xbee6cb25	-0.45076862
143	0xbd1c2abe	-0.0381267
144	0xbce716fa	-0.028209198
145	0xbdff53d2	-0.12467159
146	0xbe522f87	-0.20525943
147	0xbd414cd5	-0.047192413
148	0x3de38584	0.111094505
149	0x3cfdd8c4	0.030987151
150	0xbdcc054c	-0.09961948
151	0xbcb60241	-0.022217872
152	0xbe7d7289	-0.24750723
153	0x3d31b266	0.043383025
154	0x3e01ac2e	0.12663338
155	0x3ce366eb	0.027759036
156	0xbd5b2186	-0.053498767
157	0xbbe818c9	-0.0070830327
158	0x3dcbed39	0.09957356
159	0xbdcda0e9	-0.10040457
160	0xbce02891	-0.027363094
161	0xbbfa5b2b	-0.0076402626
162	0xb9fd823a	-0.00048352947
163	0xbe541490	-0.20710969
164	0xbe68d4e1	-0.22737457
165	0xbd8902c4	-0.066899806
166	0xbd748fbc	-0.05970739
167	0x3d3d7c82	0.046261318
168	0x3cd7f323	0.026361054
169	0xbd4a8923	-0.04944719
170	0xbd052a58	-0.032511085
171	0xbcbf937c	-0.023385756
172	0x3d9cac82	0.07650091
173	0xbe7e2baf	-0.24821351
174	0xbcf9816c	-0.030457221
175	0xbd9f4b50	-0.077780366
176	0xbceaa349	-0.028642314
177	0xbc96a286	-0.018388044
178	0xbda85103	-0.08218577
179	0xbeba03d6	-0.36331052
180	0xbdf2b637	-0.11851161
181	0x3d324779	0.043525193
182	0xbd78a424	-0.06070341
183	0xbdaf5313	-0.08560767
184	0x3e0a2055	0.13488896
185	0xbd9b0405	-0.07569126
186	0xbdb8d7bc	-0.09025523
187	0xbe8f3bb1	-0.27975228
188	0xbd0d45c9	-0.03449038
189	0xbdda2a4f	-0.10652601
190	0xbdab5939	-0.08366627
191	0xbdbe9c02	-0.093071
192	0xbde6580e	-0.11247264
193	0xbd8940ea	-0.067018345
194	0xbe44e129	-0.19226517
195	0xbc30d943	-0.010793987
196	0x3d2c9109	0.042130504
197	0xbc0e073e	-0.008668719
198	0xbc520d6f	-0.012820586
199	0x3db9e1c9	0.09076268
200	0x3d5ea831	0.05435962
201	0x3d6fcaf4	0.05854316
202	0x3d90fd7f	0.070796005
203	0xbde6b90b	-0.11265763
204	0x3e3c05c2	0.18361571
205	0x3c44cddf	0.012011974
206	0xbc0443b5	-0.008072783
207	0x3ca60352	0.020265255
208	0xbe137731	-0.14400937
209	0xbc1605c8	-0.009156652
210	0x3b362e78	0.0027798694
211	0xbe345ae1	-0.17612793
212	0x3c3629cd	0.0111183645
213	0xbe83575c	-0.25652587
214	0xbc2a533d	-0.010395822
215	0xbc6edd5b	-0.014579142
216	0x3d3366e8	0.04379931
217	0x3dc36dc0	0.095424175
218	0x3d761d74	0.060086682
219	0xbe1eac7b	-0.15495484
220	0xbc57392a	-0.013136188
221	0x3d39e2eb	0.04538242
222	0xbd02e549	-0.031956945
223	0x3d520ae4	0.051279917
224	0xbe0ed0bd	-0.13946815
225	0xbdecd278	-0.11563581
226	0x3d1a64a0	0.03769362
227	0xbd8fb583	-0.070170425
228	0xbe190c8e	-0.14946195
229	0xbc3cdbe3	-0.011527034
230	0xbde5235a	-0.111883834
231	0xbdb79bbb	-0.0896525
232	0x3e045dfd	0.12926479
233	0xbe88bb5c	-0.26705444
234	0xbcf7e380	-0.030259848
235	0xbc53bb2d	-0.012923044
236	0xbca2a4b4	-0.019853927
237	0xbc116d03	-0.008876088
238	0x3d06b432	0.03288669
239	0xbd10d1b5	-0.035356242
240	0xbdb0efa3	-0.08639457
241	0x3db569a3	0.08858039
242	0xbcb40cbc	-0.021978728
243	0xbeb235eb	-0.3480676
244	0xbe221172	-0.15826967
245	0xbdc017c7	-0.09379535
246	0xbc06a4d9	-0.008218014
247	0x3ccf5200	0.025307655
248	0x3ceae28a	0.028672475
249	0xbc37e6fd	-0.0112245055
250	0xbdd454b7	-0.103677206
251	0x3ea3a536	0.31961983
252	0xbd453a62	-0.04815138
253	0xbe70262d	-0.23452063
254	0xbe6ff298	-0.23432386
255	0x3e0992e8	0.13434947

fc3.bias f4 [2]
0	0x3f9a5604	1.20575
1	0x3de2639b	0.110541545

b2.weight f4 [2]
0	0x40741469	3.8137457
1	0x40d6adfb	6.708738

b2.bias f4 [2]
0	0xbedcac68	-0.43100286
1	0xbfc64aea	-1.5491612

b2.running_mean f4 [2]
0	0x3f564b8b	0.8370902
1	0x3f079136	0.5295595

b2.running_var f4 [2]
0	0x4001305a	2.0185761
1	0x3f6cf77b	0.92565125
