data/Agent2_Actor_checkpoint_target.pth (torch_old, 159687 bytes, 10 tensors)

fc1.weight f4 [256, 24]
00000000: 0487 6f3d aac6 dbbc 3db0 54bd c83b f3bd
00000010: ac2f b03e 6ff7 5f3e fa2f 5e3c b973 39bc
00000020: 3c0f 3f3d 3cd8 2fbd 183d 7bbd 18ec aebd
00000030: d49d a63e a47c 033d 03dd 47ba 4418 10bd
00000040: 5dd7 5e3d 3e88 75bd d314 bd3b bee5 1dbe
00000050: 79d6 8b3e 8891 7bbe 8798 e0bc 9785 e1bd
00000060: e198 203e 7838 9b3b 4189 57bd 47e6 20bc
00000070: a795 f33d 28dd 873e 3520 553d e53d 1c3d
00000080: c1e1 193e e926 b73d 326f 313d c16a 88bc
00000090: 6bb8 6c3e b9cc d23d a627 3fbd fc32 5b3d
000000a0: 4b05 9a3d 4c8b ee3c ba82 d03c e8b4 a3bd
000000b0: b1c7 c53e 9db3 75be 904b f8bc fbd6 a6bd
000000c0: 5895 d03d 217c 68bd 9ae0 99bd 7579 c3bb
000000d0: 3810 35be 56cf 67be d423 2abd 1178 0fbc
000000e0: 5633 313e 4010 37bc b38c 433d 067f c9bc
000000f0: 5abb d9bd 03c6 2dbe d5f4 c13c 002d 19bd
00000100: 4e1f ea3d 6ee3 89bd 020f 163c 367e 04be
00000110: 7497 0abc 165a c03c 8d75 bb3c aeb7 e4bd
00000120: d592 163b 260e 73bb b59f 6f3c 1af0 6cbd
00000130: bc25 b1be 6d01 723e 8951 733c c914 08bd
00000140: de11 6ebc 585f 36ba 92b6 91bd 44cc e9bc
00000150: 6cda 9f3c 20ea 143e 9bb2 043d c901 72bc
00000160: c300 9ebc 4fd5 7fbd dc50 ffbc 7892 16be
00000170: bf88 c33e 90ac c73d 4132 a33c d8a3 d8bd
00000180: 874d 0abd 054d 4ebc b1b6 153c 7e98 a8bd
00000190: d29c de3e 19a5 8d3e ce7c e1bb 00f5 90bd
000001a0: c00f 8abd e0cb 04bd 84e9 a53c 80e1 37bd
000001b0: 9d6e 16bd ecb0 bc3d 98be 7dbc 4e1b e43c
000001c0: e27e 7dbd 801f c4bd abd2 263d 1e26 253d
000001d0: 2ea0 01bf e67a 883b 776f 2dbd 3ed8 313d
000001e0: 79a7 833c 2ed2 e13e e375 0abc d511 493b
000001f0: 1456 9739 34a8 dabd 988a 1dbc b1c1 003d
00000200: 91d1 893d 0313 dd3e 77ff 64bd 7a27 f83b
00000210: b1b6 2e3c 0bd9 0bbf 8aac df3c ae4c 1bbb
00000220: 5ba0 343d 9b2b 073f e9b4 de3b 2484 b13d
00000230: c8bb f1bd 4c3e 51bf a995 11bc 9c51 c63d
00000240: e7cb 063e 182f 443d 7002 7cbd 7892 6fbd
00000250: 08c8 ab3d 72e9 2cbd a855 52bd 0e6e a2bd
00000260: 9697 323e 27bf a23d 8adf 90bd 526a cebd
00000270: c1f8 a33d 9068 ffbd 7f0e 6dbc 6904 1abe
00000280: f2e7 b43d 329e e43d 98e5 4cbd 7e6e 583d
00000290: 825d a13c b311 55be 83d4 47bc ff25 babb
000002a0: 316a 603d 7f55 a33d 0b5a a33b 983e 0abe
000002b0: 6de6 42be 40d7 c5bd d4a7 ca3d a08f 26be
000002c0: 4601 643e f0a9 8e3d a7f0 893d fca7 893d
000002d0: d706 2cbd 8de6 0c3d 796f 88bc d75f af3d
000002e0: a11c 8e3e 16cb a5bc 889f 283d 09f6 833d
000002f0: 1351 c8bc b671 713e 9e96 2abd 3e99 723d
00000300: 8d4a c13d c7c9 50bd d2d1 5abc f064 56bd
00000310: c535 83be 287f e1bd 544f 2a3c 74d4 38bd
00000320: 9d3e ff3c 2b2b efbc aa97 cc3c d139 ffbd
00000330: 5aa3 89bc 8c17 e73d 392b 27bd 6377 d3bd
00000340: f180 2abc ec1a 9abd c847 093c 1d68 fcbd
00000350: 0fc5 db3d f922 bd3e 0f4b 85bd 8ba7 1cbe
00000360: 5d6c e23d 4a12 433d 1cd4 6dbd 6ca5 e0bc
00000370: 7023 203c 230c 22bd f0a3 09bd 14bb 06be
00000380: aa2e 803d 85c5 2e3e dbe7 d13c 94d2 6d3d
00000390: 8ba8 9d3d ee1e 3ebe 3748 eb39 dca8 153d
000003a0: 06fa 163e 4807 043e 5854 4bbd cb46 7a3d
000003b0: d993 4d3e a2a6 f6be 5d5e c0bb 7fd5 853d
000003c0: 4b6f b6bc d9a0 b13d d176 ae3c 750e 8bbd
000003d0: e16e 0a3e 6310 c4be a369 e1bc cdac f0bc
000003e0: 0b21 e6bc 9ce1 b33d 29b2 493c 6f19 b93d
000003f0: f6aa dc3d 0e22 03be c011 4fbd 7d69 af3d
0.05847837 -0.026828129 -0.051925886 -0.11876637 0.3441137 0.21871732 0.013561243 -0.011319094
0.046645388 -0.042930827 -0.06133756 -0.08541125 0.32542288 0.03210129 -0.0007624181 -0.03517939
0.054404605 -0.059944384 0.0057703047 -0.15419671 0.27312067 -0.24567235 -0.02741648 -0.11011808
0.15683319 0.004736956 -0.05262113 -0.009820527 0.11893778 0.26535916 0.05203267 0.038144965
0.15027525 0.089429684 0.043318935 -0.016652467 0.23117225 0.10292954 -0.04666867 0.05351542
0.07520541 0.029119156 0.02545296 -0.079934895 0.38628915 -0.23994298 -0.030309469 -0.08146473
0.10184735 -0.056759004 -0.075135425 -0.0059654065 -0.17681968 -0.22637686 -0.041538075 -0.008756653
0.1730474 -0.011173308 0.047741603 -0.024596702 -0.106314376 -0.16970067 0.023676315 -0.03739643
0.11431752 -0.06732832 0.009158852 -0.1293877 -0.008458961 0.023480456 0.022883201 -0.111678466
0.0022975702 -0.003708729 0.0146254795 -0.057846166 -0.34599102 0.23633356 0.014850982 -0.033222947
-0.014530627 -0.00069569563 -0.07114901 -0.028539784 0.019513331 0.14542437 0.032396894 -0.014770933
-0.019287473 -0.062459286 -0.031166486 -0.14704311 0.38190266 0.097497106 0.019921424 -0.10578126
-0.033765342 -0.012591605 0.009137795 -0.082322106 0.4347902 0.27665022 -0.006881333 -0.0707798
-0.06741285 -0.032420993 0.02025295 -0.044892788 -0.036726583 0.09213433 -0.015487336 0.027845051
-0.061888583 -0.09576321 0.040728252 0.040319555 -0.5063504 0.0041650413 -0.04234263 0.043419115
0.016071068 0.44105667 -0.008450958 0.0030680795 0.00028865098 -0.106766135 -0.009615563 0.03143472
0.06729425 0.43178567 -0.055907693 0.0075730653 0.010663674 -0.54628056 0.027303953 -0.0023696828
0.04409824 0.5280091 0.0067964685 0.08667782 -0.118033946 -0.8173568 -0.008885779 0.096835345
0.1316372 0.047896475 -0.061525762 -0.058489293 0.08387762 -0.04221482 -0.05135122 -0.079311475
0.17440638 0.07946616 -0.07073887 -0.10078873 0.080064304 -0.124711156 -0.014468788 -0.15040745
0.088333026 0.11162986 -0.050023645 0.05283975 0.019697908 -0.20807533 -0.012196663 -0.005680799
0.054788772 0.079752915 0.004985099 -0.1350044 -0.19033213 -0.09660196 0.09895292 -0.16265726
0.22266111 0.06966007 0.06735354 0.067214936 -0.04199871 0.034399558 -0.016654717 0.08563202
0.27756217 -0.02023844 0.041167766 0.06443412 -0.024452722 0.23578534 -0.041647546 0.059228174
0.094380476 -0.05097368 -0.013355689 -0.052342355 -0.2562696 -0.11010581 0.01039489 -0.045124486
0.031157786 -0.029195389 0.024974663 -0.124621995 -0.016801525 0.11283788 -0.040812705 -0.103255056
-0.010406719 -0.07524666 0.00837893 -0.123245455 0.10730945 0.36940745 -0.06508457 -0.15298288
0.11055825 0.047624864 -0.05806361 -0.02742263 0.009774074 -0.039562356 -0.03360361 -0.13157302
0.062589005 0.17067535 0.025623253 0.05806215 0.07698163 -0.18566486 0.00044876497 0.03653799
0.14743814 0.12893403 -0.049640983 0.06110267 0.2007593 -0.48174006 -0.005870624 0.06534862
-0.022269865 0.086732574 0.02129689 -0.06789867 0.1351886 -0.38293752 -0.027516192 -0.029379273
-0.028091928 0.08783266 0.012310543 0.09038054 0.10774796 -0.1280596 -0.050554037 0.08565042

fc1.bias f4 [256]
00000000: a87e 8e3d bcda 7f3e 85ec 28be 7835 2c3e
00000010: 3698 8dbe 7981 93bc d2e3 3cbd 3eeb d4bc
00000020: 22b3 3e3d c5a3 ed3c 6d23 763e 950e 83be
00000030: fd8e 16bd 9778 bbbe a605 85bd 37f4 cdbd
00000040: cbc7 40be 7369 f7b9 8fe2 e1bd 121d 9abe
00000050: fba1 4abe a692 223e d99f fabd 7698 153e
00000060: effa 553e a9ed 613e 5559 6bbe 426d 2fbe
00000070: 3602 0c3e 0a98 79bd 0370 51be cc23 6abb
00000080: 423c b5be a0ca 86be 5a07 c7be 7b4e 223d
00000090: e440 37be f192 03be df91 9fbe e5c7 bbbe
000000a0: 1d64 22be 30a9 b4bd 648f 153e 81bd 35be
000000b0: 93cf b2be b0d7 01bd caea 6b3d fc0a 34be
000000c0: 2d6e 63bd 0013 6d3e e012 c2be 591c 30be
000000d0: 307b c03c 98c1 27be 94db afbd ea29 873b
000000e0: e102 dd3d 5af9 903e 178e bb3d aa7d 2abe
000000f0: c196 f2bc 3949 bf3d 7fde 82bd 2551 4d3c
00000100: 8fed 54be deef b0be d822 4fbe 962f 5ebc
00000110: 2b0f 9ebe 6b22 e83d 8bb4 24be 09b8 79be
00000120: 0714 79be 57c3 54bd b69d aabe 8c92 773e
00000130: 7a06 04be a280 92be fefb a23e 820f 08bd
00000140: cd0d a1be 7ae4 7ebe 523a 5fbe 5360 45be
00000150: 1692 0dbe dbf0 49be fc10 10bd cd39 0a3e
00000160: 2511 93be c435 2d3d afc2 d7bd 84b5 94bd
00000170: 9309 89be 4c6e 413e f9af 17bb a6f1 f73d
00000180: 0306 e03d 91eb 8abd 59c6 053e 4825 eabd
00000190: 03b5 f7bc 3300 ba3c df5e 74be e5b0 493e
000001a0: f2cd 31be 307e b8bd 2255 183e 3e25 e6bd
000001b0: 63fa 81be 09c2 223e 80aa fa3d dff2 66be
000001c0: 94e6 37be fb11 9ebe cc5f 0a3e f6f8 95be
000001d0: a59d ccbe 1226 00bd 314f ec3d e4c5 523d
000001e0: f937 6fbc c46b 2d3e 0672 ddbd 137c 023e
000001f0: f65c 07bd c4cd ccbe 7763 0d3e 0edd f83c
00000200: c645 653d beae 673d 9591 0fbd 12c7 30be
00000210: 57a2 563d 8550 70bc 8f9d 9cbe e32e 813d
00000220: 442e f2bd 34c7 c8bc dd72 c3bd c362 adbd
00000230: eefe 15bd 3917 53bb 5b90 a8be 6aac a23e
00000240: b0f2 c03c b5ba db3b b01f acbd 5a72 0bbe
00000250: deda 84bd 4e7d 8bbd 82b1 003e df9b 01bd
00000260: 8687 39be 9566 273e 9252 d63d 9ebd 51bd
00000270: 9cb3 293e 2490 a83e e311 d4bd 539d b4bd
00000280: 35d6 173d 9c31 f03c 3912 22be 43a9 a13e
00000290: adf7 d93e f434 29be f21e 4fbe 35ea 11bd
000002a0: 07e6 83be 7762 11be 778a ba3e 95fd 393d
000002b0: a8a8 9dbe 0f66 abbe 7863 0abd d22b 283d
000002c0: 88a9 e6bd fc52 a1be 15c2 63be 303a e13c
000002d0: c7af 9ebc e048 83be 8fc6 5f3e 8ede 14be
000002e0: 7aaf 7fbe 7ade 0c3d e366 abbd c249 9e3c
000002f0: 9373 f23d 49e6 913b d03f 703e 39b1 633c
00000300: 5824 ccbd a51f 65be 374d bebd 1f42 52be
00000310: 3460 d7bd e33c 55be 8ce8 a1be f229 af3d
00000320: fd2c bebe 636c 34be 45d8 ac3e fe1b 4ebe
00000330: 65f3 c63d c81e dd3d a8f7 e23d 0e2b b93c
00000340: 21a2 1dbe b060 26be 8c39 013e 8d7a 943d
00000350: 2a2b 27be 2ced 8bbe 39aa d1bd 0ec6 fa3c
00000360: e056 75be 7148 d5bc 2bb2 54be 2bf4 59bd
00000370: f121 a7bd 5de3 9abd 155c 12be a5e7 91be
00000380: c12e a43d 6656 5abe 793f 2cbe 5961 183e
00000390: f458 ee3c 4489 2bbe 0b96 40be 3616 233e
000003a0: 5645 30be 73fd 9abe fff1 863d 660c 02be
000003b0: 7f5c d4be be28 8f3e fd23 5fbe e923 103e
000003c0: a4b6 4bbe 7eaf 2c3d ac6b 43be c305 8cbe
000003d0: 97f3 f33d 81aa a2be 2a6c 42be 23ec 053e
000003e0: ee81 07bd 8238 3c3e dbe8 5abe 8870 a53e
000003f0: 2923 00bc cf96 733e 3dbc c2bd 157c 4cbe
0.069577515 0.24985784 -0.16496475 0.16817272 -0.2765519 -0.018006073 -0.046115704 -0.025991078
0.046557553 0.029008755 0.24036951 -0.25597063 -0.036757458 -0.3661544 -0.06495218 -0.10056346
-0.18826215 -0.00047190077 -0.11029541 -0.30100304 -0.19788353 0.15876254 -0.1223752 0.1460894
0.20896505 0.22063316 -0.22983296 -0.17131522 0.13672718 -0.06093601 -0.20452885 -0.0035726903
-0.35397536 -0.26326466 -0.38872796 0.039625626 -0.17895848 -0.12849022 -0.31165978 -0.36675945
-0.15858503 -0.088213325 0.1460548 -0.17748071 -0.34923992 -0.031699836 0.05759696 -0.17582315
-0.055524994 0.23151779 -0.37905025 -0.17198314 0.02349624 -0.16382444 -0.08586803 0.0041248696
0.10791565 0.2831524 0.09157961 -0.166495 -0.0296129 0.09340138 -0.06390094 0.012531553
-0.20793746 -0.34558004 -0.20228136 -0.01356115 -0.30870947 0.1133469 -0.16084497 -0.2438661
-0.24324046 -0.051944103 -0.3332345 0.24176997 -0.12893096 -0.28613764 0.3183288 -0.033217914
-0.31455842 -0.24891844 -0.21799591 -0.19275026 -0.13825259 -0.19720785 -0.035172448 0.13498612
-0.28724018 0.042287603 -0.1053518 -0.07261184 -0.26765117 0.18889731 -0.002314566 0.12106638
0.10938647 -0.06783212 0.13063945 -0.11432892 -0.03023768 0.022705173 -0.23864315 0.19696386
-0.17363718 -0.09008443 0.14876226 -0.11237572 -0.25386342 0.15894331 0.122395515 -0.22553585
-0.17959052 -0.30873093 0.13513106 -0.29291505 -0.39964023 -0.031286307 0.11538542 0.051458254
-0.014600747 0.1693564 -0.10812764 0.12742643 -0.03304764 -0.40000737 0.13807474 0.030378845
0.055974744 0.05656313 -0.035050947 -0.1726344 0.052400913 -0.014667635 -0.30588958 0.06307771
-0.11825231 -0.02450905 -0.09543393 -0.08466103 -0.036620073 -0.0032209887 -0.32922634 0.31772166
0.023553222 0.006705607 -0.084044814 -0.1361784 -0.06487058 -0.06811009 0.12567714 -0.03164279
-0.18118104 0.16347726 0.10464968 -0.051206224 0.16572422 0.3292247 -0.10354974 -0.0881907
0.037069518 0.02932053 -0.15827264 0.3157445 0.42571774 -0.16524106 -0.20226648 -0.035623748
-0.25761434 -0.14197718 0.36433765 0.04540785 -0.30792737 -0.33476302 -0.033786267 0.041057415
-0.11262804 -0.31508625 -0.22242005 0.027493566 -0.019370927 -0.25641537 0.21853088 -0.14538023
-0.24969283 0.034391858 -0.083692335 0.01932228 0.1183845 0.004452501 0.23461843 0.013897234
-0.099678695 -0.22375353 -0.09292071 -0.20533036 -0.10516396 -0.20824008 -0.31622732 0.08552922
-0.37143698 -0.17619471 0.3375875 -0.20127866 0.097143926 0.10796887 0.11082393 0.022603538
-0.15393879 -0.16247821 0.12619609 0.07249937 -0.1632506 -0.27329385 -0.102375455 0.030612018
-0.23958921 -0.02603552 -0.2077109 -0.053211372 -0.08160771 -0.07562897 -0.14292939 -0.28497043
0.0801673 -0.21322021 -0.16821088 0.14880885 0.02909515 -0.16751581 -0.18807237 0.15926442
-0.1721395 -0.3027149 0.06589126 -0.12700042 -0.4147682 0.2796077 -0.21791072 0.14076199
-0.1989389 0.04215955 -0.19084042 -0.27348146 0.119116955 -0.3177071 -0.18986574 0.1307836
-0.033082895 0.18380931 -0.2137789 0.32312417 -0.007820883 0.23787998 -0.0950856 -0.19969209

fc2.weight f4 [128, 256]
00000000: f10b 82bd a2ea c33d 5ce8 ac3d 7c93 02bd
00000010: 2d3c f1bd 5947 98bd 98ef 613d 8422 4cbd
00000020: b29a 95bd 14d8 e43c 0772 03be cf3d 5e3d
00000030: 32f4 243c 5016 243d dc38 82bd 00b4 cc3d
00000040: 42ef 853d f77b 17be 1309 c8bc 958e 06be
00000050: f76a d83c 7941 95bd 85d3 b1bd f00b b83c
00000060: 5b61 8bbd 9fe2 51bd 83da 783c 501f 43bd
00000070: 895b c03d ecba aa3d 5bc7 9e3d 4b98 ab3d
00000080: 2317 b13d 344b 67bd ee79 6ebd 452a b53b
00000090: 06a8 813d d714 303d 5d03 493e e9b6 a63d
000000a0: f022 29be 5338 aebd cd73 cfbc c959 053e
000000b0: bb41 3b3e dfab d13d 755a 26be 2af4 913d
000000c0: 63ea 943d 47f4 6dbd 6c77 81bd 6960 84bd
000000d0: 02dc e0bd 8fd8 a43d c49c d73d ee9a 863c
000000e0: 0136 aebd d20f bebd bc6a cfbc 1a16 04bd
000000f0: e22f 39bd 9050 17be 8498 56bb 7235 9b3b
00000100: 96c9 f33c 7893 14bd ab42 063e 3964 1abe
00000110: 25fc 0cbc 4496 16be 5a94 ac3b c441 c53d
00000120: 7bcf f3bd 561a 7dbd a185 cd3c 6bfa 51be
00000130: 0a03 d13d 9253 503d 504c 48bd 15b1 65bd
00000140: eb0f 86bd ca9b 1ebb 7a11 a83b 0094 093e
00000150: e6f4 b3bd 488d 87bd 83b9 fc3d 8c56 5abe
00000160: 72ad 05be 734d 1bbd 21d8 223c 644f 69bd
00000170: b1aa 13bd 9fd9 95bc 8245 90bc ee1d 10be
00000180: d326 34bc ba13 3ebd a18a 25be b384 2c3d
00000190: 1de6 77bd 4c8e 1e3d ae6f c73d e841 d5bb
000001a0: be05 103d 5919 ce3d ea13 b83c b042 22be
000001b0: 7278 08bd 1976 2bbe 5781 d1bd a0c1 bcbd
000001c0: 4099 0d3e a0f8 143d 85de 1fbe ab2f 573d
000001d0: cf6f 14bd 90eb 91ba ab35 483d 70a3 f23b
000001e0: 47ea c53d eda9 dbbd 1985 f8bd 554f e73c
000001f0: eec1 433d bf15 85bd 8233 d73d 0384 11be
00000200: fb77 233e 026f 263c f896 babd 094a 39bd
00000210: 16c9 ca3b 361b 21bd ce65 193e e40d 59bd
00000220: cb15 903d 735f 28be 09be a0bd 827a 98bc
00000230: af8b d9bd 69fb 07bd b2e1 40bd d5e0 3d3d
00000240: ba5c acbd b532 b43d e7a7 dabd 4060 d139
00000250: 49c0 863d d756 d3bb 61c8 8fbd 37a6 29be
00000260: 61f1 5f3d cbb0 013d edc4 4c3d d720 e63c
00000270: 05f5 0fbe 1c21 e2bc 3f23 3abd a937 513e
00000280: d6d1 e2ba 83a1 553d cfe3 5d3d a56c 22bd
00000290: 6851 e3bc 3968 5dbe 1130 8d3a 1780 1c3e
000002a0: ddb2 62bd 1ced 60bc 54a1 02be a716 403d
000002b0: 8823 80bb 7c98 313e 9954 9dbc 16be 0dbd
000002c0: 633c c23b 13a8 2f3e bdc6 393d 349d a5bc
000002d0: 29f4 f2bc b203 4d3e 93dd 9fbd 1d11 d6bc
000002e0: baa1 683e 8ca8 263c a848 f7bd 9a30 103d
000002f0: c311 72bd d816 0dbe cea2 19be 3ccc ecbc
00000300: 745f b2bd a774 0bbd 09d0 1d3d f7e5 c2bd
00000310: 4a2a 873d 99f2 dd3d 6f37 7c3d dcb4 b33d
00000320: 485a 223e 4670 d7bd eadf be3b 2c3d 0c3c
00000330: dd62 1d3d a246 b9bd 7d6b f6bd 171a 7e3e
00000340: 44c1 be3d 1a4c 34bd b63c 8e3d 936e 503d
00000350: 5510 08bd 5d27 c43d 7886 03be 7b6f 97bd
00000360: 8bbe b03d 0cc2 5abd 9034 a2bd 3181 4c3d
00000370: 83ab 863c d7f3 f53a 6522 333d 3268 55bd
00000380: 9611 32bc 5e5d 66bd 725a 453d 3ffd a5bd
00000390: e345 bcbd 036c dabc 85a8 243c c752 4b3c
000003a0: d9bb a93d 8d95 a03d 7da1 b13c b816 183e
000003b0: 1771 2e3e d50a a6bd a7b2 d43d 11dc e5bd
000003c0: 6b4a 103e 5a46 c03c 655f f63c 00a2 21bc
000003d0: 6de9 bd3d f8d1 66be 3ce8 47bd b3a3 76bc
000003e0: 8275 91bd b667 1f3e 3660 5bbc 0acb 233d
000003f0: ae3c 0dbc bd00 35be 71d0 f53c 31ab 03bd
-0.06349934 0.09566237 0.084427565 -0.031878933 -0.11779056 -0.074354835 0.055160135 -0.049837604
-0.073048964 0.027935065 -0.12836467 0.054258164 0.010067986 0.04006034 -0.06358501 0.0999527
0.065397754 -0.14793383 -0.02441839 -0.13140328 0.026418192 -0.072878785 -0.08682922 0.02246663
-0.068056785 -0.051241513 0.015188816 -0.047637284 0.09392459 0.08336434 0.07752868 0.08378657
0.08646991 -0.056468204 -0.05822175 0.0055287206 0.06330876 0.042988624 0.19630189 0.08140356
-0.16517234 -0.08506837 -0.025323773 0.13022532 0.18286793 0.1023786 -0.16245444 0.07126649
0.07271268 -0.05809429 -0.06321606 -0.06463701 -0.10979463 0.08049118 0.105279475 0.016431298
-0.08506394 -0.09280361 -0.02531945 -0.03224764 -0.04521168 -0.14776826 -0.0032744715 0.004736596
0.02975921 -0.03627345 0.1311137 -0.15077294 -0.008605038 -0.1470576 0.0052667083 0.096316844
-0.11904808 -0.061792694 0.025088133 -0.20505683 0.10205658 0.05086095 -0.048900902 -0.05607708
-0.06546005 -0.0024201744 0.0051290365 0.13435364 -0.08786945 -0.06618744 0.12340071 -0.21322078
-0.13054445 -0.03791566 0.009939224 -0.05696048 -0.036051456 -0.018292246 -0.017611269 -0.14073917
-0.010995585 -0.04640553 -0.16166164 0.04211874 -0.060522188 0.038709924 0.09738098 -0.006508101
0.035161726 0.100634284 0.022470433 -0.15845752 -0.03331799 -0.1674427 -0.10229748 -0.092166185
0.13827991 0.03636992 -0.15612228 0.052535694 -0.03623944 -0.0011132825 0.048879307 0.007404737
0.096638255 -0.1072577 -0.12134761 0.02823607 0.047792368 -0.06498288 0.10507871 -0.14210515
0.15963738 0.010158302 -0.09110826 -0.04523662 0.006188522 -0.03933259 0.14980242 -0.052991763
0.07035407 -0.16442661 -0.07848746 -0.018613104 -0.10622346 -0.033198748 -0.04709024 0.046356995
-0.08416124 0.08798734 -0.10676556 0.00039935298 0.06579644 -0.006449561 -0.07020641 -0.16567312
0.054673556 0.031662744 0.04999249 0.028091831 -0.14058311 -0.027603678 -0.04544377 0.20431389
-0.0017304968 0.052155983 0.054172333 -0.039654393 -0.027748778 -0.21621789 0.0010771771 0.15283237
-0.05534636 -0.013728406 -0.12756854 0.046896603 -0.0039104857 0.17343324 -0.019205378 -0.03460511
0.005927609 0.17153959 0.045355547 -0.020216562 -0.02965744 0.20020941 -0.07805934 -0.026131207
0.22717944 0.010172021 -0.12074405 0.0352026 -0.05909897 -0.13778245 -0.15003511 -0.02890598
-0.087096125 -0.034046795 0.038528476 -0.095165186 0.06599863 0.108372875 0.061576303 0.087747306
0.15854752 -0.10519461 0.0058250325 0.008559506 0.03842436 -0.09046675 -0.120322205 0.2481464
0.09314206 -0.04401789 0.069451734 0.0508867 -0.0332187 0.095778205 -0.12844265 -0.0739431
0.08630093 -0.053407714 -0.07920182 0.049927894 0.016439205 0.0018764687 0.043733973 -0.05210132
-0.010868451 -0.056241386 0.04818196 -0.081049435 -0.09193017 -0.026662832 0.010049944 0.012409872
0.08287782 0.078410245 0.021683449 0.14852417 0.17035328 -0.08107535 0.10385638 -0.11223615
0.14090888 0.023471046 0.030074785 -0.009865284 0.09273038 -0.22541034 -0.04880546 -0.015053677
-0.07102491 0.15566906 -0.013389638 0.039988555 -0.008620424 -0.17676063 0.03000662 -0.032145683

fc2.bias f4 [128]
00000000: 818e 0ebe bd25 fa3d d526 41bd 8906 bbbd
00000010: b563 143e f6c6 f53e 803f d5bb ae8c e5bd
00000020: 3ada 13be de5b 6abc d4a4 9d3e 4182 a03e
00000030: a540 b93a c055 933e 9c47 6abe 2637 a4bc
00000040: 614e 863c 5a14 083e 6e4f 31be 15d0 02be
00000050: 5485 913e 8fea 88be 549a 20bc b90e 4dbe
00000060: 8da9 65be 4593 1d3d 0a14 c9bd b2ee edbd
00000070: ce3c da3e 7819 21be 4f7d 913c ce2c 8f3d
00000080: d3c9 003d cd9c 283d 7955 003e b57a 10bd
00000090: ca2f 033e f779 a9be d964 913d c76f 3b3e
000000a0: 8ffe 8bbc 5328 4fbd 09c6 243d fad2 4a3e
000000b0: 0e6f 643e 492d c7be 0c22 843c 0714 14be
000000c0: 714b 0fbd d4fc cd3d aeef 493c 3d72 c4bd
000000d0: 6c82 063d 6d07 5bbe f4bf fc3c f186 22be
000000e0: b302 e3bd 2ac1 b9bc 1a75 57be c960 2a3e
000000f0: 275e a8bd ec69 7cbe e1b5 523d 8e74 16bd
00000100: 31e0 903e 49fb 27be 33a3 1bbd 02e2 9cbe
00000110: cf05 92be 2dce 213f 44d6 72bc 28e6 07bc
00000120: c632 2fbe 5e52 a5bd 0a07 91bd 37dc 0fbe
00000130: f15f 04bd 7c22 d5be 07dd 3fbd fd21 f1bd
00000140: 20d4 5cbe 0b12 953b 3e91 0abe ddab 743e
00000150: f610 99bc 3fad f33d fdf9 51be c6da c83a
00000160: ad88 46be f8f1 89bd 9cde 2dbe 9f0e 64bb
00000170: 52ad 903e 8ef2 bdbd ee1a 953d be4e 75bd
00000180: 880f cf3a f95d 80be 6f80 393e 0e4a 373e
00000190: 85a5 4dbe b3c7 273e 74f6 08bf a0c2 b33c
000001a0: 886b 9f3c cc5d acbd 7f36 853d 6aca c9bd
000001b0: ba78 01be fd2e ffbe cb31 0ebe 7d06 a93e
000001c0: 5a8f d13e 34ed 72be 9130 56bd 7d3c a9be
000001d0: c76b 3f3d ac6d e1bc 9c02 863e c2b5 1dbe
000001e0: 89fa afbd 0388 fcbd 1110 84be 307b 9abd
000001f0: c9ef 053e 785e d0be 7685 0dbe 5416 223e
-0.13921548 0.12214229 -0.047156174 -0.09132106 0.1449116 0.48003358 -0.006507814 -0.11208473
-0.14438716 -0.014304129 0.30789816 0.31349376 0.0014133645 0.2877636 -0.2287888 -0.020045828
0.016394796 0.13289014 -0.17315456 -0.1277469 0.28422034 -0.26741454 -0.00980242 -0.20025147
-0.2242796 0.038470525 -0.09818275 -0.11617793 0.42624515 -0.15732372 0.017759947 0.06990968
0.031442475 0.041165162 0.12532605 -0.035273273 0.12811199 -0.33100864 0.07099313 0.18304358
-0.017089156 -0.050575566 0.040227924 0.19807044 0.22307989 -0.38901737 0.016129516 -0.14460765
-0.034984056 0.10057989 0.0123252105 -0.09592102 0.032839224 -0.21389551 0.03085325 -0.15871789
-0.11084499 -0.022675116 -0.21040764 0.16638483 -0.08221083 -0.24649781 0.051442984 -0.03673225
0.28296044 -0.16404451 -0.037997436 -0.3064118 -0.28520057 0.63205224 -0.014821593 -0.00829462
-0.17109212 -0.08072351 -0.07081421 -0.14048849 -0.03231806 -0.41627872 -0.046841647 -0.11774061
-0.21565294 0.00454927 -0.13531968 0.23893686 -0.018684845 0.118982784 -0.20505519 0.0015323989
-0.19388075 -0.06735605 -0.1697945 -0.0034798754 0.28257233 -0.09274779 0.07280527 -0.059889548
0.0015797475 -0.25071695 0.181154 0.17899343 -0.20082672 0.16384773 -0.5350106 0.02194339
0.019460455 -0.08416328 0.06504535 -0.098530605 -0.1264371 -0.49840537 -0.13886182 0.33012763
0.4092968 -0.23723298 -0.05229241 -0.3305396 0.046733644 -0.027518116 0.26173866 -0.15401366
-0.08592708 -0.1233063 -0.25793508 -0.075430274 0.13079752 -0.40697074 -0.13820443 0.1582883

fc3.weight f4 [2, 128]
00000000: d611 193c a72a 2a3e d89b 8c3b 02d6 113e
00000010: 4fc0 193e a378 f03d dbf9 ad3d 8382 023e
00000020: 97d2 333d d368 8f3c cb06 a33d d364 28bd
00000030: 4baf bc3c 1f00 003d 8e53 0d3d a325 13be
00000040: 472a e93c 2666 34be d4f4 153c ab35 16be
00000050: e535 9b3d bd0c 09be acb3 213d 97c7 9f3c
00000060: 5aa4 043c 5b22 3e3d ae58 77bd a0c2 c63c
00000070: 49a6 bd3d 7a25 ecbd 35ae b2bd 8dd7 a53d
00000080: ec6e 4f3c 980f d8bc 4b9e 633d 3062 0c3d
00000090: 40c2 99bc ee9e 03be 6f54 17bd 5ec7 be3d
000000a0: 4a37 8a3b 511e 433c 3e99 033e 7690 8c3d
000000b0: dc69 933d 97e3 bebd 7a92 423c 501f a63c
000000c0: 5886 b83c 533e 503d 23a7 b73d e056 c53c
000000d0: 83c5 5dbc 05df 653a 2631 103d b62d 42be
000000e0: 5a39 bc3c 1022 cebd 399e 533c 0ef1 733d
000000f0: 56de 433c 6611 dfbd 03a0 e23d 89dd 3a3d
00000100: 832b 313d 400e 263c bb40 48be d413 19bc
00000110: 2cb6 523d fb3f 8e3d 1512 3ebd 2d1c db3c
00000120: 943b 313c 3cc7 8a3d 9feb 69bd 6fd6 f43c
00000130: dc58 4cbe ffe1 0b3c 4829 733c 5b82 df3d
00000140: 7216 67bd d679 783b 88fd ae3d 8478 d239
00000150: 5b05 a23c a0d4 303d 62a2 e33d fa11 203c
00000160: cf02 96bb e7fa 513d 68ae cdbd 54a4 10be
00000170: 893e 253d 5f7b 413c 7dcf 193e 4aef 38bd
00000180: 5d66 88bc de37 30bd 5f71 f73d 86c6 8bbe
00000190: f22e 51bd 1f85 d4bc 9ae3 523a 8cb4 783d
000001a0: dd07 aabe d8a2 03bb 48a4 5d3d ee04 ab3b
000001b0: 530c ffbd 25d5 5ebd 1f03 d4bd 5f4c 473d
000001c0: cfb4 d43d b3e8 09be 4223 ed3c 2150 94bb
000001d0: 77d2 353e 11fa 5d3d db78 8e3e 2af5 763c
000001e0: 59a9 4abe 2e59 bd3c b41f 4cbd 2e4a 203b
000001f0: 6aa1 6bbc 151b 693b 92bc 1bbe 6eba c43d
00000200: 4e03 fd3c ad38 9cbd a1bf 2f3e 8bf0 afbb
00000210: 6856 5abd 5f1b a63d 5ca8 a93c a735 8abd
00000220: 9d1d de3d c158 cb3d fba7 8cbd 383a 283d
00000230: 442b 353e 2467 b0be 296f d83d 72b7 823a
00000240: cab9 69be 0a71 a93d cc0c 283e 873d 6cbe
00000250: 86eb 2abe e033 b2bb 37fb 833d 11cb 453d
00000260: 23ba 9b3c fa1e 18be c371 24be 3954 bb3c
00000270: 360e b93d b6b8 ecbb f761 a3bc b77a dabe
00000280: 41b8 69be f043 28be dd26 9dbd a597 063e
00000290: e239 a0be 3dae cd3c f4e7 1e3e 5a64 81be
000002a0: fd71 b93c d150 653c 92b3 09bd bc71 bcbe
000002b0: 5c54 e73d 7525 17bb 9df5 763d 379c df3d
000002c0: afe6 02bd ca3b f73d 32e0 b13d b944 073e
000002d0: 0593 d93d 4312 1c3e 5715 cdbd edb0 fcbc
000002e0: 12e4 683d 64f5 a9be 70df bbba 7c8e 113e
000002f0: ba7f de3d 044a 163c b0d5 b83c 31d4 183d
00000300: db05 09be 40b8 023d 74b3 3c3d a06c 973c
00000310: 355a 9e3d baa9 b43d 75a3 36be db1a 063e
00000320: 3b50 a33d 0871 e13d 379b 493d 018b 143e
00000330: f83d ab3d 44ea a0bd 56b9 603d 1e7d fd3d
00000340: 5869 97bc efa8 b63c d3f1 103b 05b4 1e3c
00000350: 642f e43c adcb 46be 99bb 5cbe 11e4 2d3d
00000360: 2937 3a3e de5b 1fbe a911 93bb a64a 053e
00000370: d319 0b3e d376 8e3d 1eb7 92bd 5cd4 8abc
00000380: 335c 3f3b a321 2cbe 4e28 9cbd 04ab d0be
00000390: dbae 02be 5532 103e f5d7 f73b 4730 793d
000003a0: 4903 55bc 3b9a 113e df1f 193e 96a4 b23d
000003b0: 6ede 323d 3053 233c 5869 43ba 98f3 063e
000003c0: 8e2d 8a3d 6fe0 643d 446f dc3d 0b27 093e
000003d0: 7435 70be cb10 093d 6dd5 de3c 12bc fa3c
000003e0: fa9e 0f3b 9998 7b3d 2d30 56bd 545e 52bd
000003f0: 44e1 6e3d a9c0 3a3d d344 10bd e81a 1bbe
0.009342631 0.16617833 0.004291039 0.14241794 0.15014766 0.1174176 0.08494922 0.12745099
0.043902006 0.017506039 0.0796028 -0.04111178 0.023032805 0.031250115 0.034503512 -0.14369826
0.028462542 -0.17617092 0.00915261 -0.1466891 0.07578639 -0.13383766 0.03947799 0.019504352
0.008095825 0.046419483 -0.060387306 0.024262726 0.09260232 -0.115305856 -0.087246336 0.08097754
0.012660723 -0.026374623 0.05557088 0.034273326 -0.018769383 -0.12853596 -0.036945757 0.0931537
0.0042180168 0.011909083 0.12851426 0.06863491 0.071979254 -0.09320753 0.011875743 0.020278603
0.022524998 0.050840687 0.08967426 0.024089277 -0.01353586 0.0008768889 0.03520312 -0.1896275
0.022976566 -0.10065091 0.012916141 0.05955606 0.0119548645 -0.1089199 0.11065676 0.04562143
0.043254387 0.010135233 -0.19555943 -0.009343106 0.051443264 0.06945797 -0.046403963 0.026746834
0.010817427 0.06776282 -0.05710947 0.029887406 -0.19955772 0.008537768 0.014841385 0.10913535
-0.05641789 0.0037914417 0.08544451 0.00040144112 0.019777944 0.043171525 0.111149564 0.009769911
-0.0045779715 0.05126467 -0.10043031 -0.14125186 0.04034284 0.011809199 0.15020557 -0.04515008
-0.016650373 -0.04302203 0.12082171 -0.272999 -0.05107016 -0.025942383 0.00080447795 0.060719058
-0.33209124 -0.0020086076 0.05411175 0.0052190935 -0.124535225 -0.05440249 -0.10352158 0.048656818
0.10386049 -0.13467674 0.028947476 -0.0045261537 0.17756067 0.05419356 0.2782658 0.0150731
-0.19791164 0.023113813 -0.049834922 0.0024458277 -0.014381746 0.003556912 -0.15208653 0.09605871
0.030885365 -0.076279975 0.17162944 -0.005369251 -0.05330506 0.08110689 0.020710163 -0.067485146
0.10845492 0.09929038 -0.06867977 0.041071147 0.17692286 -0.3445369 0.10568077 0.0009972884
-0.22824779 0.082735136 0.16411132 -0.23070346 -0.16691408 -0.005438313 0.064444 0.048289362
0.019009655 -0.14855567 -0.16059022 0.022867309 0.09035914 -0.0072241677 -0.019944174 -0.4267175
-0.22824194 -0.16432166 -0.07673428 0.13143785 -0.3129416 0.025107497 0.1551817 -0.25271875
0.022637362 0.013996319 -0.033618517 -0.36805522 0.11295387 -0.0023063098 0.06029283 0.109184675
-0.03195828 0.12071951 0.0868534 0.1320981 0.10623745 0.15241341 -0.10013836 -0.030846084
0.05685813 -0.3319503 -0.0014333557 0.1421451 0.10864206 0.00917292 0.022562832 0.037311736
-0.1338114 0.031913996 0.046069577 0.018484414 0.077320494 0.08821435 -0.17835791 0.13096182
0.07974287 0.11007887 0.04922029 0.14506151 0.08361429 -0.078571826 0.05486425 0.1237738
-0.018482849 0.02229735 0.0022116795 0.009686475 0.027854629 -0.19413634 -0.21555938 0.04245383
0.18185104 -0.15562388 -0.0044881892 0.13016757 0.1358407 0.06956258 -0.07163833 -0.016946964
0.0029199242 -0.16809706 -0.07624875 -0.40755475 -0.12762015 0.140817 0.007563586 0.060837056
-0.0130012715 0.1421899 0.14953564 0.087227985 0.043669157 0.009968564 -0.0007454357 0.13178861
0.0674697 0.0558781 0.1076341 0.133938 -0.23457891 0.03346328 0.027201379 0.030607257
0.0021914826 0.061424825 -0.052292038 -0.05135949 0.0583203 0.04559389 -0.035221886 -0.15146983

fc3.bias f4 [2]
00000000: c57f a03f 0cf0 e43b
1.2538992 0.0069866236

b2.weight f4 [2]
00000000: fc5f a840 cd95 d140
5.261717 6.549536

b2.bias f4 [2]
00000000: b113 74be 6f6e 88bf
-0.23835637 -1.0658702

b2.running_mean f4 [2]
00000000: 0c26 253f 0769 8c3e
0.6451118 0.2742388

b2.running_var f4 [2]
00000000: b78e a33f 9547 cc3e
1.2777928 0.39898363
