data/Agent2_Actor_checkpoint_latest.pth (torch_old, 159687 bytes, 10 tensors)

fc1.weight f4 [256, 24]
000000 c7 e1 90 3c 8b ec ff bd a2 fc cc bd ec af 40 be
       0.017685784 -0.12496289 -0.100091234 -0.18817109
000010 52 f1 94 3e 8b fa 96 3e 5c bd 0d bd 81 52 a5 bd
       0.29090363 0.29488024 -0.034604415 -0.08072377
000020 1e 39 a0 39 64 7b 0a be 55 ff 94 bd 0b 80 bf bd
       0.00030560134 -0.13523632 -0.07275263 -0.09350594
000030 8d 6c 8a 3e 6f 10 c6 3d 13 83 47 bc 0e 40 31 bd
       0.27035943 0.09671103 -0.012177247 -0.043273978
000040 13 cc cd 3a 54 ae 12 be ec f1 84 bd e2 f4 fc bd
       0.0015701078 -0.14324313 -0.064914554 -0.12351395
000050 ec 7c 5d 3e fb cf 49 be 39 e9 c8 bd d5 ae a2 bd
       0.21629685 -0.19708245 -0.09810109 -0.07943503
000060 f8 96 2c 3e fd 78 c9 bc ab a8 76 bd 12 7a b7 bd
       0.16854465 -0.024593825 -0.060219448 -0.0895883
000070 3c 71 03 3e d2 cf a4 3e 99 00 36 3d 95 7c 2a bd
       0.12836164 0.32189804 0.044434164 -0.041622717
000080 4f a0 10 3e 13 a3 51 3d be 3b e2 3c c3 c6 9c bd
       0.14123653 0.05118091 0.027616378 -0.07655098
000090 02 54 90 3e fb c6 08 3e fa 78 7f bd fc 29 d1 bb
       0.28189093 0.13357155 -0.06237123 -0.0063831788
0000a0 15 18 83 3d eb f1 52 bc be 95 a6 3c 7c 15 ac bd
       0.06401078 -0.012875061 0.020335075 -0.08402535
0000b0 ce f6 fc 3e 8b 5e 8c be 63 1c 11 bd 8e 37 af bd
       0.49407047 -0.2741588 -0.035427462 -0.08555518
0000c0 61 fc fd 3d 38 6c a6 bc 0b 56 81 bd 39 85 6c bc
       0.12401653 -0.020315275 -0.063152395 -0.01443606
0000d0 0f f9 4a be 5a 5e 8f be 0c 1d f2 bc 42 20 8d bc
       -0.19821571 -0.28001672 -0.029554866 -0.017227296
0000e0 ee 21 53 3e c8 f8 a3 3c cb 6c 43 3d 6b c6 5c bd
       0.20618412 0.02001609 0.047711175 -0.053900164
0000f0 31 8d f2 bd 75 7a 54 be 8a b4 c1 3c f2 99 88 bd
       -0.118433364 -0.20749839 0.023645658 -0.06669988
000100 ce 4c 18 3e cb 31 1d bd f6 91 29 3b 3e 3a db bd
       0.14873049 -0.038377564 0.0025874353 -0.10704468
000110 cc 1c 48 bc 5f 6a 01 3c 42 a0 85 3c a0 f5 b6 bd
       -0.012213897 0.007898896 0.016311768 -0.08933568
000120 d9 f3 a9 3c e3 ce d4 bc 43 dc 6c 3c 87 f3 73 bd
       0.020746158 -0.025977558 0.014456811 -0.059558418
000130 cb 08 c0 be 7d ea 72 3e 17 8e 70 3c 31 18 0f bd
       -0.37506709 0.23722263 0.014682314 -0.03493518
000140 ed 66 81 3b ce 50 bd bc 26 3e 6e bd a4 98 b1 bc
       0.0039490373 -0.02310982 -0.058164738 -0.02167923
000150 8c b1 26 3d 85 22 28 3e 7c e1 39 3d 60 9a 01 bc
       0.040696666 0.16419418 0.045381054 -0.007910341
000160 7c 2b f0 bb 03 31 b6 bd f7 51 f3 bc 63 86 36 be
       -0.0073294025 -0.08896067 -0.02970217 -0.17824702
000170 78 c8 e9 3e 6e 66 04 3e 1e 31 af 3c fd 45 0c be
       0.45660758 0.12929699 0.021385726 -0.13698573
000180 04 49 e4 bc e6 31 9f bc 7e 9b 37 3c f1 36 b5 bd
       -0.027866848 -0.019432973 0.011206506 -0.0884837
000190 2c 39 fe 3e 9a 52 99 3e 8d b3 9d bb 71 93 9d bd
       0.49652994 0.29945832 -0.004812664 -0.07694138
0001a0 4c 1b 77 bd 52 d5 1a bd 04 3e a1 3c c0 a5 35 bd
       -0.060328767 -0.037801094 0.019682892 -0.044347525
0001b0 dd 6d ed bc 86 b6 cf 3d 17 8b 83 bc dd 92 e8 3c
       -0.028983051 0.101422355 -0.016057534 0.028390342
0001c0 5e 5b 55 bd df 72 d2 bd 70 40 27 3d 8f c7 34 3d
       -0.052089088 -0.10275816 0.040832937 0.044135626
0001d0 25 27 0c bf 8d d2 93 bc b4 01 2d bd af 79 41 3d
       -0.5474723 -0.018044734 -0.042237952 0.047235187
0001e0 52 25 aa 3c b9 41 08 3f dd ec cb 3c 19 84 7d bd
       0.020769749 0.53225285 0.024893219 -0.061893556
0001f0 ce 99 92 3a 28 12 da bd 86 62 c2 3c 95 53 09 bd
       0.0011184753 -0.10647994 0.02372862 -0.033526976
000200 89 89 94 3d f9 45 01 3f bc 74 7f bd a6 a7 73 bd
       0.07252795 0.50497395 -0.062367186 -0.059486054
000210 a4 55 6e 3c e1 58 11 bf 04 c2 aa 3c a9 30 8e bd
       0.0145467855 -0.56776243 0.020844467 -0.06942875
000220 f6 03 34 3d 97 ed 11 3f 9f 5f 26 bd d3 8b 00 bc
       0.04394909 0.5700316 -0.040618535 -0.007845837
000230 38 eb e1 bd cb 42 5a bf 9e 9b 66 bd 14 80 17 3b
       -0.110311925 -0.8525817 -0.056300752 0.0023117112
000240 74 5a 42 3e cc 99 5d 3b 51 8a e6 bc ca 46 f1 bc
       0.18979818 0.0033813594 -0.028142126 -0.0294527
000250 a4 df 05 3e 89 2c 11 bd 6f 31 93 bc f1 ec 4d bd
       0.13073593 -0.035442863 -0.017967908 -0.050274793
000260 4f e6 5e 3e 2e b9 3c 3d 2e 67 52 bd f6 89 b4 bd
       0.21767543 0.04607504 -0.05136793 -0.088153765
000270 47 f5 04 3e 1d 51 06 be 72 a2 a0 3b 06 14 0d be
       0.12984191 -0.1311688 0.0049021775 -0.1377717
000280 17 aa 06 3e 13 64 a9 3d 37 51 1f bd 56 82 a8 3d
       0.13150822 0.08271041 -0.038895812 0.082279846
000290 1a 07 a4 3d 38 40 79 be 36 16 8c ba 4a a3 c2 3c
       0.08009167 -0.24340904 -0.0010687772 0.023759503
0002a0 1c 48 98 3d fc 56 ef 3d 52 2c 8e bc b8 b9 e5 bd
       0.07435629 0.11686513 -0.017355118 -0.11217064
0002b0 4b 31 11 be ab fe 08 be c7 e6 9c 3d ca 2d 0f be
       -0.1417896 -0.13378398 0.07661205 -0.13982311
0002c0 e0 c2 85 3e 51 5d e0 3d e0 0f 79 3d 8d 80 44 3d
       0.2612524 0.10955299 0.060806155 0.047974158
0002d0 0e 8f 9e 3c 8b 95 03 3c 75 12 be bc 1d f8 87 3d
       0.019355323 0.008031259 -0.02320216 0.06639121
0002e0 5b 43 a3 3e 02 3a be 3c 21 cc 45 3d 69 40 b1 3d
       0.31887326 0.02322102 0.048290376 0.086548634
0002f0 06 7c 48 3d ee 7c 65 3e f7 69 0d bd fd 96 a6 3d
       0.048946403 0.22410938 -0.034524884 0.081342675
000300 fe 36 c6 3d 45 90 64 bd 93 72 30 bd fc 84 73 bd
       0.09678458 -0.05580165 -0.043078016 -0.059452996
000310 bf e1 95 be bf 2e f6 bd 8c 54 9e bc 7b f4 55 bd
       -0.29273793 -0.12020635 -0.019327424 -0.052235108
000320 55 c9 1c 3d 67 8d ee bc c9 2a 1c 3d fb 5b 86 bd
       0.038277943 -0.02912016 0.03812674 -0.06560513
000330 ed 45 f1 bc 20 e8 10 3e 04 99 e2 bc fa 32 35 bd
       -0.029452289 0.14151049 -0.027660854 -0.04423807
000340 06 85 7b bb 3c 57 a3 bd 5e ca 33 3c 30 d5 24 be
       -0.0038378849 -0.07975623 0.010973541 -0.1609695
000350 80 ae f6 3d 42 70 e6 3e 5d f5 7f bd ae 48 43 be
       0.12045002 0.4500752 -0.062489856 -0.19070694
000360 d8 e0 e0 3d c0 45 18 3c 3b 37 a7 bd 15 73 a4 bb
       0.109803855 0.009293973 -0.08164831 -0.0050186017
000370 a3 07 35 3a 47 ef 70 bc 45 3e 6a bd 3d 94 df bd
       0.000690574 -0.014705486 -0.05718829 -0.10916946
000380 ff 01 78 3d a1 8d 0b 3e 71 04 da 3c b5 0d cf 3d
       0.06054878 0.13628246 0.026613446 0.10110036
000390 09 ec 99 3d b0 92 3c be 0a 9b bc 3a f0 f8 a2 3d
       0.07515723 -0.18415332 0.0014389467 0.07957637
0003a0 ec 9c 11 3e 05 00 d3 3d 74 0c 7a bd 39 44 e8 3d
       0.14220017 0.10302738 -0.061047032 0.113411374
0003b0 c2 26 55 3e a3 08 07 bf 24 88 8d bc 59 f6 f0 3d
       0.20815566 -0.52747554 -0.017276831 0.11765737
0003c0 56 3f 4d bb 74 95 e8 3d e6 7a 9f 3c 0d a7 96 bd
       -0.0031318269 0.11356631 0.019467782 -0.07356081
0003d0 91 a3 37 3e f0 fe e0 be a0 65 f0 bc 16 88 0f bd
       0.1793349 -0.43944502 -0.029345334 -0.03504189
0003e0 28 ba ae bb cd d7 e4 3d 77 b0 5f 3c 39 cb 91 3d
       -0.00533225 0.11173973 0.013652912 0.0711884
0003f0 45 73 07 3e c7 a4 1f be 38 92 49 bd 4b 1b 88 3d
       0.13227566 -0.15590201 -0.04921171 0.06645831

fc1.bias f4 [256]
000000 de 54 05 3e ef 8b 46 3e 22 b1 48 be cd 1f 1d 3e
       0.13020656 0.19389318 -0.19598821 0.15344162
000010 68 0e 93 be ef dd bb bc 8c 7f ad bd 5d ae 7c bd
       -0.2872193 -0.022932975 -0.08471593 -0.061689723
000020 1c 7b 58 3c 3e 79 84 3d e4 26 67 3e 89 e4 86 be
       0.013212945 0.064684376 0.2257343 -0.26346233
000030 db dd 29 bd b0 4a be be 7c 6f 3a bd 62 17 14 be
       -0.041471343 -0.37166357 -0.045516476 -0.14462045
000040 e6 21 47 be ec 68 19 bb 29 f9 ef bd 1c fe a1 be
       -0.19446525 -0.0023408486 -0.117174454 -0.31639183
000050 13 aa 4c be 23 f3 01 3e b1 8e 1b be 46 37 01 3e
       -0.19986753 0.12690406 -0.15191151 0.12618741
000060 b8 cc 64 3e 24 e8 5d 3e d0 81 80 be e7 11 50 be
       0.22343719 0.21670586 -0.2509904 -0.20319329
000070 96 b9 ea 3d 94 9d a1 bd 41 f8 46 be c7 39 51 3c
       0.11461179 -0.07891384 -0.19430639 0.012770123
000080 25 ef b7 be de c6 81 be 7c 72 cb be 51 cb 1d 3d
       -0.3592464 -0.25347036 -0.39735782 0.038523976
000090 bd 8b 56 be 9c c2 16 be 36 44 ae be bd b4 b8 be
       -0.20951743 -0.14722675 -0.34036416 -0.36075392
0000a0 b5 85 07 be 9e e1 11 bd e2 7e ef 3d bc a2 30 be
       -0.13234599 -0.035615556 0.11694123 -0.17249578
0000b0 d6 16 c3 be e4 7f 82 bd 62 c5 82 3d 31 34 45 be
       -0.3810336 -0.063720495 0.06385304 -0.1925819
0000c0 1d 69 92 bd a3 e4 67 3e f0 27 d1 be 73 4e 2e be
       -0.07148955 0.22645812 -0.40850782 -0.17022114
0000d0 8d aa 4d 3a 51 5e 50 be 16 58 cc bd 04 05 38 bc
       0.00078455434 -0.20348479 -0.099777386 -0.011231665
0000e0 ef 8a e0 3d 82 4c 73 3e c7 85 ba 3d f7 2b 19 be
       0.109639995 0.23759654 0.09107547 -0.14958178
0000f0 b7 1f 0e bd 5f 0d bd 3d 6a 7c 15 bd b2 91 fe bc
       -0.034698214 0.09231066 -0.036495604 -0.031075332
000100 0c ec 5a be b7 c5 c2 be 37 5e 53 be 8f 1d fd bc
       -0.21379107 -0.3804147 -0.20641409 -0.030897884
000110 5d 87 a1 be b7 5e ea 3d 94 32 36 be 75 8a 72 be
       -0.31548586 0.11443847 -0.17792732 -0.2368563
000120 0e ba 61 be 49 eb 85 bc 0b 72 b3 be ec e1 62 3e
       -0.2204363 -0.016347544 -0.35047945 0.22156495
000130 19 ba 26 be b0 21 8a be b2 76 b1 3e 62 ea 36 bd
       -0.16281928 -0.26978827 0.3466087 -0.04465712
000140 be a9 ae be 52 79 6e be b3 e6 58 be f4 18 32 be
       -0.34113878 -0.23288468 -0.21181755 -0.17392331
000150 1f 9c 16 be 50 a0 65 be 54 e7 82 bd 3e d6 17 3e
       -0.14707993 -0.22424436 -0.063917786 0.1482782
000160 a6 ab 91 be 6b b4 db 3b 5c 47 19 be 90 de b6 bd
       -0.2845127 0.006704857 -0.14968628 -0.08929169
000170 d0 cd 77 be e6 9d 45 3e 9d b8 a0 3c 4f 8c dd 3d
       -0.24199605 0.19298515 0.01961928 0.10817777
000180 47 26 00 3e 41 36 ac bd 1b 09 dd 3d f6 e1 ed bd
       0.12514602 -0.084087856 0.10792752 -0.11615364
000190 6c 5e 8f bd 65 42 a5 3c 74 ed 7e be 22 bf 25 3e
       -0.070004314 0.020173261 -0.24895269 0.16186193
0001a0 9e 2f 3d be 54 8a cd bd 57 31 16 3e 71 68 13 be
       -0.18475196 -0.100361496 0.14667259 -0.1439531
0001b0 80 e3 94 be ab ae 1c 3e 87 15 0f 3e 09 73 78 be
       -0.2907982 0.15301006 0.13973056 -0.24262632
0001c0 bd 03 39 be ed 0a ab be 45 af 1c 3e 2f 9f ac be
       -0.18067832 -0.33406773 0.15301235 -0.33715197
0001d0 21 c3 d2 be 2f 01 89 bd 06 0c 08 3e 43 e1 69 3d
       -0.41164497 -0.06689679 0.13285837 0.057099592
0001e0 ae a0 cf 3c da be 2b 3e 85 92 f1 bd 97 30 d7 3d
       0.025345173 0.16772023 -0.117955245 0.10507315
0001f0 d9 8a 19 bc 61 fe cc be 2f be 17 3e 75 31 29 3d
       -0.009371483 -0.40037826 0.14818643 0.04130693
000200 74 49 7a 3d ef 68 1a 3d c7 05 61 bd 0d af 37 be
       0.061105207 0.03769773 -0.05493715 -0.1793787
000210 f1 3d 9b 3c 36 11 b7 bc 1b 01 a6 be d6 39 86 3d
       0.018950434 -0.022347074 -0.32422718 0.06554
000220 f7 b5 1c be 91 a3 69 bd 1a f7 f2 bd 04 c0 92 bd
       -0.15303789 -0.057040755 -0.11863537 -0.0716553
000230 f2 b1 eb bc 2c b8 e1 bc 9c a1 a2 be 67 eb a5 3e
       -0.028771374 -0.02755364 -0.31763923 0.3240616
000240 5c 36 30 3c 7f 7a e5 3b df b1 88 bd 36 36 ec bd
       0.010755148 0.007003128 -0.06674551 -0.115337774
000250 18 ca a0 bd 13 3b ca bd ca 74 06 3e 08 0f 86 bb
       -0.07851046 -0.09874549 0.13130489 -0.0040911473
000260 95 0d 53 be 8e b4 0f 3e 9f 25 da 3d 90 a7 8e bd
       -0.2061065 0.1403372 0.10651707 -0.06965554
000270 2d 64 46 3e 36 dc a4 3e 3a 02 14 be 3d c7 db bd
       0.19374152 0.32199258 -0.14453974 -0.10731361
000280 08 09 83 3d 03 5b 58 3d 20 2a 3d be f8 9e a8 3e
       0.06398207 0.05282117 -0.184731 0.32933784
000290 5d 6f e7 3e ae 00 38 be 18 66 26 be 92 5a 6e bd
       0.4520215 -0.1796901 -0.16249883 -0.058191843
0002a0 8f e3 5f be 00 fc 33 be 07 65 c8 3e e7 4d 38 3d
       -0.2186415 -0.17576599 0.39139578 0.04499617
0002b0 2c 87 93 be db 73 a3 be 08 30 72 bd f9 e2 eb 3c
       -0.28814065 -0.31924328 -0.059127837 0.028794752
0002c0 7f f2 08 be f2 f5 9e be ab 34 78 be 90 1c 95 3b
       -0.13373755 -0.31047016 -0.24238841 0.004550524
0002d0 01 3e 32 bd 98 70 84 be e8 96 4e 3e ec 1b 11 be
       -0.043516163 -0.25867152 0.20174754 -0.14170808
0002e0 32 0c 8b be 77 74 fa 3c ce 68 b4 bd 81 9e a2 bc
       -0.27157742 0.030573113 -0.088090524 -0.019850971
0002f0 cc 82 0f 3e 1c fa b4 3c fa d2 84 3e 08 1c 20 3d
       0.14014739 0.022091918 0.25942212 0.039089233
000300 54 43 0e be 19 2c 84 be 70 fc ae bd 0b 07 76 be
       -0.13892871 -0.25814894 -0.085442424 -0.24026124
000310 9e 96 e2 bd f6 88 59 be c1 e2 a4 be be c9 78 3d
       -0.11063884 -0.21243653 -0.3220425 0.06073927
000320 47 a7 bf be 19 0c 37 be fa dc 9c 3e 08 db 6e be
       -0.3743231 -0.17875709 0.30637342 -0.23325741
000330 08 9f 9e 3d 7f 22 b2 3d 01 36 e6 3d 34 dc cb 3c
       0.077451766 0.08697986 0.11240769 0.024885274
000340 28 7f 21 be e3 4a 19 be 33 49 e7 3d 05 a8 8d 3d
       -0.15771163 -0.14969973 0.112932585 0.06916813
000350 f8 e0 28 be 3a b8 81 be 51 10 23 bd 92 b2 19 3d
       -0.16492069 -0.25335866 -0.039810482 0.037523814
000360 16 91 6f be f0 df 40 bc 86 2d 5e be d4 6a 2d bd
       -0.2339519 -0.011772141 -0.21697053 -0.042338207
000370 9a 47 76 bd 20 8a 90 bd 57 4b 0d be f9 45 85 be
       -0.06012688 -0.07057595 -0.13798271 -0.26029947
000380 99 18 85 3d 24 89 6d be 1b 90 3e be 30 7a 0f 3e
       0.06498832 -0.23196846 -0.1860966 0.14011455
000390 54 77 62 3d 39 d6 5d be 87 ca 66 be 45 f8 14 3e
       0.05528958 -0.2166375 -0.22538196 0.14547832
0003a0 ca c4 26 be 73 dc 9c be bf bf 82 3d 5d 9b 09 be
       -0.16286007 -0.3063694 0.06384229 -0.13438173
0003b0 de 24 c3 be 27 5d 9c 3e 16 f1 67 be e3 87 17 3e
       -0.38114065 0.3053982 -0.2265056 0.1479793
0003c0 cf 2e 42 be 9e f3 8a 3d 71 cf 46 be f2 f2 89 be
       -0.18963169 0.067847475 -0.1941507 -0.26943165
0003d0 e0 a7 ab 3d 47 f4 9c be b3 4e 4e be ef b6 fd 3d
       0.08381629 -0.3065512 -0.20147209 0.123884074
0003e0 7f 65 f3 bc 42 1c 35 3e b4 46 60 be 52 43 99 3e
       -0.029711483 0.17686561 -0.21901971 0.29934174
0003f0 c5 ee cf ba 94 b4 67 3e 96 44 d9 bd b9 db 4b be
       -0.0015864006 0.22627479 -0.10608785 -0.19908036

fc2.weight f4 [128, 256]
000000 43 b2 75 bd a8 1c bf 3d d5 51 91 3d 83 f0 83 bb
       -0.059984457 0.093316376 0.07095686 -0.004026474
000010 76 31 80 bd 0e 35 88 bd d3 56 9c 3d 12 65 61 bd
       -0.06259434 -0.066507444 0.07633748 -0.05502803
000020 c9 14 94 bd e7 70 63 3c 3e 80 09 be 28 e2 9c 3d
       -0.07230527 0.0138818985 -0.13427827 0.076603234
000030 9f a5 6e 3b 10 e8 7e 3c bc 3e d5 bd 1c 95 ae 3d
       0.0036414636 0.015558258 -0.10412356 0.08524534
000040 01 52 5f 3d d2 42 1d be 3a a8 56 bb bc 59 2c be
       0.054521564 -0.15357521 -0.003275408 -0.16831106
000050 1a f7 03 3d a8 44 ae bd 61 fe ca bd 01 68 e4 3b
       0.032218076 -0.08509189 -0.099118 0.006970406
000060 08 e4 7e bc ed 21 3c bd 3a 22 32 3d 68 f2 37 bd
       -0.015557297 -0.04593079 0.043489672 -0.04490891
000070 94 9a c6 3d f2 50 1a 3e a5 8a 90 3d 18 9f 92 3d
       0.09697452 0.1506994 0.07057694 0.07159251
000080 98 57 87 3d c7 10 92 bd 71 7c 81 bd e2 67 40 3d
       0.06608504 -0.07132106 -0.063225634 0.04697407
000090 98 77 4e 3d be 39 01 3d 16 55 41 3e 48 fb ad 3d
       0.050407022 0.031549208 0.18880114 0.08495194
0000a0 fa ec 3d be 4f 4e 03 be 11 cb 16 bd a0 bd 02 3e
       -0.1854743 -0.12822841 -0.036814753 0.12767649
0000b0 03 4a 35 3e 45 ab a8 3d 4c 51 3a be 79 6d 83 3d
       0.17704014 0.08235792 -0.18195075 0.064173646
0000c0 d8 e5 10 3d ca e6 3c bd 70 ea 5d bd d5 53 56 bd
       0.035375446 -0.046118535 -0.054178655 -0.052326042
0000d0 b0 37 f6 bd 40 47 92 3d 12 86 ec 3d 1c 1e 36 3d
       -0.1202234 0.07142496 0.115490094 0.04446231
0000e0 66 46 bc bd 59 35 8c bd fd 44 c9 3c 44 d6 77 bd
       -0.09193115 -0.06846113 0.024569029 -0.060507074
0000f0 d9 e9 48 bd 34 b5 13 be 90 56 02 bb 0e 26 26 bc
       -0.04905114 -0.14424592 -0.001988802 -0.010140909
000100 db aa 27 3c db 89 2c bd a7 95 f5 3d ad 72 03 be
       0.010233606 -0.042123657 0.119914345 -0.12836714
000110 e1 57 2b bc f1 04 03 be 82 08 20 bc 65 f8 97 3d
       -0.010457964 -0.12794854 -0.009767653 0.07420424
000120 6b 57 0f be e7 12 cb bd 42 11 9b 3c 8b 85 36 be
       -0.13998191 -0.09915715 0.018929128 -0.1782438
000130 bc 19 a8 3d 19 aa c5 3c 61 0d b6 bb 1e 40 8f bd
       0.082080334 0.02412896 -0.005555794 -0.06994651
000140 de ec 9d bd a0 4d f3 bc 26 c3 c6 3c 78 82 f5 3d
       -0.077111945 -0.0297001 0.024262976 0.119877756
000150 98 27 5b bd 38 cf 2a bd 54 11 e0 3d 05 30 43 be
       -0.053504556 -0.041701525 0.10940805 -0.19061287
000160 9f 24 bc bd 81 44 35 bd 41 09 cf bb e2 ae 5b bd
       -0.091866724 -0.044254784 -0.006318242 -0.053633578
000170 7b 4f 56 bd 88 8f 93 bc ac fd 57 3b 56 63 10 be
       -0.052321892 -0.018012777 0.0032957597 -0.14100394
000180 32 7e 1e bd 09 e8 2d bd 7b 3b 0e be 1a 9a b0 3c
       -0.038694568 -0.042457614 -0.13889877 0.021557856
000190 aa 18 86 bd 97 4f fa 3c b7 c8 04 3e 94 0f 16 bd
       -0.06547673 0.03055553 0.12967192 -0.03663595
0001a0 9a 02 b8 3d 5f f0 b7 3d 82 a0 10 3d 47 b7 1e be
       0.08984871 0.08981394 0.035309322 -0.15499602
0001b0 70 dd 67 bd 6b 1a 28 be e1 61 83 bd b2 b2 ce bd
       -0.056607664 -0.16416328 -0.06415153 -0.10092677
0001c0 02 08 f4 3d eb dd 04 3d 9f 07 bb bd 8f 29 06 3d
       0.1191559 0.0324382 -0.09132313 0.032754477
0001d0 85 3f a3 bc f9 1d 23 bc b4 36 31 3d e9 8c 91 3c
       -0.01992775 -0.0099558765 0.04326506 0.017767387
0001e0 36 47 e8 3d e2 3c d3 bd 7e d4 07 be 9a 95 2f 3d
       0.113417074 -0.10314347 -0.13264653 0.04286728
0001f0 ae f7 12 3d b8 33 82 bd 49 42 20 3e ef d6 18 be
       0.035880737 -0.06357521 0.15650286 -0.1492574
000200 fb ed 15 3e 7a c2 30 3d eb 9a ee bd 0d ff 12 bd
       0.14641564 0.043154217 -0.11650642 -0.035887767
000210 6f 9c 89 3b 9d c1 da 3b 4d 46 0b 3e 84 63 19 bd
       0.0041995565 0.0066759125 0.13601036 -0.03744842
000220 f1 e9 74 3d fd 16 31 be d8 7f 5e bd 05 34 a8 bb
       0.059793416 -0.17293926 -0.05432114 -0.0051331543
000230 8b 2c 0a be 58 7e bb bc 06 0c 6b bd de d0 29 3d
       -0.13493554 -0.022887394 -0.057384513 0.041458957
000240 87 9b c6 bd e1 9f 10 3e 28 ff e3 bd 06 fd f1 bc
       -0.09697633 0.14123489 -0.111326516 -0.029539596
000250 6c e3 74 3d 05 e5 cb 3b 25 85 ae bd 09 39 05 be
       0.0597872 0.0062223696 -0.08521489 -0.13010038
000260 bc 15 89 3d da 60 6d 3d 92 3d 44 3d 9a ac 95 3c
       0.06693599 0.057953693 0.04791028 0.01827078
000270 0d 41 9c bd 77 16 82 bd 3d 43 3c bd 72 ed 30 3e
       -0.07629595 -0.06351941 -0.04596256 0.17278078
000280 d2 96 37 bd 8a 50 00 3e e5 88 37 3d c5 00 25 bd
       -0.044821568 0.12530723 0.044808287 -0.040283937
000290 0b 69 16 3d 08 a5 5c be e5 10 27 3c ad 91 0a 3e
       0.03672127 -0.2154733 0.010196899 0.13532133
0002a0 fa 4b d2 bd 83 29 8e 3c 7a c4 99 bd 25 25 7f 3d
       -0.10268398 0.017353779 -0.07508178 0.062291283
0002b0 4c 78 61 bd bb b2 3a 3e ee 80 04 3c 78 00 b9 bd
       -0.055046365 0.18232243 0.00808738 -0.090332925
0002c0 36 e3 b3 3c 89 43 2a 3e 08 aa 84 3d a2 4b 0d bd
       0.021958929 0.16627325 0.064777434 -0.034495957
0002d0 d4 85 41 bd c3 86 43 3e e0 86 93 bd 5a a6 ec bc
       -0.04724677 0.19094376 -0.0720346 -0.028887916
0002e0 61 aa 71 3e 39 87 10 3d 51 b3 c3 bd 6e 78 01 3c
       0.2360015 0.03528521 -0.09555686 0.007902248
0002f0 ea 36 91 bd 44 4c 00 be 9b 53 2e be 7e b8 0a bd
       -0.07090552 -0.12529093 -0.1702408 -0.03386735
000300 49 50 f6 bd f2 06 14 bd 91 3f 0a 3d fc 14 9c bd
       -0.12027032 -0.036139436 0.033752028 -0.0762119
000310 c8 8b 3b 3d 34 5d be 3d 9c 1e 95 3d 15 a9 c6 3d
       0.045787603 0.09295121 0.07281229 0.097002186
000320 a4 5c 1a 3e b6 44 c6 bd fb a1 21 bd 86 ed 28 3b
       0.15074402 -0.09681074 -0.039461117 0.002577634
000330 2c 19 5b 3d 1d 51 72 bd cb c2 b0 bd dc 15 6c 3e
       0.053490803 -0.059159387 -0.08630904 0.23055214
000340 e7 da a5 3d d8 81 68 bd df 17 8d 3d e5 b7 78 3d
       0.08098393 -0.056764454 0.06889319 0.06072225
000350 3a 37 83 bd 41 ef 8b 3d 60 9d 16 be 35 fb a5 bd
       -0.06407018 0.068327434 -0.14708471 -0.081045546
000360 25 c4 83 3d 34 4c 31 bd 1d ed 8a bd 18 86 e9 3c
       0.06433896 -0.043285564 -0.06783507 0.028506324
000370 12 e4 e7 3c 82 01 32 bb 3a 4d b2 3c da 61 66 bd
       0.028306995 -0.0027161543 0.02176534 -0.056245662
000380 b4 02 ec bc 2d 76 5f bd 66 42 33 3d b0 1c 28 bd
       -0.028809883 -0.05455606 0.043764494 -0.041042984
000390 47 d2 15 bd 26 7b 56 bd 3c c6 9a 3b 5b 35 5d 3c
       -0.03657749 -0.052363537 0.0047233384 0.0135014905
0003a0 41 ae ae 3d 5a 76 57 3d 0e 03 f1 3c c0 bf 1b 3e
       0.0852933 0.052603103 0.029420402 0.15209866
0003b0 e0 c8 28 3e 04 6a 42 bc a2 71 ef 3d 5d 65 05 be
       0.16482878 -0.011866096 0.116915956 -0.13026948
0003c0 d9 e2 db 3d f0 4d 0e bd d3 64 ef 3b a5 fb 96 bc
       0.10736627 -0.034742296 0.0073057204 -0.01843054
0003d0 87 66 bc 3d 1f 6d 44 be 65 08 7b bd 3b 86 42 bc
       0.09199243 -0.19182251 -0.061287303 -0.011872823
0003e0 79 df dc bd de 1c 20 3e 34 f3 d1 bc 08 0a 07 3d
       -0.107848115 0.15636012 -0.025628664 0.03296855
0003f0 7d 40 99 bc 80 25 3a be 42 bd 06 3d c6 b5 89 bc
       -0.018707508 -0.18178368 0.032895334 -0.01681031

fc2.bias f4 [128]
000000 de dd fd bd 71 08 64 3d ba 70 81 bd 2e 81 ef bd
       -0.123958334 0.055672113 -0.06320329 -0.11694561
000010 93 8f 06 3e f8 27 e8 3e 1e b6 34 bd ab 1a fe bd
       0.13140707 0.45342994 -0.044118993 -0.1240743
000020 a0 b8 28 be 5e 73 89 bc c2 0d a7 3e 1e e9 a5 3e
       -0.16476679 -0.016778644 0.32627684 0.32404417
000030 8a c3 13 bc cf 89 a4 3e ca fe 74 be 65 5e c8 bc
       -0.009018788 0.3213639 -0.2392532 -0.024459073
000040 77 03 89 3b 25 7e 25 3e e4 d2 35 be 53 d6 d1 bd
       0.0041813212 0.16161402 -0.1775623 -0.10245957
000050 5b 64 9e 3e 5e 57 77 be b0 0e bd bc 09 51 4a be
       0.3093594 -0.24154422 -0.023078293 -0.19757475
000060 b9 28 5e be fb ea 6a 3d 75 e6 b9 bd 8e 52 f0 bd
       -0.21695222 0.057353 -0.09077159 -0.11734496
000070 3a d3 c8 3e 2e d7 06 be 66 13 2b bc 0c 93 7d 3d
       0.39223653 -0.13168022 -0.010441637 0.061907813
000080 89 a3 bb 3c 08 f7 19 3d 79 cf 24 3e 13 cb 1b bd
       0.022905128 0.037589103 0.1609477 -0.038035464
000090 30 b6 d9 3d fe 9c b3 be b0 c6 32 3d a1 0c 22 3e
       0.10630453 -0.35080713 0.043646514 0.1582513
0000a0 40 a3 00 bd 14 35 81 bd 1c 33 48 3d fd 0f 5a 3e
       -0.031405687 -0.06308952 0.048876867 0.21295162
0000b0 f3 8a 45 3e 06 e2 d1 be 94 e1 0a bc 10 15 18 be
       0.19291286 -0.40992755 -0.008476634 -0.14851785
0000c0 9f 5f 31 bd 16 80 93 3d ce fc 01 bd 96 43 cf bd
       -0.043304082 0.07202165 -0.031735234 -0.10120313
0000d0 ea c1 ed 3b 5a 9d 5f be 3c de 49 3d 8f 29 3a be
       0.0072557824 -0.21837369 0.049284205 -0.18179916
0000e0 71 4a f3 bd 31 49 f0 3c 38 47 52 be d5 36 12 3e
       -0.11879433 0.029331775 -0.2053498 0.1427873
0000f0 c8 7e 20 bd 28 30 84 be 42 86 85 3c 0b 7d d3 bd
       -0.039183408 -0.2581799 0.01629937 -0.103265844
000100 58 db 8e 3e 3e c8 35 be 94 2e e7 bc c4 fd 87 be
       0.2790172 -0.17752168 -0.028220452 -0.26560795
000110 b3 3c 9d be a1 ff 19 3f 1e 71 4e bd 12 ea 87 bc
       -0.30710372 0.60155684 -0.050400846 -0.016591106
000120 61 a4 2b be 59 df ca bd 63 1e 88 bd 88 fc 0a be
       -0.16761924 -0.099058814 -0.06646421 -0.13572896
000130 12 ef 83 bb 74 61 e3 be a5 d3 56 bd f2 4d 1c be
       -0.004026302 -0.44410288 -0.052447934 -0.15264109
000140 fb 8e 7f be c9 ab 26 bc 3e f3 27 be ed 7e 60 3e
       -0.24956886 -0.010172793 -0.16401383 0.21923418
000150 47 d2 83 bc bb 19 ea 3d ac 03 77 be be 26 51 3b
       -0.016091479 0.11430689 -0.24122494 0.0031913961
000160 f5 a4 52 be 47 b2 94 bd 4a 35 43 be d9 01 2b bc
       -0.20570739 -0.07260566 -0.19063297 -0.010437452
000170 8d 59 85 3e af 07 be bd d0 9c db 3d 9d 5a 3c 3c
       0.26044884 -0.09278809 0.10723269 0.011496213
000180 e3 c6 84 3c a1 23 8c be f8 8d 3a 3e 21 22 60 3e
       0.016208118 -0.27370933 0.1821822 0.21888019
000190 59 23 58 be 8d 71 3f 3e 0c 7b 04 bf 68 c0 2d 3b
       -0.21107234 0.1869566 -0.51750255 0.0026512388
0001a0 fd 74 ff 3c ee 66 aa bd 98 68 91 3d f6 a2 eb bd
       0.031183714 -0.083204135 0.07100028 -0.11505692
0001b0 c9 37 f6 bd ca d4 ee be 08 98 12 be 93 e3 a0 3e
       -0.12022359 -0.4664672 -0.14315808 0.31423625
0001c0 1f af c0 3e 1b 1b 65 be 09 14 90 bd 46 04 af be
       0.37633607 -0.22373621 -0.070350714 -0.34182948
0001d0 a9 75 ea 3c 28 0b 82 bd 33 00 70 3e 02 da 28 be
       0.028620558 -0.06349784 0.23437576 -0.16489413
0001e0 96 d9 bf bd 9b b3 0c be 27 e9 81 be f5 9d ac bd
       -0.09367673 -0.13740389 -0.25373194 -0.084285654
0001f0 52 29 10 3e fa 41 cd be f7 79 0d be 50 b1 2b 3e
       0.14078262 -0.400894 -0.13816057 0.16766858

fc3.weight f4 [2, 128]
000000 9e 01 00 3b b8 cc 12 3e b6 87 6d 3c 17 c6 36 3e
       0.0019532214 0.14335907 0.014497688 0.17849003
000010 ef 03 35 3e 44 79 ef 3d c5 61 b8 3d 25 da ec 3d
       0.17677282 0.116930515 0.09003023 0.11565045
000020 7c fc 28 3d 87 b1 91 bb 74 9e d2 3d 9f 59 f4 bc
       0.041256413 -0.0044462117 0.10284129 -0.02982789
000030 19 a8 8d 3c bc cf aa 3c e3 7b 00 3d 8b 45 f8 bd
       0.01729207 0.020851009 0.031368148 -0.12122639
000040 e0 6f 95 3b dd 5a 4d be 4a 0a ba 3b 99 90 4f be
       0.0045604557 -0.20054193 0.005677496 -0.20270003
000050 79 48 e7 3d ce 0a 22 be 04 a9 ca 3c 5c a4 05 3d
       0.1129312 -0.15824434 0.024738796 0.03262745
000060 b4 92 8c 3c 86 c0 a2 3c 05 1b b8 bd b8 39 14 3c
       0.017159797 0.019867193 -0.089895286 0.009046964
000070 e1 21 bb 3d 59 05 e1 bd 4d 37 bf bd 20 94 67 3d
       0.09137321 -0.10987348 -0.0933672 0.056537747
000080 49 bd 82 bd 7d 16 9f bc 1e 78 9e 3d 9d 47 01 3d
       -0.063837595 -0.019419903 0.07737754 0.031562436
000090 7f 04 ea b9 f7 c7 21 be 80 e4 24 bd 1c 76 80 3d
       -0.00044635308 -0.15798937 -0.040256977 0.062725276
0000a0 17 fd 73 3c 69 ef b2 3b 4e 99 ed 3d cc 88 e0 3c
       0.014891884 0.005460669 0.11601506 0.02740898
0000b0 10 e5 8e 3d 7a 0c a9 bd 76 4c fe bc 5a cb 3a 3c
       0.06977284 -0.08254333 -0.031042319 0.011401022
0000c0 c4 5b cf 3c 57 bc 7c 3d 1b 1f 25 3e 97 7e a4 3c
       0.025312312 0.061703052 0.16125147 0.020079894
0000d0 25 7a 56 bb 03 f6 c8 bb 15 e2 66 3d 88 8c 6a be
       -0.0032726612 -0.0061328425 0.056367952 -0.22905171
0000e0 d9 9c 19 3d 99 7e 19 be d4 01 28 3c f2 43 60 3d
       0.037503097 -0.149897 0.010254342 0.054752298
0000f0 bc db d1 39 a4 6f f3 bd cd e7 9b 3d 91 bd c3 3c
       0.000400273 -0.11886528 0.07612572 0.023894103
000100 5b 28 93 3d 3e 83 06 3c 4b 08 45 be 1b 05 02 bd
       0.071854316 0.0082100015 -0.19241445 -0.03174315
000110 a5 8c 23 3d f6 3b 7e 3d 59 36 7f bd 53 82 c1 3c
       0.03992905 0.062068902 -0.06230769 0.023621714
000120 62 0b 60 3a f2 e5 6d 3d 37 f2 96 bd 38 73 57 3d
       0.0008546618 0.05808062 -0.073704176 0.052600116
000130 1b 45 75 be ec c6 82 3c c5 c0 06 3c 56 b7 d9 3d
       -0.23952143 0.015963994 0.008224671 0.10630672
000140 51 8f 82 bd 92 c4 2a bb 8c 0d ad 3d 9e aa 11 bb
       -0.06374992 -0.0026057106 0.084498495 -0.002222694
000150 9c 37 d4 3b 91 da a3 3d 1c f3 d9 3d 4a a7 9b bc
       0.0064763557 0.080006726 0.106420726 -0.019000668
000160 2f 29 06 bc 74 bc 40 3d 7c 8a d2 bd 0d 52 0e be
       -0.00818853 0.047054723 -0.1028032 -0.13898487
000170 1f 53 30 3d b4 87 dd 3c 26 16 20 3e 95 28 1e be
       0.04304802 0.027042247 0.15633449 -0.15445168
000180 ef 42 59 bb f0 40 cc bd 3e ca f2 3d bd 3d c6 be
       -0.0033151468 -0.09973323 0.11854981 -0.38718978
000190 1e 1a 29 bd 98 6b 86 bd 45 81 1e bd 35 f0 c6 3d
       -0.041284673 -0.06563491 -0.0386975 0.097137846
0001a0 23 f0 b2 be 7d 0c 18 bc 75 d3 90 3d f5 39 dc 3a
       -0.34948835 -0.009280321 0.07071582 0.001680194
0001b0 d8 8a c2 bd 55 d2 0c bd 7f ec ef bd 19 ec 3e 3d
       -0.094991386 -0.034380276 -0.1171503 0.04661188
0001c0 a5 8e db 3d 2e c8 45 be ba 53 8a 3c ce 50 84 bc
       0.10720567 -0.19314644 0.016885627 -0.016151812
0001d0 31 5d 63 3e 40 25 b5 3d c5 0b ad 3e 7c 3d dc 3b
       0.22203518 0.088449955 0.33798042 0.0067211967
0001e0 25 a3 37 be 05 f6 18 3d 02 1d db bc dd 3b c0 3c
       -0.17933328 0.037343998 -0.02674723 0.023466045
0001f0 d2 79 36 bd 0e 5a f9 bb 57 fd dc bd 1e 9f 36 3d
       -0.04454977 -0.0076096123 -0.10790508 0.04458534
000200 a0 d0 82 bb 95 01 bd bd 2a be 29 3e dc ce a0 bc
       -0.003992155 -0.092288174 0.16576448 -0.019629888
000210 a9 fc a5 bd c2 83 5d 3d dd 2b e8 3c 99 9f 9f bd
       -0.08104832 0.054080732 0.028341228 -0.07794113
000220 58 a4 b5 3d 38 45 a4 3d b3 2d ac bc 0b 97 18 bd
       0.08869237 0.08021015 -0.021017885 -0.03725342
000230 1f 27 2b 3e ce 51 b7 be 5c ee ae 3d 08 02 3a 3b
       0.16714142 -0.358046 0.08541557 0.0028382558
000240 ec 12 91 be 96 ba da 3d 5f 80 1e 3e 90 3e 5b be
       -0.2833475 0.1068012 0.15478657 -0.21410584
000250 ee c9 42 be 05 00 d7 bb 12 99 46 3d 12 a5 15 3d
       -0.19022343 -0.0065612816 0.048485823 0.036534376
000260 9b 8c b8 3c 3b 1d 17 be 7f 27 52 be 19 25 2d bc
       0.022527983 -0.14757244 -0.20522879 -0.010567927
000270 a9 04 7f 3d 03 91 0c bd a0 07 32 bd 18 d3 df be
       0.062260304 -0.03431798 -0.043464303 -0.4371574
000280 aa 7c 90 be e9 f3 1f be 29 c7 a6 bd a4 c6 ee 3d
       -0.2822011 -0.15620388 -0.081434555 0.116589814
000290 e9 8a a3 be ca 3b fd 3c b3 3e e0 3d 7b 0f 77 be
       -0.31941918 0.030912299 0.10949459 -0.24126999
0002a0 89 46 04 3e 92 44 5e 3b 88 61 7b bd 56 ac c7 be
       0.12917532 0.0033915383 -0.06137231 -0.3899867
0002b0 20 4a b8 3d 17 85 23 bd d0 6a 19 3d 13 18 bc 3d
       0.08998513 -0.039921846 0.03745538 0.09184279
0002c0 09 4e 39 bd c0 fa ca 3d ff 1c 77 3d 2e 85 f0 3d
       -0.045240436 0.09911108 0.060330387 0.11744152
0002d0 58 ee 41 3e 68 4c 12 3e f9 bc ec bd a8 d2 ae bd
       0.18938577 0.14286959 -0.11559481 -0.08536273
0002e0 57 8c a6 bb e3 6b 90 be ea b3 2b bc fc 39 03 3e
       -0.005082648 -0.2820731 -0.010479907 0.12815088
0002f0 a5 53 10 3e 87 da e4 3c b0 e7 47 3c 95 5d 71 bc
       0.14094408 0.027936233 0.012201235 -0.014731784
000300 82 53 3c be 8c bd 83 3b 22 10 5c 3c f0 19 90 3c
       -0.1839123 0.0040203985 0.013431581 0.017590493
000310 4d fa 29 3d 1e e6 5d 3d 42 28 5a be e3 af e6 3d
       0.04149847 0.054174535 -0.2130442 0.112640165
000320 cb 6a 59 3d a6 98 a9 3d 78 7f 2e 3d 30 18 01 3e
       0.05308036 0.082810685 0.042602032 0.12606883
000330 37 a8 a0 3d 02 e5 65 bd c0 72 14 3d e0 b0 e2 3d
       0.078445844 -0.056126602 0.036242247 0.110688925
000340 5c 45 d4 bc 67 2f 35 3c 0b 82 35 3b dd 7b ec bc
       -0.02591198 0.011058665 0.002769592 -0.028867656
000350 c1 fd 09 3c 97 ba 38 be fe 31 68 be 3e a7 24 3d
       0.008422316 -0.18039928 -0.2267532 0.040198557
000360 9d a7 26 3e 7d 3d 2d be 9c 92 a7 3c fb 90 eb 3d
       0.16274877 -0.16917987 0.020455651 0.11502262
000370 4e 83 e0 3d 2f f0 ab 3c fc 6e 19 bd f8 e4 ba bc
       0.109625444 0.020988552 -0.03745936 -0.022814259
000380 db fc 17 3d 22 5c 28 be 8c 8e 9e bd 39 69 a8 be
       0.037106376 -0.16441396 -0.077420324 -0.3289278
000390 e0 d7 09 be 91 fd 0e 3e a3 30 2c 3c ee 8c 94 3d
       -0.13461256 0.13963915 0.010509643 0.07253443
0003a0 95 35 0b 39 34 02 fa 3d 6a fa 1d 3e ec bc 7b 3d
       0.00013276034 0.122074515 0.15427557 0.061459467
0003b0 9a 2d 19 3d 3c 42 e3 ba 3a 83 4f bc 1d b6 da 3d
       0.037397005 -0.0017338465 -0.012665564 0.106792666
0003c0 7b 82 31 3d 26 3c 87 3d 3d 4c a2 3d df 53 f3 3d
       0.043337326 0.06603269 0.079246975 0.118812315
0003d0 4f 04 d5 be 24 f1 1b 3d d3 cd 93 3b da 7c a9 3b
       -0.4160485 0.038071766 0.00451062 0.005172354
0003e0 e6 ff c0 bb 6b 78 81 3d bb 2e be bd 47 5e 5a bd
       -0.0058898805 0.06321796 -0.09286257 -0.053312566
0003f0 53 57 15 3d da 03 00 3d 6c c9 91 bd 74 58 2f be
       0.036460232 0.031253673 -0.07118496 -0.17123586

fc3.bias f4 [2]
000000 70 13 9c 3f 06 de 39 bc
       1.2193432 -0.011344438

b2.weight f4 [2]
000000 32 e1 ac 40 f9 d4 e8 40
       5.4024897 7.2759976

b2.bias f4 [2]
000000 94 80 1c bf 8f eb b1 bf
       -0.61133695 -1.3900012

b2.running_mean f4 [2]
000000 44 dd 0c 3f a2 98 6a 3e
       0.55025125 0.22909787

b2.running_var f4 [2]
000000 17 c5 cf 3f 3d f8 b2 3e
       1.6232022 0.34955016
