data/Agent1_Critic_checkpoint_target.pth (torch_old, 185818 bytes, 7 tensors)

supports f4 [51]
0	0xbf333333	-0.7
1	0xbf2c0831	-0.672
2	0xbf24dd2f	-0.644
3	0xbf1db22d	-0.616
4	0xbf16872b	-0.588
5	0xbf0f5c29	-0.56
6	0xbf083127	-0.532
7	0xbf010625	-0.504
8	0xbef3b646	-0.476
9	0xbee56042	-0.448
10	0xbed70a3d	-0.42
11	0xbec8b439	-0.392
12	0xbeba5e35	-0.364
13	0xbeac0831	-0.336
14	0xbe9db22d	-0.308
15	0xbe8f5c29	-0.28
16	0xbe810625	-0.252
17	0xbe656042	-0.224
18	0xbe48b439	-0.196
19	0xbe2c0831	-0.168
20	0xbe0f5c29	-0.14
21	0xbde56042	-0.112
22	0xbdac0831	-0.084
23	0xbd656042	-0.056
24	0xbce56042	-0.028
25	0x00000000	0.0
26	0x3ce56042	0.028
27	0x3d656042	0.056
28	0x3dac0831	0.084
29	0x3de56042	0.112
30	0x3e0f5c29	0.14
31	0x3e2c0831	0.168
32	0x3e48b439	0.196
33	0x3e656042	0.224
34	0x3e810625	0.252
35	0x3e8f5c29	0.28
36	0x3e9db22d	0.308
37	0x3eac0831	0.336
38	0x3eba5e35	0.364
39	0x3ec8b439	0.392
40	0x3ed70a3d	0.42
41	0x3ee56042	0.448
42	0x3ef3b646	0.476
43	0x3f010625	0.504
44	0x3f083127	0.532
45	0x3f0f5c29	0.56
46	0x3f16872b	0.588
47	0x3f1db22d	0.616
48	0x3f24dd2f	0.644
49	0x3f2c0831	0.672
50	0x3f333333	0.7

fc1.weight f4 [256, 24]
0	0x3c2aa7a3	0.010415944
1	0x3d09c451	0.033634488
2	0xbc1d9752	-0.009618597
3	0xba9d021d	-0.0011978779
4	0x3ecd2345	0.4006597
5	0x3ab840e7	0.0014057428
6	0x3c37cb7a	0.011217946
7	0x3c24e4eb	0.010064344
8	0xbbd73ef6	-0.006568785
9	0xbd64857b	-0.05579136
10	0xbd04be13	-0.03240783
11	0xbd1236d4	-0.03569682
12	0xbdd6084b	-0.104508005
13	0x3da8e5ab	0.08246931
14	0x3d1c3913	0.038140368
15	0x3cf1982a	0.029491503
16	0xbcce74c4	-0.025202163
17	0xbd0fe1b3	-0.035127353
18	0xb8e8bfe5	-0.00011098365
19	0x3d13b61c	0.036062345
20	0xbf37a8de	-0.71742046
21	0x3bd6aa42	0.006551058
22	0x37ebf94c	2.8130271e-05
23	0xbd7003bc	-0.05859731
24	0x3dac3b61	0.08409763
25	0x3c3e3590	0.01160945
26	0xbcfce97c	-0.030873053
27	0x3d7e6ca4	0.062115327
28	0x3c44f745	0.012021844
29	0xbe97bd0b	-0.29636416
30	0xbcfbc742	-0.030734662
31	0xba3d0f1c	-0.00072120293
32	0x3b9d5512	0.004801401
33	0x3cdca066	0.026931953
34	0xbcfdc19c	-0.03097611
35	0x3dbb99c7	0.0916019
36	0x3e1f2a88	0.15543568
37	0xbdc20335	-0.09473268
38	0x3c3891d9	0.011265242
39	0x3cb0e2f5	0.021592597
40	0x3d2692df	0.04066741
41	0xbd9c9e83	-0.07647421
42	0x3c8129fd	0.015767092
43	0xbda76b7f	-0.081748
44	0x3e3d75f9	0.18502034
45	0x3eb48018	0.35253978
46	0x3ced6bb7	0.028982027
47	0xbd5b5ac4	-0.053553358
48	0xbc522e08	-0.0128283575
49	0x3e5d804b	0.21630971
50	0xbc7f7f78	-0.015594356
51	0x3db7003a	0.0893559
52	0xbdc1c772	-0.09461869
53	0x3eb53059	0.3538845
54	0x3cb27842	0.021785859
55	0x3dfd4fd2	0.1236874
56	0x3ca821a4	0.020523854
57	0x3e8a7603	0.2704316
58	0x3c669866	0.014074421
59	0xbd6e0fde	-0.0581206
60	0xbc791212	-0.015202062
61	0x3dcf152c	0.1011146
62	0xbc87d786	-0.016582262
63	0xbd91cfc8	-0.07119709
64	0x3d43e0c7	0.047821786
65	0x3ebcd8be	0.3688411
66	0x3ade5f53	0.0016965665
67	0xbc8d4b30	-0.017247766
68	0x3da52fa9	0.08065731
69	0xbeed5e33	-0.4636093
70	0xbbb68393	-0.005569884
71	0x3c839018	0.01605992
72	0x3d8e8752	0.06959404
73	0xbdbc794c	-0.09202823
74	0x3d64685b	0.055763584
75	0xbe420e03	-0.18950658
76	0xbe651931	-0.22372891
77	0xbe310143	-0.17285638
78	0x3d0950c9	0.03352431
79	0xbe382803	-0.17984013
80	0x3ded1b6b	0.11577495
81	0xbdaf5145	-0.08560423
82	0xbd0753a8	-0.033038765
83	0xbd75ff7b	-0.0600581
84	0xbe1f162f	-0.15535806
85	0xbd992910	-0.07478535
86	0x3c6a40ff	0.014297723
87	0x3d23c887	0.03998616
88	0x3d8ff5c6	0.070292994
89	0xbcede58c	-0.02904012
90	0xbc1fe8cb	-0.009760092
91	0x3c559171	0.013035164
92	0x3cc5ee39	0.024161445
93	0x3e822f89	0.2542689
94	0x3d29025d	0.04126202
95	0x3b9862c4	0.0046504457
96	0x3d8f6653	0.07001939
97	0xbc57752d	-0.0131504955
98	0x3c95f66d	0.018305982
99	0x3d055a90	0.03255707
100	0xbda49b90	-0.08037484
101	0xbe2f902f	-0.17144845
102	0xbd0f4c8c	-0.03498511
103	0x3ca07948	0.019589081
104	0x3e1e9974	0.15488225
105	0xbd9394ce	-0.072061166
106	0xbcc01593	-0.023447787
107	0x3d495a02	0.049158104
108	0xbe50bc86	-0.20384416
109	0xbde893fa	-0.11356349
110	0x3d2d3413	0.04228599
111	0x3d896d7b	0.06710335
112	0x3e230163	0.15918498
113	0xbd99ec35	-0.07515756
114	0x3d07dd97	0.03317031
115	0x3c4f5353	0.012654143
116	0xbe7ca467	-0.2467209
117	0x3e2fff79	0.17187299
118	0x3d415c2d	0.047207046
119	0x3d80a014	0.062805325
120	0x3dd0f4f8	0.10202974
121	0x3dde2e29	0.10848648
122	0xbcd51ffe	-0.026016232
123	0xbd1f50ea	-0.038895525
124	0xbd35fd1b	-0.044430833
125	0x3dfb9457	0.12284153
126	0x3d118161	0.035523776
127	0x3c84063f	0.01611626
128	0x3dc55d42	0.09636928
129	0x3e2dbe80	0.16967201
130	0x3d200b13	0.03907306
131	0x3d6dfd78	0.058103055
132	0x3d0a0368	0.033694655
133	0x3e8d5f0e	0.27611583
134	0xbd06d587	-0.03291848
135	0xbd3f9496	-0.046772562
136	0x3d627b87	0.055293586
137	0x3e1e52de	0.15461299
138	0x3b9c57ed	0.0047712238
139	0x3cc61a36	0.02418242
140	0x3dbe1af2	0.09282483
141	0x3f1ab0e6	0.60426176
142	0x3bcb4fb8	0.0062045716
143	0xbc8c94e1	-0.017160835
144	0x3d945455	0.072426476
145	0xbe4553c8	-0.19270241
146	0x3c3f3967	0.011671401
147	0x3ce31cb2	0.027723644
148	0xbe043c80	-0.12913704
149	0x3d88c5b2	0.066783324
150	0x3bfc9feb	0.0077094934
151	0x3cf18a56	0.029484909
152	0x3d159455	0.036518414
153	0xbe207aad	-0.15671797
154	0xbc8a721b	-0.016900113
155	0x3c2e36dd	0.010633198
156	0x3c045819	0.008077645
157	0xbb8683cc	-0.004105067
158	0x3d6615dd	0.056173194
159	0x3d85d6dc	0.06535122
160	0x3c1542f3	0.0091102
161	0xbe08374d	-0.13302346
162	0xbca00f8c	-0.019538663
163	0x3cc03c06	0.023466121
164	0x3d39fdc5	0.04540803
165	0xbecd69d7	-0.40119812
166	0xbd1e9ab0	-0.03872174
167	0x3ddbc1ea	0.107303455
168	0x3dd7bb4e	0.105337724
169	0x3e6603b7	0.22462355
170	0x3ca6568c	0.02030494
171	0x3d3391e1	0.043840293
172	0xbcea7e00	-0.028624535
173	0x3da18c4c	0.07888088
174	0xbcd3c086	-0.025848638
175	0x3d739427	0.05946746
176	0x3e0820fd	0.13293834
177	0x3ebb419a	0.36573488
178	0x3b42691d	0.0029664703
179	0x3d2b0acb	0.04175834
180	0xbda191fe	-0.07889174
181	0x3cb6aa00	0.02229786
182	0x3c71b6fe	0.014753101
183	0x3da905b6	0.082530424
184	0x3e745216	0.23859438
185	0x3ee6c2a7	0.45070383
186	0x3c91445a	0.017732788
187	0x3e4c149f	0.19929741
188	0xbd360768	-0.044440657
189	0xbe159f3e	-0.14611527
190	0xbd5a4fb2	-0.05329866
191	0x3e950ccf	0.29111335
192	0xbccf8e68	-0.02533646
193	0xbd3085e7	-0.04309645
194	0x3c0d74bf	0.0086337915
195	0xbaeb4588	-0.0017949799
196	0x3cb283e2	0.021791402
197	0xbd653135	-0.05595513
198	0x3cacf2f5	0.021111945
199	0x3ce7bddc	0.028288774
200	0x3d823421	0.06357599
201	0xbd977766	-0.0739582
202	0xbd154694	-0.03644426
203	0x3d016c1b	0.031597238
204	0xbd80925b	-0.06277915
205	0xbdc9aef9	-0.098478265
206	0xbaef9bb6	-0.0018280658
207	0xbd08fc4e	-0.03344374
208	0x3d3cd862	0.046104796
209	0xbd53184d	-0.051536847
210	0xbd2c69a3	-0.04209293
211	0x3d0cb468	0.034351736
212	0xbe817562	-0.25284868
213	0xbed9c127	-0.42530176
214	0x3d1f273a	0.03885577
215	0x3ddab783	0.10679533
216	0x3dbe7ab5	0.09300748
217	0x3d8f53ac	0.06998381
218	0xbd493a53	-0.049127888
219	0xbd9c7f4c	-0.076414675
220	0xbbc943ea	-0.006142129
221	0xbe221955	-0.15829976
222	0x3c853546	0.016260754
223	0xbcfdc85e	-0.030979332
224	0x3e0edbba	0.13951007
225	0x3c8ba0d3	0.01704446
226	0x3cf8d005	0.030372629
227	0x3d353905	0.04424383
228	0xbcde7bb8	-0.027158603
229	0xbe61d6fe	-0.2205467
230	0x3cebc52f	0.028780548
231	0xbcd0b50e	-0.025476959
232	0x3e6187ee	0.2202451
233	0x3d5a1dcc	0.053251073
234	0x3d6b4787	0.05744126
235	0x3d7b79f8	0.061395615
236	0x3d618627	0.05505958
237	0xbed08312	-0.40725
238	0x3da6532c	0.081213325
239	0x3da88e82	0.08230306
240	0xbd82cd2b	-0.06386789
241	0xbcabee0f	-0.020987539
242	0xbb01a49a	-0.0019781948
243	0x3cb01633	0.02149496
244	0x3e2de5c8	0.16982186
245	0x3e85a4bf	0.26102254
246	0xbb952501	-0.0045515303
247	0x3c975407	0.018472685
248	0xbca1eb2f	-0.019765465
249	0x3d2342d2	0.039858647
250	0xbc099281	-0.008396746
251	0xbe06d7aa	-0.13168207
252	0x3de70155	0.11279551
253	0xbc5b62c0	-0.013390243
254	0xb8ac10ce	-8.204729e-05
255	0xbd9c52f1	-0.07633007

fc1.bias f4 [256]
0	0x3dec44c8	0.115365565
1	0x3e5006b8	0.20315063
2	0x3c4be77a	0.012445325
3	0x3e532c1d	0.20622297
4	0xbe5def2c	-0.21673268
5	0xbdbc1422	-0.091835275
6	0x3e308a9d	0.17240377
7	0x3dd6580b	0.104660116
8	0x3d891b98	0.06694716
9	0x3dfdb0ad	0.12387214
10	0x3e56b7d4	0.20968562
11	0xbeb61b39	-0.35567644
12	0x3daabd8c	0.083369344
13	0xbe8c5f9b	-0.2741669
14	0x3e5a0007	0.21289073
15	0xbe6360bf	-0.22204874
16	0xbe2a8b57	-0.16654716
17	0xbe250aaf	-0.16117357
18	0x3ccc97f9	0.02497481
19	0xbdc423db	-0.095771514
20	0xbe683ec0	-0.22680187
21	0x3e49dca0	0.19713068
22	0xbb14ed1f	-0.0022724343
23	0x3e9c9ae4	0.30586922
24	0x3e7a4b95	0.24442895
25	0x3bd0d6e8	0.006373275
26	0xbe900f5c	-0.28136718
27	0xbd6a7b62	-0.057246573
28	0x3e88ea92	0.26741463
29	0xbde47751	-0.1115557
30	0xbd9e880f	-0.07740795
31	0x3e8f11de	0.2794332
32	0x3d43f486	0.047840618
33	0xbe034962	-0.12820962
34	0xbbea272b	-0.0071457825
35	0xbdea645c	-0.11444923
36	0xbe7aaab6	-0.24479184
37	0x3e2168af	0.1576259
38	0xbea6931e	-0.32534117
39	0xbed0aa86	-0.407551
40	0xbdf7efa9	-0.121062584
41	0x3d1aea26	0.037820958
42	0x3d974e38	0.07387966
43	0xbe8420cd	-0.25806275
44	0xbe6a90c7	-0.2290679
45	0xbe0900dd	-0.13379236
46	0x3e53cc8e	0.206835
47	0xbe83268a	-0.2561534
48	0x3db4e61d	0.08832953
49	0x3c415d43	0.0118020205
50	0xbe6b93f0	-0.23005652
51	0xbeaf4a47	-0.34236357
52	0x3e644bb7	0.22294508
53	0xbe1756aa	-0.14779153
54	0xbdd7c4b9	-0.10535569
55	0x3dabb331	0.083837874
56	0x3e29c98c	0.1658079
57	0xbd08409b	-0.033264738
58	0x3eda194e	0.4259743
59	0x3d181701	0.037131313
60	0xbe5583b6	-0.20851025
61	0x3ea62337	0.32448742
62	0xbe0d510e	-0.13800451
63	0x3e8a00f6	0.26953858
64	0x3d0e800a	0.034790076
65	0xbe19fc30	-0.15037608
66	0xbe903437	-0.28164837
67	0x3d0ec46b	0.034855288
68	0xbbcabe59	-0.006187242
69	0xbd8305d9	-0.063976
70	0xbccabd02	-0.02474833
71	0xbe43b34a	-0.19111362
72	0xbda48363	-0.080328725
73	0x3ddea129	0.108705826
74	0xbe954a0e	-0.29158062
75	0x3edfeb28	0.43734097
76	0x3cb2b7f2	0.021816228
77	0xbcc76de3	-0.02434439
78	0x3e5873e3	0.21137957
79	0xbd40ac8a	-0.047039546
80	0xbcb439b0	-0.022000164
81	0xbe87bd71	-0.2651172
82	0xbe8b5a57	-0.2721736
83	0xbe6f8289	-0.23389639
84	0x3e351b50	0.176862
85	0xbe5a1c72	-0.21299914
86	0xbd4b88b3	-0.049690913
87	0xbe1747a8	-0.14773428
88	0xbe0e6fa8	-0.13909781
89	0x3ddfcf1a	0.10928173
90	0xbd2dcf53	-0.042434048
91	0x3d2b1423	0.04176725
92	0xbe0c92dd	-0.13727899
93	0x3e861f0e	0.26195568
94	0xbe2d2aa9	-0.16910805
95	0x3e716196	0.23572382
96	0x3eb4cac7	0.35310957
97	0x3d28c80c	0.041206405
98	0xbd974768	-0.073866665
99	0xbea1a7f7	-0.3157346
100	0x3e73ca9f	0.23807763
101	0x3e65ca5b	0.22440474
102	0xbebdf387	-0.3709986
103	0x3e7c8344	0.24659449
104	0xbe390f69	-0.18072285
105	0x3d86c172	0.065798655
106	0x3e86879f	0.26275346
107	0x3deb6abd	0.11494968
108	0xbe473119	-0.19452323
109	0x3cae3093	0.021263396
110	0xbe0c7a21	-0.13718463
111	0xbe5f4b58	-0.21806085
112	0xbd0b05d0	-0.03394109
113	0xbe538525	-0.2065626
114	0x3e0670aa	0.13128915
115	0xbe6e389c	-0.23263782
116	0xbe4147ab	-0.18874995
117	0x3e261a2c	0.16220921
118	0xbd0e81e6	-0.03479185
119	0x3e8c0300	0.2734604
120	0x3e1f638c	0.15565318
121	0x3e352fe2	0.17694047
122	0xbe0f0fea	-0.13970914
123	0x3be64b7f	0.007028043
124	0xbb639a4d	-0.0034729422
125	0xbe997dff	-0.2997894
126	0x3ea99e40	0.33128548
127	0xbd50c3cd	-0.05096798
128	0x3e07a639	0.13247003
129	0x3cc97c91	0.02459553
130	0x3a4314c7	0.0007441756
131	0xbdf5441d	-0.11975882
132	0x3e8ba0a6	0.27271003
133	0x3c04a8af	0.008096858
134	0xbe96dfa9	-0.29467514
135	0xbc4b2bd6	-0.012400588
136	0xbb9f51f6	-0.0048620654
137	0xbd0a549e	-0.033772103
138	0x3e317bbc	0.17332357
139	0x3dd726ba	0.105054334
140	0x3cc731cd	0.024315739
141	0x3d9d9968	0.076952755
142	0xbc8eaf32	-0.017417524
143	0x3e062dab	0.13103358
144	0x3dc17408	0.09445959
145	0x3ddb1328	0.10697013
146	0xbd4cc1d5	-0.04998954
147	0xbe9dae0f	-0.3079686
148	0xbd3adee2	-0.045622714
149	0x3e4c3538	0.19942176
150	0x3e9dbee1	0.30809692
151	0xbe210acf	-0.1572678
152	0xbb4752ec	-0.0030414416
153	0x3d54f49a	0.051991083
154	0x3d31be60	0.043394446
155	0xbd7964d4	-0.060887173
156	0xbdb964f7	-0.09052461
157	0x3e0494b6	0.12947354
158	0x3e6cca2a	0.23123994
159	0xbd8ec865	-0.06971816
160	0x3e30417f	0.17212485
161	0xbe348e87	-0.17632495
162	0xbd5369a8	-0.051614434
163	0x3eb7a57e	0.35868448
164	0x3d78a3e5	0.060703177
165	0xbe5fd2f2	-0.21857813
166	0xbd6c4120	-0.057679296
167	0x3e235276	0.15949425
168	0x3d3de20e	0.04635816
169	0xbe8be41b	-0.27322468
170	0x3e143827	0.14474545
171	0x3e0605b2	0.1308811
172	0xbe71003d	-0.23535247
173	0xbe655169	-0.22394337
174	0x3e2cabaa	0.1686236
175	0xbd9394af	-0.072060935
176	0xbcb56afa	-0.022145737
177	0xbe757301	-0.23969652
178	0xbe4e0e03	-0.20122533
179	0x3ead4ac4	0.33846104
180	0x3d846b38	0.06465763
181	0x3e28b666	0.1647583
182	0x3ea88eac	0.3292135
183	0xbe34a656	-0.17641577
184	0xbe80472c	-0.250543
185	0x3c72a507	0.014809853
186	0xbe261388	-0.16218388
187	0x3e3da3f8	0.1851958
188	0x3e3ef9ea	0.18650022
189	0x3d6364de	0.055516116
190	0x3dd562b1	0.104192145
191	0x3dda14ae	0.106484756
192	0x3dd9f6f2	0.10642804
193	0x3d623c41	0.055233244
194	0x3c5805c3	0.013184967
195	0xbebd6758	-0.36992908
196	0x3e410e8d	0.18853207
197	0xbe2784a3	-0.1635919
198	0xbe929bd8	-0.28634524
199	0x3e9d8a29	0.3076947
200	0xbea8a900	-0.32941437
201	0xbe4e4173	-0.20142154
202	0x3e47b990	0.1950438
203	0xbd515077	-0.051102128
204	0xbdc8c3e8	-0.09802991
205	0x3e121c94	0.14268714
206	0x3c88cef7	0.016700251
207	0x3e0b9b8e	0.13633558
208	0xbb3aefb3	-0.002852422
209	0x3e179bcd	0.14805527
210	0x3eb87160	0.36023998
211	0x3edb93d6	0.42886227
212	0x3dc32fb9	0.09530587
213	0xbcebff27	-0.02880819
214	0xbd3092d0	-0.04310876
215	0xbaf7fc68	-0.0018919827
216	0xbd38cd3f	-0.045117613
217	0xbe9ef2ae	-0.31044525
218	0xbe17cca3	-0.14824156
219	0xbd6948ff	-0.05695438
220	0x3e03c411	0.12867762
221	0x3e4df835	0.20114215
222	0xbe2d10e5	-0.16900976
223	0xbe4e46f9	-0.20144261
224	0xbdf27474	-0.11838618
225	0xbc5b0320	-0.013367444
226	0xbe1ddebb	-0.15416996
227	0x3ea32b08	0.31868768
228	0xbcf25773	-0.029582715
229	0x3d5ef509	0.054432902
230	0xbe954ebc	-0.29161632
231	0xbe3c668a	-0.1839849
232	0xbcf87f20	-0.030334055
233	0xbbd31a65	-0.0064423555
234	0x3ea54997	0.32282707
235	0xbe0b72f1	-0.13618065
236	0xbdf7c473	-0.120980166
237	0x3d367dfb	0.044553738
238	0xbea40125	-0.32032123
239	0x3ea49859	0.32147482
240	0x3d872ac2	0.06599952
241	0x3ea2165a	0.31657678
242	0xbc8b3ae9	-0.016995864
243	0xbe044eb2	-0.12920645
244	0x3edcef81	0.43151477
245	0x3d1a1456	0.03761705
246	0xbe2bba46	-0.16770276
247	0x3dd8dd4b	0.10589083
248	0xbdeed5f1	-0.116619
249	0x3e889d92	0.26682717
250	0xbe48b17f	-0.1959896
251	0x3d76a5cb	0.060216706
252	0x3e30c097	0.17260967
253	0x3dfd59ea	0.12370665
254	0xbcb32c8f	-0.021871833
255	0xbe27420c	-0.16333789

fc2.weight f4 [128, 258]
0	0xbdfc5b8e	-0.1232215
1	0xbe0e1c9c	-0.13878101
2	0xbd23ab12	-0.039958067
3	0x3e4bf37b	0.19917099
4	0x3db55142	0.08853389
5	0xbe13029e	-0.14356467
6	0x3cc4fc67	0.024046136
7	0x3bf2bc6c	0.0074077155
8	0x3d2ffd6b	0.042966288
9	0x3dbd69b5	0.09248678
10	0xbc407b2a	-0.011748115
11	0x3e31a55e	0.17348239
12	0x3d46866b	0.048468035
13	0xbd7ad1d5	-0.061235268
14	0xbe26e931	-0.16299893
15	0xbe179423	-0.14802603
16	0x3d99ae51	0.07503951
17	0xbe0aa733	-0.13540344
18	0xbe19c684	-0.15017134
19	0xbde58efa	-0.11208911
20	0xbda32842	-0.07966663
21	0x3d445330	0.047930896
22	0xbdc3683d	-0.09541366
23	0xbc328259	-0.010895335
24	0xbe4d6bad	-0.20060606
25	0xbe4fdac6	-0.20298299
26	0xbd210ca8	-0.03931871
27	0xbe4a8750	-0.1977818
28	0x3ca491d2	0.020089064
29	0xbc2dc51a	-0.010606075
30	0x3e7e0c87	0.24809466
31	0xbdd09cfe	-0.10186194
32	0xbe687755	-0.22701772
33	0x3d2d107b	0.042252045
34	0xbdcaa38a	-0.09894474
35	0x3c342c45	0.010996883
36	0x3d70aebd	0.058760393
37	0xbdbf57a4	-0.09342888
38	0xbc0a55e4	-0.0084433295
39	0x3ddd34f7	0.10801118
40	0x3c0027ae	0.00782196
41	0xbdbfe5f2	-0.093700305
42	0xbd9477b9	-0.07249398
43	0x3e307a37	0.17234121
44	0x3dd7235b	0.105047904
45	0x3d86fa3a	0.06590696
46	0xbcd7d678	-0.026347384
47	0x3d5aa7c9	0.05338267
48	0xbe6a2f36	-0.22869572
49	0xbc696639	-0.014245563
50	0xbe541927	-0.2071272
51	0xbdc2612c	-0.0949119
52	0x3ced71e1	0.028984966
53	0xbdc8d043	-0.09805348
54	0xbe48c8b4	-0.19607812
55	0x3e1179e5	0.14206655
56	0x3e7cb395	0.2467788
57	0xbd9fe9a7	-0.078082375
58	0xbe01b716	-0.12667498
59	0xbe0ed440	-0.13948154
60	0xbceabd7f	-0.028654812
61	0x3e1a1965	0.1504875
62	0xbeb1b685	-0.34709564
63	0xbda20af2	-0.07912244
64	0x3daee9c9	0.08540685
65	0xbde6c2a1	-0.11267591
66	0xbd28bb56	-0.041194282
67	0xbdc77dff	-0.09740829
68	0xbca75334	-0.020425417
69	0xbcc81332	-0.024423216
70	0xbcb0ee7d	-0.021598095
71	0xbc1a1e93	-0.0094067035
72	0x3ba2b67d	0.004965602
73	0x3cc18142	0.023621205
74	0x3e2d27f1	0.16909768
75	0xbd38b81c	-0.045097455
76	0xbc928fc5	-0.01789082
77	0x3dca1c69	0.098687
78	0x3c68f0f6	0.014217606
79	0x3d4a7e2b	0.04943673
80	0x3b7515ec	0.00373971
81	0x3cb710ed	0.022346938
82	0xbce04522	-0.027376715
83	0xbc0cd038	-0.008594565
84	0x3d459bf0	0.048244417
85	0x3da43bda	0.08019228
86	0xbe0181e9	-0.12647213
87	0xbdf47834	-0.119369894
88	0x3d3053ea	0.043048777
89	0xbd1d74ef	-0.038441595
90	0x3843b2af	4.6658035e-05
91	0xbe62ca3d	-0.2214746
92	0xbe721bf1	-0.23643471
93	0x3cfc76b6	0.030818325
94	0xbd861279	-0.06546492
95	0x3d2a10f9	0.041520093
96	0x3dd384bc	0.103280514
97	0x3e0bfdb3	0.13670997
98	0xbd59f698	-0.053213686
99	0xbe3d7fcb	-0.1850578
100	0x3e0360a1	0.1282983
101	0x3d226f6a	0.039657034
102	0xbe7bb1ab	-0.24579494
103	0x3d859ede	0.06524442
104	0xbe962009	-0.29321316
105	0xbd63eec8	-0.05564764
106	0x3de463d3	0.111518525
107	0xbb66d8b2	-0.0035224375
108	0xbc5c82fa	-0.013458962
109	0xbe8f77ce	-0.2802109
110	0xbd7efc3b	-0.062252264
111	0xbd5f4e5c	-0.05451809
112	0xbd7bfcc0	-0.061520338
113	0x3d605d6f	0.054776605
114	0xbd6c0cb8	-0.057629317
115	0x3cf73677	0.030177338
116	0x3df15949	0.11784608
117	0x3e04bc78	0.1296252
118	0x3d81cc83	0.06337836
119	0x3daf7271	0.0856675
120	0xbdec14b4	-0.11527386
121	0xbded4a84	-0.11586478
122	0x3d2e7601	0.042593006
123	0xbd3e1090	-0.046402514
124	0x3d825808	0.06364447
125	0xbe4191e5	-0.1890331
126	0xbe25e9e8	-0.1620251
127	0x3d03cb47	0.032176282
128	0xbdf80019	-0.121093936
129	0xbd562267	-0.052278902
130	0x3e184119	0.14868583
131	0xbdae541f	-0.085121386
132	0xbc287d25	-0.010283743
133	0xbdd82288	-0.10553461
134	0x3e04b509	0.12959684
135	0xbe6abd32	-0.22923735
136	0xbe7619b3	-0.24033241
137	0x3e136d52	0.14397171
138	0x3d8a8415	0.06763474
139	0x3da838fc	0.08213994
140	0xbe25814e	-0.16162607
141	0x3dd8f9a4	0.1059449
142	0x3d9f8491	0.07788957
143	0x3d4eaa38	0.050455302
144	0xbd00ea95	-0.031473715
145	0xbe41da98	-0.18931043
146	0xbe09e44e	-0.13465998
147	0xbdc42356	-0.09577052
148	0xbd666805	-0.056251545
149	0xbc95c56b	-0.018282613
150	0x3d0f49d8	0.034982532
151	0xbd38ddbb	-0.045133334
152	0x3c718760	0.014741749
153	0x3df92b83	0.12166502
154	0x3d9b6421	0.075874574
155	0x3def52b2	0.11685695
156	0xbd252044	-0.040313974
157	0x3d73e4e0	0.059544444
158	0xbdb96e93	-0.090542935
159	0x3c2bca7e	0.01048529
160	0xbc629f5c	-0.01383194
161	0xbd48359b	-0.048879247
162	0xbc5e930e	-0.013584865
163	0xbda10267	-0.07861786
164	0x3cb644c7	0.022249592
165	0x3cadf6de	0.02123588
166	0x3db44609	0.08802421
167	0x3ce30cd2	0.027716074
168	0xbd6e940c	-0.058246657
169	0x3dc43782	0.095809
170	0x3d46ba34	0.04851742
171	0x3da3c762	0.07997014
172	0xbe6ea8c8	-0.23306572
173	0x3df70534	0.12061539
174	0x3e0622ad	0.13099165
175	0xbd28fd1e	-0.041257016
176	0xbd004705	-0.03131773
177	0x3e12074d	0.14260598
178	0xbd1ee03d	-0.03878807
179	0xbcdb60d9	-0.026779579
180	0xbdd31bd6	-0.10308044
181	0x3d16bf8c	0.036803767
182	0x3e96f219	0.2948158
183	0x3d6b00e3	0.057373893
184	0xbda5f1a7	-0.08102732
185	0x3d9485c3	0.072520755
186	0xbdbf86c4	-0.093518764
187	0x3ccb79c3	0.024838334
188	0xbcbd02f3	-0.023072695
189	0xbc959b03	-0.018262392
190	0xbe14139b	-0.14460604
191	0xbd8fa55c	-0.07013962
192	0xbb3e8091	-0.002906833
193	0xbd669d8f	-0.056302603
194	0x3c232345	0.009957139
195	0xbd687baa	-0.05675856
196	0xbe2af6df	-0.16695736
197	0x3d702e19	0.058637712
198	0xbe2675b0	-0.16255832
199	0x3d49f3e2	0.04930485
200	0xbd5b942e	-0.053608112
201	0x3de63231	0.11240042
202	0x3d318e95	0.043348867
203	0xbcad2e8d	-0.021140361
204	0x3c5ceb1a	0.013483787
205	0x3c2c1a53	0.010504323
206	0xbd0b3ffe	-0.033996575
207	0xbdbac810	-0.0912019
208	0xbe02db5f	-0.12778996
209	0x3b825956	0.003977935
210	0x3dd88846	0.10572867
211	0x3cf7885d	0.03021639
212	0xbdffa51a	-0.124826625
213	0x3ce2a6ca	0.027667422
214	0xbdd12123	-0.102113985
215	0xbdc0b675	-0.09409801
216	0xbc8d973c	-0.017284028
217	0x3d389e8b	0.045073073
218	0xbcae31c7	-0.02126397
219	0x3e76856a	0.24074331
220	0x3e1dc2a7	0.15406285
221	0xbd8b17e9	-0.0679167
222	0x3cd02327	0.025407387
223	0x3d65bcf5	0.056088407
224	0xbd0cff63	-0.034423243
225	0x3de7949d	0.113076426
226	0xbe5fce95	-0.21856149
227	0x3cc2efd9	0.023796009
228	0x3dd8ee28	0.105923
229	0xbd98c69b	-0.07459756
230	0x3d2d98dc	0.042382106
231	0x3d8b1c65	0.06792525
232	0xbd5fa4c9	-0.05460051
233	0x3d6d438f	0.057925757
234	0x3e09e3df	0.13465832
235	0xbe00d977	-0.12582956
236	0xbdb08ee4	-0.08621004
237	0xbc94d271	-0.018166753
238	0xbdcf2e2f	-0.10116231
239	0xbea572d5	-0.32314172
240	0x3d6e9b14	0.058253363
241	0x3d86d812	0.06584181
242	0x3ca3532e	0.019937124
243	0xbe1bc172	-0.15210512
244	0xbe239eb3	-0.15978508
245	0x3b20f667	0.002456093
246	0xbe6b67f0	-0.22988868
247	0x3d8654be	0.06559132
248	0x3d0f9ec4	0.03506352
249	0x3e145b33	0.14487915
250	0xbdb2a83a	-0.08723493
251	0xbd8f7087	-0.07003885
252	0xbd570a3e	-0.052500002
253	0xbd87d3fb	-0.06632229
254	0xbe99cde1	-0.30039886
255	0xbe331fcc	-0.17492598

fc2.bias f4 [128]
0	0x3e4d638b	0.20057504
1	0xbe0ff400	-0.14057922
2	0xbd8932b7	-0.06699126
3	0x3ce0aba8	0.027425602
4	0xbdb5e2df	-0.08881163
5	0xbe438da6	-0.19097003
6	0xbd873891	-0.06602586
7	0x3d7765f0	0.06039995
8	0x3d046faa	0.032333054
9	0x3e6defd8	0.23236024
10	0xbd2cb516	-0.042164885
11	0x3e7d70fb	0.2475013
12	0xbe226097	-0.15857159
13	0xbe9465a4	-0.28983796
14	0xbe033cc8	-0.12816155
15	0xbd4f85da	-0.05066476
16	0xbd0d15c4	-0.034444585
17	0x3cfcef32	0.030875776
18	0xbcea080b	-0.028568288
19	0x3b9e4031	0.0048294296
20	0xbe066b9e	-0.1312699
21	0xbe3e8cdf	-0.18608426
22	0x3dff0971	0.12452973
23	0xbde4a7a7	-0.1116479
24	0xbd5a6ddf	-0.053327437
25	0xbe5f0da5	-0.21782549
26	0x3ca3b14e	0.019982006
27	0x3e8e42e5	0.2778541
28	0x3dd9412b	0.10608133
29	0xbbc52202	-0.006016017
30	0xbe82f332	-0.25576168
31	0xbe265eed	-0.16247149
32	0xbe119708	-0.1421777
33	0xbde4d839	-0.11174054
34	0xbdce2fa7	-0.10067683
35	0x3d091293	0.03346498
36	0xbbe386f1	-0.0069435765
37	0xbe550ded	-0.20806094
38	0xbe15800d	-0.14599629
39	0xbd88b411	-0.0667497
40	0xbe518171	-0.20459534
41	0x3db9b302	0.09067346
42	0xbe2d7b22	-0.16941503
43	0xbae02b2f	-0.0017102713
44	0x3d49c33a	0.04925845
45	0x3ebafe6d	0.36522236
46	0xbd0e62af	-0.03476208
47	0x3da915d7	0.08256119
48	0xbc3bb517	-0.011456749
49	0x3e441886	0.1914998
50	0xbded311f	-0.11581635
51	0xbe6b75de	-0.22994182
52	0x3df604bd	0.120126225
53	0xbe91ec43	-0.28500566
54	0x3c9822ea	0.018571336
55	0xbe1b2fbe	-0.15154931
56	0xbe98583b	-0.29754815
57	0xbbea64c2	-0.0071531245
58	0xbed95f92	-0.42455727
59	0x3da7ad2e	0.08187328
60	0xbd484689	-0.048895393
61	0x3cc932bf	0.02456033
62	0x3ddf5bd7	0.10906189
63	0x3ddd9d78	0.108210504
64	0xbe35d3e3	-0.1775661
65	0xbe2f862a	-0.17141023
66	0x3dec3737	0.11533969
67	0xbe0d265c	-0.13784164
68	0x3dd0597c	0.10173318
69	0xbc66207b	-0.01404583
70	0xbda069bd	-0.07832668
71	0x3dc2ebfc	0.09517667
72	0xbd8abfec	-0.067748874
73	0x3e91b1ea	0.2845605
74	0xbabd69e3	-0.0014451112
75	0x3daaf7da	0.08348055
76	0x3d8bf75f	0.06834292
77	0x3db4b300	0.08823204
78	0x3e041874	0.12899953
79	0xbdc803da	-0.097663596
80	0x3d9a4591	0.075328
81	0xbe7821e4	-0.24231678
82	0xbd6c0d75	-0.05763002
83	0x3e34dfa8	0.17663443
84	0xbe59d523	-0.21272711
85	0xbe39bbfe	-0.1813812
86	0xbdc60447	-0.096687846
87	0xbdc611f8	-0.09671396
88	0x3daf83ca	0.08570059
89	0x3e89ae19	0.26890638
90	0x3e792522	0.24330571
91	0x3d25866c	0.040411398
92	0xbe36caa7	-0.17850743
93	0x3dff8087	0.124756865
94	0xbdadac37	-0.08480113
95	0xbe7290d2	-0.23688057
96	0xbe257dfa	-0.16161337
97	0x3bcc5031	0.0062351455
98	0xbd8e8a8c	-0.069600195
99	0xbd160e58	-0.036634773
100	0xbe0e8e14	-0.13921386
101	0xbe25dfdf	-0.16198681
102	0xbd31e39c	-0.043429956
103	0x3d8ed40f	0.06974041
104	0x3da16e80	0.07882404
105	0xbaa4447b	-0.0012532616
106	0x3ddf2933	0.1089653
107	0x3d2c881c	0.04212199
108	0xbc71d957	-0.0147612905
109	0x3d7f13b3	0.062274646
110	0x3e7ed1d8	0.24884737
111	0x3e210229	0.1572348
112	0x3e0a4389	0.13502325
113	0x3e6307af	0.221709
114	0x3e0df898	0.13864362
115	0x3d93ee21	0.07223154
116	0x3eb25b30	0.34835196
117	0xbd0d987b	-0.034569245
118	0xbd35b730	-0.044364154
119	0xbea7f84b	-0.3280662
120	0xbdd6986e	-0.104782924
121	0xbe95ebc2	-0.2928143
122	0xbe40a4c9	-0.1881286
123	0xbd873ac8	-0.066030085
124	0x3da431eb	0.080173336
125	0x3e0d124f	0.13776515
126	0xbe9bef02	-0.30455786
127	0xbe8a75e0	-0.27043056

fc3.weight f4 [51, 128]
0	0xbde60eeb	-0.11233314
1	0xbdaa3ce5	-0.08312396
2	0xbd51d4fc	-0.05122851
3	0xbd9c1033	-0.07620277
4	0xbdf81f4a	-0.12115343
5	0xbdb93d65	-0.09044913
6	0x3e809b60	0.25118542
7	0xbe0cc7cf	-0.13748096
8	0xbe22cecc	-0.15899199
9	0xbeef3ab2	-0.46724468
10	0xbd601338	-0.05470583
11	0xbe1e61d9	-0.15467013
12	0xbd5eb1dc	-0.05436884
13	0xbd3520c4	-0.0442207
14	0xbd7afc54	-0.061275795
15	0xbd6ce0e2	-0.057831652
16	0xbedc9a9b	-0.43086705
17	0xbe05d1f4	-0.13068372
18	0xbe401fda	-0.1876215
19	0xbd9a103d	-0.075226285
20	0xbd10c0cf	-0.035340127
21	0xbd3ca515	-0.046055872
22	0xbebe276c	-0.37139452
23	0xbc913587	-0.01772572
24	0xbdcc0228	-0.09961349
25	0xbd8077d7	-0.06272858
26	0xbd1c014b	-0.03808717
27	0xbe8cf311	-0.27529195
28	0xbde1c2f5	-0.11023513
29	0x3df13c62	0.11779095
30	0xbe8b5069	-0.27209786
31	0xbde3bf5b	-0.111204825
32	0xbdcebf9a	-0.10095139
33	0xbcaa82de	-0.020814355
34	0xbf0ed76c	-0.5579746
35	0xbca55ecb	-0.020186802
36	0xbd55447c	-0.052067265
37	0xbe48c36c	-0.19605798
38	0x3dfd725d	0.12375329
39	0xbe102d82	-0.1407986
40	0xbd9ae223	-0.075626634
41	0xbd9971b9	-0.07492394
42	0xbe820845	-0.25396934
43	0xbd99739c	-0.07492754
44	0x3e91e8f3	0.2849804
45	0xbf473d0c	-0.77827525
46	0xbe4a6c42	-0.1976786
47	0xbdefdf31	-0.11712492
48	0xbcd72327	-0.02626188
49	0xbe8f118a	-0.2794307
50	0x3dee51d5	0.11636702
51	0x3e943960	0.28950024
52	0xbe46c21a	-0.19409981
53	0x3db87f9c	0.090087146
54	0x3e425593	0.18977956
55	0xbeb2c8ba	-0.34918767
56	0xbe5cf1b3	-0.21576576
57	0xbebdfc07	-0.37106344
58	0x3e15e1b6	0.14636883
59	0xbdbf0cf2	-0.09328641
60	0xbd600dbb	-0.054700594
61	0x3e0f9d78	0.14024913
62	0xbbe59f4e	-0.007007516
63	0xbebb6c54	-0.36606085
64	0xbe8d7101	-0.27625278
65	0x3e6d89bf	0.23197077
66	0xbf2b9260	-0.67020226
67	0xbd99dfcc	-0.07513389
68	0xbe301580	-0.17195702
69	0xbed60ee6	-0.41808242
70	0xbd6846d4	-0.056708172
71	0xbebc1041	-0.3673115
72	0x3de41f1e	0.11138748
73	0xbeae82f8	-0.34084296
74	0x3e1e949c	0.15486377
75	0xbf0a4ce4	-0.54023576
76	0xbe1bb002	-0.1520386
77	0xbda8405a	-0.08215399
78	0xbeaf6a5e	-0.3426084
79	0xbe1815d8	-0.14852083
80	0xbdb0e367	-0.086371236
81	0xbdd15d8c	-0.10222921
82	0xbe5c8ddc	-0.2153849
83	0xbd6c0888	-0.057625324
84	0x3e0fec28	0.1405493
85	0xbe887bd0	-0.2665696
86	0xbdd9fad8	-0.10643548
87	0xbdded169	-0.108797856
88	0xbe8d277a	-0.2756918
89	0xbde93fc7	-0.11389118
90	0xbe4e9fb4	-0.2017811
91	0x3e319564	0.17342144
92	0x3ddcfcef	0.10790431
93	0xbe3b4cb6	-0.18290982
94	0xbe1fd6dd	-0.15609308
95	0x3e2261ca	0.15857616
96	0xbd630285	-0.055422325
97	0xbd6a33d0	-0.05717832
98	0xbdc8497a	-0.097796395
99	0x3e920636	0.28520364
100	0x3e2796e2	0.16366151
101	0xbd8115e5	-0.06303004
102	0xbec54852	-0.3853174
103	0x3e4ce0d7	0.20007645
104	0xbdb77b4d	-0.08959065
105	0xbefc6c67	-0.49301454
106	0xbc19d41d	-0.009388951
107	0xbf6a74f9	-0.91584736
108	0xbcf1e7c6	-0.029529463
109	0xbe4d427b	-0.20044892
110	0xbe2d9489	-0.16951193
111	0x3e50653b	0.20351116
112	0xbcde13a3	-0.027108973
113	0xbe82bbe5	-0.25533977
114	0xbe980a81	-0.29695514
115	0xbdb46411	-0.08808149
116	0xbf5b87de	-0.8575419
117	0xbea98967	-0.33112642
118	0xbcf855f3	-0.030314421
119	0xbdfb8c2d	-0.12282596
120	0xbe00e705	-0.12588127
121	0xbd8827af	-0.06648194
122	0x3e843f24	0.25829422
123	0xbe533099	-0.20624007
124	0xbf090cf9	-0.5353542
125	0xbdee9ae7	-0.11650639
126	0x3e2f7938	0.17136085
127	0xbd150b42	-0.03638769
128	0xbdef1e4e	-0.11675702
129	0xbdaf0ccc	-0.08547363
130	0xbd526219	-0.051363084
131	0xbd9a44fb	-0.07532688
132	0xbdf394ad	-0.11893592
133	0xbdb58a97	-0.088643245
134	0x3e81d224	0.25355637
135	0xbe0b9577	-0.13631235
136	0xbe1d7ba8	-0.15379202
137	0xbeefb121	-0.46814826
138	0xbd4d5262	-0.050127394
139	0xbe1e9bf5	-0.1548918
140	0xbd5bf003	-0.05369569
141	0xbd3a281d	-0.04544841
142	0xbd822268	-0.06354219
143	0xbd63d205	-0.055620212
144	0xbede1bd3	-0.43380603
145	0xbe072954	-0.13199359
146	0xbe3f1d0c	-0.18663424
147	0xbd96fa04	-0.073719054
148	0xbd14b9f8	-0.036310166
149	0xbd4833ff	-0.048877712
150	0xbebc914e	-0.3682961
151	0xbc8dcee1	-0.017310562
152	0xbdc9bb30	-0.09850156
153	0xbd8350b7	-0.064118795
154	0xbd12bd70	-0.035825193
155	0xbe8c85a7	-0.2744572
156	0xbdde3af7	-0.108510904
157	0x3df3ad9e	0.11898349
158	0xbe8da02e	-0.2766127
159	0xbddd4820	-0.108047724
160	0xbdc9c2bb	-0.09851595
161	0xbcb4ff49	-0.022094386
162	0xbf0f05dc	-0.55868316
163	0xbca8352d	-0.020533169
164	0xbd541ba8	-0.051784188
165	0xbe49151d	-0.1963696
166	0x3e00d54e	0.1258137
167	0xbe103c75	-0.14085563
168	0xbd9e053f	-0.07715844
169	0xbd94b95a	-0.072619155
170	0xbe80e263	-0.2517272
171	0xbd97008f	-0.073731534
172	0x3e91b2a3	0.28456602
173	0xbf47a710	-0.7798929
174	0xbe4a2cb4	-0.19743615
175	0xbdf01e66	-0.11724548
176	0xbcfc1b9c	-0.030774884
177	0xbe8ec2b0	-0.2788291
178	0x3dec1e7e	0.115292534
179	0x3e94df2d	0.2907652
180	0xbe47a0e3	-0.19494967
181	0x3db46740	0.08808756
182	0x3e42dfdb	0.19030707
183	0xbeb2ef31	-0.34948114
184	0xbe5cdb23	-0.21567969
185	0xbebdb377	-0.37050983
186	0x3e145461	0.14485313
187	0xbdbd1a84	-0.09233573
188	0xbd644b6e	-0.055735998
189	0x3e133e9d	0.14379354
190	0xbc0d6f65	-0.008632516
191	0xbebd4bbd	-0.36971846
192	0xbe8c9411	-0.27456716
193	0x3e6e2b7b	0.23258774
194	0xbf2b9625	-0.6702598
195	0xbd99b564	-0.07505301
196	0xbe2ee7d2	-0.1708062
197	0xbed6b026	-0.41931266
198	0xbd6de416	-0.058078848
199	0xbebb13bc	-0.36538494
200	0x3de526a2	0.11189009
201	0xbeaf28c4	-0.3421079
202	0x3e2011b5	0.15631755
203	0xbf0ac112	-0.5420085
204	0xbe1a8bc8	-0.15092385
205	0xbda86c14	-0.08223739
206	0xbeaf809b	-0.34277806
207	0xbe16f593	-0.14742117
208	0xbdb7de94	-0.08978
209	0xbdd6c8cc	-0.10487518
210	0xbe5c7852	-0.21530274
211	0xbd662a0f	-0.056192454
212	0x3e0d7ef6	0.13817963
213	0xbe89401c	-0.26806724
214	0xbddc3d89	-0.107539244
215	0xbdd7484e	-0.10511838
216	0xbe8d5fe6	-0.27612227
217	0xbdee9d0b	-0.11651047
218	0xbe4ed07e	-0.20196721
219	0x3e2d4737	0.16921698
220	0x3de842d4	0.113408715
221	0xbe3eaf57	-0.18621574
222	0xbe1f3645	-0.15548046
223	0x3e248577	0.16066538
224	0xbd6060a7	-0.054779675
225	0xbd77fe7d	-0.060545433
226	0xbdc9e695	-0.09858433
227	0x3e8fbc9a	0.2807358
228	0x3e28dd3b	0.16490643
229	0xbd858f9e	-0.065215334
230	0xbec4a2ea	-0.38405544
231	0x3e4f100a	0.20220962
232	0xbdb00f5c	-0.085966796
233	0xbefd0182	-0.49415213
234	0xbc04b405	-0.008099561
235	0xbf69dbf0	-0.91351223
236	0xbce66660	-0.028124988
237	0xbe4b5176	-0.19855294
238	0xbe2ede37	-0.17076956
239	0x3e527f89	0.20556463
240	0xbcc8616c	-0.024460517
241	0xbe82a65a	-0.2551754
242	0xbe98f861	-0.29876998
243	0xbdab086d	-0.083512165
244	0xbf5b0807	-0.85559124
245	0xbeaa633f	-0.33278844
246	0xbd068174	-0.0328383
247	0xbdf86d4f	-0.12130224
248	0xbdfc34db	-0.12314769
249	0xbd841081	-0.0644846
250	0x3e8425bf	0.25810048
251	0xbe56e147	-0.20984374
252	0xbf098be7	-0.537291
253	0xbdf23ea1	-0.11828352
254	0x3e2e85f9	0.17043294
255	0xbd1491d4	-0.036271885

fc3.bias f4 [51]
0	0xbe208c7c	-0.1567859
1	0xbe107c3b	-0.1410989
2	0xbde806d4	-0.11329427
3	0xbed9f7e4	-0.42571938
4	0xbeddc735	-0.43316045
5	0xbee6054d	-0.4492592
6	0xbed12525	-0.40848652
7	0xbefaa093	-0.48950633
8	0xbeea149c	-0.4571885
9	0xbeda4436	-0.42630166
10	0xbee2bcef	-0.4428477
11	0xbef758f9	-0.48310068
12	0xbefbfce3	-0.49216375
13	0xbf07dfd1	-0.5307589
14	0xbf0a66f2	-0.5406333
15	0xbf098751	-0.537221
16	0xbf0d6c9b	-0.55243844
17	0xbf01ca6a	-0.50699484
18	0xbf074a0c	-0.5284736
19	0xbf1b46ac	-0.6065471
20	0xbf32ac6e	-0.69794357
21	0xbf3d7d88	-0.7401967
22	0xbf3a783d	-0.7283972
23	0xbf0769b8	-0.5289569
24	0xbec45c6a	-0.38351756
25	0x3e420577	0.18947397
26	0x3d119282	0.03554011
27	0x3daf2d2c	0.08553538
28	0x3dea25e4	0.11433008
29	0x3debc062	0.115113035
30	0x3df31e51	0.11871017
31	0x3e0b3cf7	0.13597475
32	0x3e576e68	0.2103821
33	0x3e8e1ec2	0.2775784
34	0x3e4b12bd	0.19831367
35	0x3e2fa21b	0.17151682
36	0x3de0f4dd	0.10984204
37	0x3ce2a185	0.02766491
38	0xbd4b24be	-0.049595587
39	0xbd62d4aa	-0.055378594
40	0xbdc50e0b	-0.09621819
41	0xbe2309fb	-0.15921776
42	0xbe3dfd9d	-0.18553777
43	0xbe69b010	-0.22821069
44	0xbe8b986e	-0.27264732
45	0xbebf0f55	-0.37316385
46	0xbeacd176	-0.33753556
47	0xbeec77a4	-0.4618503
48	0xbea5da79	-0.32393244
49	0xbe94c935	-0.2905976
50	0xbe8adba9	-0.27120712
