data/Agent2_Critic_checkpoint_target.pth (torch_old, 185818 bytes, 7 tensors)

supports f4 [51]
0	0xbf333333	-0.7
1	0xbf2c0831	-0.672
2	0xbf24dd2f	-0.644
3	0xbf1db22d	-0.616
4	0xbf16872b	-0.588
5	0xbf0f5c29	-0.56
6	0xbf083127	-0.532
7	0xbf010625	-0.504
8	0xbef3b646	-0.476
9	0xbee56042	-0.448
10	0xbed70a3d	-0.42
11	0xbec8b439	-0.392
12	0xbeba5e35	-0.364
13	0xbeac0831	-0.336
14	0xbe9db22d	-0.308
15	0xbe8f5c29	-0.28
16	0xbe810625	-0.252
17	0xbe656042	-0.224
18	0xbe48b439	-0.196
19	0xbe2c0831	-0.168
20	0xbe0f5c29	-0.14
21	0xbde56042	-0.112
22	0xbdac0831	-0.084
23	0xbd656042	-0.056
24	0xbce56042	-0.028
25	0x00000000	0.0
26	0x3ce56042	0.028
27	0x3d656042	0.056
28	0x3dac0831	0.084
29	0x3de56042	0.112
30	0x3e0f5c29	0.14
31	0x3e2c0831	0.168
32	0x3e48b439	0.196
33	0x3e656042	0.224
34	0x3e810625	0.252
35	0x3e8f5c29	0.28
36	0x3e9db22d	0.308
37	0x3eac0831	0.336
38	0x3eba5e35	0.364
39	0x3ec8b439	0.392
40	0x3ed70a3d	0.42
41	0x3ee56042	0.448
42	0x3ef3b646	0.476
43	0x3f010625	0.504
44	0x3f083127	0.532
45	0x3f0f5c29	0.56
46	0x3f16872b	0.588
47	0x3f1db22d	0.616
48	0x3f24dd2f	0.644
49	0x3f2c0831	0.672
50	0x3f333333	0.7

fc1.weight f4 [256, 24]
0	0x3bfd63ee	0.00773286
1	0x3c2722f6	0.010201206
2	0xbc019022	-0.007907899
3	0xbcc9bef3	-0.024627184
4	0x3eb0b6d0	0.34514475
5	0xbbef73c1	-0.0073075
6	0x3c53d2f3	0.012928712
7	0xbc5af8e4	-0.013365004
8	0xbc8dd042	-0.01731122
9	0xbdab2975	-0.08357517
10	0xbd21bfeb	-0.039489668
11	0xbd029c29	-0.031887207
12	0xbd9f6590	-0.077830434
13	0x3d9c6f76	0.07638447
14	0x3cfe6e7a	0.031058539
15	0x3d0866ef	0.03330129
16	0xbc9be5ad	-0.019030416
17	0xbd36f6d6	-0.044668995
18	0x3a2d7754	0.00066172075
19	0x3d3486d8	0.04407391
20	0xbf142d1a	-0.5788132
21	0x3c602ae8	0.013682105
22	0x3a51eef2	0.0008008323
23	0xbd4f3302	-0.050585754
24	0xbcf5f060	-0.030021846
25	0x3cee8cc6	0.02911986
26	0x3b823e61	0.0039747213
27	0x3d526e49	0.051374707
28	0x3dc34d6b	0.09536251
29	0xbeb67fe4	-0.35644448
30	0x3b86c76e	0.0041131293
31	0xbc3bc7a3	-0.011461171
32	0xbe0335f9	-0.12813558
33	0x3d3f2165	0.046662707
34	0xbc4f8060	-0.012664884
35	0xbaddc171	-0.0016918612
36	0x3e532f2a	0.2062346
37	0xbe8662c9	-0.26247242
38	0x3cf249de	0.029576238
39	0xbd92d822	-0.0717013
40	0xbdb4fbfa	-0.08837123
41	0xbd7fb091	-0.062424246
42	0xbc4289f8	-0.011873715
43	0xbdacee54	-0.08443895
44	0x3e1d56ad	0.15365095
45	0x3e5c3715	0.21505387
46	0x3aafc790	0.0013410915
47	0xbd666081	-0.056244377
48	0xbd0533ce	-0.032520108
49	0x3e0a53e8	0.1350857
50	0xbc8c57e1	-0.017131748
51	0x3a96cdb6	0.0011505398
52	0xbd5e044a	-0.05420331
53	0x3e19c343	0.15015893
54	0x3ca5e03f	0.02024853
55	0x3d115535	0.03548165
56	0xbc14ebd5	-0.00908943
57	0x3e108e61	0.14116813
58	0x3c36d85c	0.0111599825
59	0xbcb8865b	-0.022525003
60	0xbc3d2cd8	-0.011546336
61	0xbe0f8a1e	-0.14017531
62	0xbc9fb7dc	-0.01949685
63	0xbd11d307	-0.035601642
64	0x3c46f960	0.012144417
65	0x3e7d6825	0.24746759
66	0xbabd2cee	-0.0014432946
67	0xbc6d75d5	-0.014493425
68	0x3c24ecb1	0.010066197
69	0xbf3a9b0a	-0.7289282
70	0xbc0eb367	-0.008709765
71	0x3c9a2029	0.018814163
72	0x3c6f10c2	0.014591398
73	0xbe47099e	-0.19437262
74	0x3b135602	0.0022481685
75	0xbda21ecf	-0.079160325
76	0xbeaefde1	-0.3417807
77	0xbe33330c	-0.17499942
78	0xbca3c480	-0.01999116
79	0xbd8e52c7	-0.06949382
80	0x3dacf1ab	0.08444532
81	0xbe424c1e	-0.18974349
82	0xbcfbc6c0	-0.03073442
83	0xbcab3d67	-0.020903302
84	0xbe7323ef	-0.23744176
85	0x3c3eac40	0.011637747
86	0x3c8801bc	0.01660239
87	0x3da21453	0.07914033
88	0x3d460db2	0.048352905
89	0xbe004672	-0.12526873
90	0xbcee3c3d	-0.029081458
91	0x3d6c276b	0.05765478
92	0xbc99e666	-0.01878662
93	0x3eca60bd	0.3952693
94	0x3cb3bce1	0.02194065
95	0x3d49cf29	0.04926983
96	0xbcbe98f1	-0.023266288
97	0xbd9af8dc	-0.075669974
98	0x3ccca57b	0.024981251
99	0xb884de95	-6.3357096e-05
100	0x3e82d359	0.2555187
101	0xbd79d582	-0.060994633
102	0xbce7e951	-0.028309496
103	0xbc5581bd	-0.01303142
104	0x3d0f40ea	0.034974016
105	0xbe3b9b0d	-0.18320866
106	0xbd0c3e6c	-0.034239218
107	0xbd1e65ea	-0.03867141
108	0xbdd8bf0e	-0.10583316
109	0x3cdae5c1	0.026720883
110	0x3d01009d	0.031494725
111	0xbca9c9c7	-0.020726098
112	0xbc21d9b2	-0.009878563
113	0xbe575f57	-0.21032463
114	0xbb3b71b0	-0.0028601699
115	0xbda4eec5	-0.08053354
116	0xbeff2463	-0.49832448
117	0x3dcfa9d6	0.101398155
118	0x3c371d5f	0.011176436
119	0xbcf8e47e	-0.030382391
120	0xbafb728e	-0.001918392
121	0x3e32089d	0.17386098
122	0xbcd77268	-0.02629967
123	0xbcf2d610	-0.029643089
124	0x3cb3a4e3	0.02192921
125	0x3d4fed49	0.050763402
126	0x3d1057f3	0.035240125
127	0x3ccfd133	0.025368309
128	0xbd09cfd0	-0.03364545
129	0x3e828fd1	0.25500348
130	0x3d4bb726	0.04973521
131	0x3d8659fb	0.06560131
132	0x3e213cf7	0.15745912
133	0x3dc504f4	0.09620085
134	0xbcb652e4	-0.022256322
135	0xbd20de57	-0.03927454
136	0xbd913248	-0.070896685
137	0x3e74fc7b	0.23924439
138	0x3bfd49e7	0.007729757
139	0x3c3bf9a7	0.011473096
140	0x3e9a6320	0.3015375
141	0x3eed0614	0.462937
142	0x3c1620a4	0.009163056
143	0xbcf4b222	-0.029870097
144	0x3df344d5	0.11878363
145	0x3d3332fa	0.043749787
146	0xbc187710	-0.00930573
147	0xbd045e72	-0.032316633
148	0x3d5a45ac	0.0532891
149	0x3d184a57	0.03718027
150	0xbc59606e	-0.01326762
151	0xbcfa4f6d	-0.030555451
152	0x3e0383b2	0.12843207
153	0x3d95e792	0.07319559
154	0x390b3758	0.0001327669
155	0xbd91ddd2	-0.07122387
156	0x3db66549	0.08906037
157	0xbe3b8832	-0.18313673
158	0x3d95ecce	0.073205575
159	0xbc873992	-0.016506944
160	0x3db1ec6e	0.086876735
161	0x3da048db	0.07826396
162	0xbd27e680	-0.040991306
163	0xbd249cdf	-0.040188666
164	0x3d342c57	0.0439876
165	0xbf1579f5	-0.58389217
166	0xbd7679df	-0.06017482
167	0x3d32ca1b	0.043649774
168	0x3cd8b6a1	0.026454272
169	0x3e99dab2	0.30049664
170	0x3d065911	0.032799784
171	0x3d0384e7	0.032109167
172	0xbc9a365c	-0.018824749
173	0xbd2aeb3f	-0.041728254
174	0xbc5ac948	-0.013353653
175	0x3d4386f9	0.04773614
176	0x3c07f47e	0.008298038
177	0x3ed96887	0.4246256
178	0xbd0cdb12	-0.03438861
179	0xbe0e66c7	-0.13906394
180	0xbdd9a4c2	-0.10627128
181	0xbe5df626	-0.2167593
182	0xbcb927cb	-0.022601983
183	0xbdc94d18	-0.098291576
184	0x3dba2c8e	0.090905294
185	0x3ecc097d	0.3985099
186	0x3d6a3ad5	0.057185013
187	0xbc2629ba	-0.010141784
188	0xbda5e82a	-0.081009224
189	0xbece4e72	-0.40294224
190	0xbc62dcb4	-0.013846565
191	0x3da74576	0.081675455
192	0xbd0938c1	-0.03350139
193	0xbc3bea35	-0.0114694135
194	0xbbd03edd	-0.00635515
195	0xbc68feb7	-0.014220885
196	0x3e87df79	0.26537684
197	0x3e05f948	0.13083375
198	0x3bc8a2fd	0.0061229453
199	0x3c81f25a	0.015862633
200	0x3cea9f7a	0.028640497
201	0xbd63af44	-0.05558707
202	0xbc97d9a2	-0.018536393
203	0x3d6617df	0.05617511
204	0xbda774bf	-0.081765644
205	0x3dd5d7d3	0.10441556
206	0x3c83ba08	0.016079918
207	0xbc1140ed	-0.008865577
208	0xbc2ce5b7	-0.010552815
209	0xbd163027	-0.036667015
210	0xbd23c8a3	-0.039986264
211	0xbd8b3438	-0.06797069
212	0xbf1e7665	-0.61899406
213	0xbde852a6	-0.11343889
214	0x3d27c877	0.040962663
215	0x3b92921e	0.004472985
216	0x3ba8b99d	0.00514908
217	0xbdf49e10	-0.119442105
218	0xbda736e9	-0.0816477
219	0x3d23853f	0.039921995
220	0x3aa1bb13	0.0012339078
221	0xbef65736	-0.48113412
222	0xbc85324c	-0.016259335
223	0x3daecfc5	0.08535723
224	0xbb1e9419	-0.002419716
225	0xbe31bca5	-0.17357118
226	0x3a24c0d4	0.0006284837
227	0x3dea67ba	0.114455655
228	0x3d6ff11b	0.058579545
229	0xbf038337	-0.5137209
230	0xba7ca298	-0.00096372655
231	0x3d373b8a	0.044734515
232	0x3c8c27ff	0.017108915
233	0xbe1db7d4	-0.15402156
234	0xbbf7c6de	-0.0075615486
235	0xbc836aba	-0.016042102
236	0x3e839f80	0.25707626
237	0x3de14039	0.109985776
238	0x3c84cb61	0.01621026
239	0x3b9f6c24	0.0048651863
240	0xbdc587cb	-0.09645041
241	0x3d70349d	0.058643926
242	0x3b378f25	0.0028008905
243	0x3d093ec6	0.03350713
244	0x3e499aea	0.19688001
245	0x3e86e01d	0.2634286
246	0x396ea60b	0.00022759305
247	0x3cf9bbda	0.030485082
248	0xbd43fbab	-0.04784743
249	0x3e0d91e7	0.13825189
250	0xbb69a6c6	-0.0035652383
251	0xbd03dfe6	-0.032195948
252	0x3df60d06	0.12014203
253	0xbd2d3145	-0.042283315
254	0x3b9ba1b8	0.004749503
255	0x3cbdb328	0.023156717

fc1.bias f4 [256]
0	0x3de48065	0.11157302
1	0x3e820905	0.25397506
2	0xbc497f84	-0.0122984685
3	0x3e0e126f	0.1387422
4	0xbe5456b3	-0.20736198
5	0x3d4b4e75	0.04963537
6	0x3d163786	0.036674045
7	0x3df751d4	0.12076154
8	0x3e6ce1db	0.23133032
9	0x3e867d2b	0.2626737
10	0x3e868b10	0.2627797
11	0xbea72035	-0.3264176
12	0x3da1d55c	0.07902023
13	0xbe8bc72e	-0.273004
14	0x3e419ad3	0.18906717
15	0xbe646988	-0.22305882
16	0xbeb5ecc2	-0.35532194
17	0xbe0f63a5	-0.14002855
18	0x3c97a9ef	0.018513648
19	0xbe870bc5	-0.26376167
20	0xbe698ec7	-0.22808371
21	0x3eab1af1	0.33418992
22	0xbdec39d9	-0.11534471
23	0x3e8ec320	0.27883244
24	0x3e929412	0.28628594
25	0x3e063aac	0.13108319
26	0xbe67aa73	-0.22623615
27	0xbd60ec6f	-0.05491298
28	0x3e2f23d5	0.17103513
29	0xbe14c49f	-0.1452813
30	0xbde3a8f7	-0.11116212
31	0x3e642215	0.22278626
32	0x3dcace03	0.09902575
33	0xbdc34d9b	-0.095362864
34	0xbe05707c	-0.1303119
35	0x3cecf4c7	0.028925313
36	0xbe8e0f69	-0.27746132
37	0x3e44e153	0.1922658
38	0xbe0d5896	-0.13803324
39	0xbed6a63a	-0.41923696
40	0xbdd47ad1	-0.10374988
41	0xbdbd0d71	-0.09231079
42	0x3dd5fef4	0.10449019
43	0xbe85bc14	-0.26120055
44	0xbe08f7b9	-0.13375749
45	0x3d37efa1	0.044906262
46	0x3dd7741d	0.10520194
47	0xbe7410bc	-0.23834509
48	0x3e1d05c6	0.15334234
49	0xbcb2ec0d	-0.021841073
50	0xbe190a4b	-0.14945333
51	0xbed064a0	-0.4070177
52	0x3d30e52f	0.043187317
53	0xbdea6baa	-0.114463165
54	0xbe3f8af6	-0.18705353
55	0xbcaa2c8a	-0.020773191
56	0x3d31c343	0.043399107
57	0xbd660fbb	-0.056167345
58	0x3d89b39e	0.067237124
59	0xbe48da34	-0.19614488
60	0xbe417d30	-0.18895411
61	0x3e95e359	0.29275015
62	0xbd8e5846	-0.069504306
63	0x3e88a9fe	0.26692194
64	0x3e418395	0.18897851
65	0xbe100433	-0.14064102
66	0xbeb23a2a	-0.3481
67	0x3d400ebe	0.04688906
68	0xbde7a1e3	-0.11310174
69	0xbdf2f737	-0.11863559
70	0xbde49aba	-0.11162324
71	0xbd3c9147	-0.046036985
72	0xbe6a7717	-0.22896992
73	0x3df72aaf	0.12068688
74	0xbebb270e	-0.36553234
75	0x3e2b5a61	0.16733696
76	0xbd2a77c1	-0.041618112
77	0xbd0a8cb4	-0.03382559
78	0x3eaaa019	0.3332527
79	0x3d42beb6	0.047545157
80	0xbe37b8de	-0.17941615
81	0xbe814571	-0.25248292
82	0xbe810342	-0.25197798
83	0xbec5451b	-0.38529286
84	0x3e5900ab	0.21191661
85	0xbe967d54	-0.29392493
86	0x3c9ed040	0.01938641
87	0xbe908bc5	-0.28231636
88	0xbdd9d3d8	-0.10636109
89	0xbd95fda3	-0.07323768
90	0x3ac36c3e	0.0014909578
91	0xbe1b2a4b	-0.15152852
92	0xbe8fb152	-0.28064972
93	0x3ede5ec1	0.43431666
94	0xbd97fc66	-0.07421188
95	0xbc5f2ea5	-0.013621961
96	0x3e306758	0.17226923
97	0x3dfeeee5	0.12447909
98	0xbd77c429	-0.060489807
99	0xbe2ed8b6	-0.17074856
100	0x3e09256e	0.13393185
101	0x3e991bdc	0.29904068
102	0xbeb4e4d4	-0.35330832
103	0x3dc6fbbb	0.097159825
104	0xbe54d7d9	-0.20785464
105	0x3aee257c	0.001816913
106	0x3e91dbd6	0.28488034
107	0x3d82f473	0.06394281
108	0xbe0dcce1	-0.13847686
109	0xbee6784f	-0.45013663
110	0xbdca01a7	-0.098635964
111	0xbe711bd3	-0.2354577
112	0x3d5bcc0a	0.053661384
113	0xbe05c915	-0.13064988
114	0x3e0d1a7c	0.13779634
115	0xbe5ad3c2	-0.21369842
116	0xbd3c0368	-0.045901686
117	0xbd1261b7	-0.03573772
118	0x3d086865	0.033302683
119	0x3e4dffd0	0.20117116
120	0x3e25b77e	0.16183278
121	0x3e7fcffe	0.24981686
122	0xbd6aedba	-0.05735562
123	0xbc8c8b34	-0.017156221
124	0x3e712044	0.23547465
125	0xbeaaa72d	-0.3333067
126	0x3ec3109d	0.38098612
127	0xbd5a2e91	-0.053267065
128	0x3e779ade	0.24180171
129	0x3c3644bd	0.011124787
130	0x3c0fd24a	0.008778164
131	0xbd1320b2	-0.035919853
132	0x3e46d95c	0.19418854
133	0x3d57a80c	0.052650496
134	0xbea77ca2	-0.32712275
135	0x3db457f2	0.08805837
136	0x3eaa2104	0.33228314
137	0x3dc75486	0.097329184
138	0x3eb0a1f7	0.3449857
139	0x3e6a62c7	0.22889243
140	0x3e63787e	0.22213933
141	0xbe3bc211	-0.18335749
142	0x3d1fe527	0.039036896
143	0x3daf3d2f	0.08556592
144	0x3c5620a1	0.013069303
145	0x3e12f632	0.14351729
146	0xbdbc7fc0	-0.09204054
147	0xbe463a87	-0.19358264
148	0xbbad3da0	-0.0052868873
149	0x3e5485ee	0.20754215
150	0x3e0b4b33	0.13602905
151	0xbde9a9e4	-0.11409357
152	0xbd8fec09	-0.07027442
153	0x3dcdf2cb	0.10056075
154	0x3e27c01f	0.16381882
155	0x3d65de87	0.05612042
156	0xbdcc03e3	-0.09961679
157	0x3eb9f910	0.36322832
158	0xbd6453e2	-0.05574406
159	0xbe394e6e	-0.18096325
160	0xbe10beba	-0.14135256
161	0xbebdbd64	-0.37058556
162	0xbd08699d	-0.033303846
163	0x3ebbcf4b	0.3668159
164	0x3db2b068	0.08725053
165	0xbeb9468a	-0.3618663
166	0xbd1331fc	-0.03593634
167	0x3c7c1936	0.01538687
168	0xbca2abb0	-0.019857258
169	0xbe75d7d3	-0.24008112
170	0x3de982a7	0.11401873
171	0xbd8f0093	-0.069825314
172	0xbe1a902f	-0.15094064
173	0xbd5d4a58	-0.054025978
174	0x3d454169	0.048158083
175	0xbe1b70e9	-0.1517979
176	0xbdc6f533	-0.09714737
177	0xbe0ab618	-0.13546026
178	0xbe0a220b	-0.13489549
179	0x3e1cf635	0.15328296
180	0x3c85bd2c	0.016325556
181	0x3d86c593	0.06580653
182	0x3e22d048	0.15899765
183	0xbe8881a3	-0.26661405
184	0xbe013d9f	-0.12621163
185	0x3d07f65d	0.033193935
186	0xbd5bed5a	-0.053693153
187	0x3e5f07f0	0.21780372
188	0x3e994ec5	0.2994291
189	0xbe1073c8	-0.14106667
190	0x3c185ccd	0.009299469
191	0x3e8f772e	0.28020614
192	0xbcdb40b9	-0.02676426
193	0xbdb84eb0	-0.089993834
194	0x3e045a74	0.1292513
195	0xbe9f4727	-0.31108972
196	0x3e38c1a8	0.18042624
197	0xbd82c266	-0.06384735
198	0xbef2fe96	-0.4745986
199	0x3e782320	0.24232149
200	0xbedb5aae	-0.4284262
201	0x3c9efdc0	0.019408107
202	0x3dd897e9	0.105758496
203	0xbde944ae	-0.11390053
204	0xbdf5858a	-0.11988361
205	0x3de0ffd3	0.109862946
206	0x3e74a256	0.23890051
207	0x3e71a4f2	0.23598078
208	0x3e974a44	0.29548848
209	0x3e17c84d	0.14822502
210	0x3e41bd8e	0.18919966
211	0x3ea31326	0.31850547
212	0xbe6287ac	-0.22122067
213	0xbde6f3f9	-0.11277003
214	0xbd97f182	-0.07419111
215	0xbd69819b	-0.057008367
216	0xbd6456d5	-0.055746872
217	0xbea86dc8	-0.32896256
218	0xbe193187	-0.149603
219	0x3df0317a	0.11728187
220	0x3dcc9fe2	0.09991433
221	0x3dd9d5db	0.10636493
222	0xbe2998a7	-0.16562138
223	0xbe827132	-0.25476986
224	0x3d832f14	0.06405464
225	0xbe0dcbc3	-0.1384726
226	0xbeab724d	-0.33485642
227	0x3ec601c3	0.3867322
228	0x3d08f44d	0.03343611
229	0x3d36a587	0.044591453
230	0x3d430e71	0.047621194
231	0xbd97454c	-0.07386264
232	0xbd5fdbf5	-0.054653127
233	0xbe006bbc	-0.12541097
234	0x3db7b0f2	0.089692965
235	0xbdc9b60e	-0.09849177
236	0xbe16ea22	-0.14737752
237	0x3daf8e14	0.08572021
238	0x3c4fa43b	0.012673433
239	0x3e3d3a29	0.18479218
240	0x3b20279a	0.0024437667
241	0x3ecc9124	0.39954484
242	0xbe89e0b5	-0.2692925
243	0xbe04e59c	-0.12978214
244	0x3ebb2ad8	0.36556125
245	0x3e684660	0.22683096
246	0xbda4dd0e	-0.08049975
247	0x3e0a24ac	0.13490552
248	0xbe33d866	-0.17563018
249	0x3e2d625f	0.16932057
250	0xbdf6de9c	-0.12054178
251	0x3e288b35	0.16459353
252	0x3e7b819c	0.24561161
253	0x3e3452ec	0.17609757
254	0xbd9a29ca	-0.07527502
255	0xbe0cc243	-0.1374598

fc2.weight f4 [128, 258]
0	0xbe67112f	-0.22565149
1	0xbb6c6d58	-0.0036075916
2	0xbbf75cfc	-0.0075489264
3	0x3e67b41b	0.22627299
4	0xbda46b47	-0.08028274
5	0xbdd1449d	-0.10218165
6	0x3cc28180	0.023743391
7	0x3cb0006c	0.021484576
8	0xbe083f87	-0.13305484
9	0x3e6ac4a9	0.22926582
10	0xbd8e16f4	-0.06937972
11	0x3d3c0a4d	0.04590826
12	0x3df2b683	0.118512176
13	0xbd57223f	-0.052522894
14	0xbe44f7a6	-0.19235095
15	0x3d30cb9c	0.043162927
16	0xbe3ef47b	-0.1864795
17	0xbd39ecd9	-0.04539189
18	0xbe0e9c88	-0.139269
19	0xbbf6a773	-0.0075272857
20	0xbdeaa9a4	-0.11458138
21	0x3d3522ca	0.04422263
22	0xbace7ad8	-0.0015753163
23	0xbd1b83b9	-0.037967417
24	0x3ea0c313	0.3139883
25	0xbd3b40d9	-0.04571614
26	0xbd26350f	-0.040577944
27	0xbdc75c88	-0.09734446
28	0xbe26ce06	-0.16289529
29	0x3c31bdce	0.010848476
30	0xbcee2e39	-0.029074775
31	0x3d4d48b7	0.050118174
32	0xbeac9db6	-0.33714074
33	0xbc8b3a4e	-0.016995575
34	0xbe69c4c3	-0.22828965
35	0xbe602e76	-0.21892723
36	0xbdfa3c31	-0.12218512
37	0x3d724523	0.059147965
38	0xbe99cf1e	-0.3004083
39	0xbdd30f43	-0.10305645
40	0xbec1beab	-0.3784078
41	0xbe10f000	-0.14154053
42	0xbdd912cb	-0.105992876
43	0xbd3fa503	-0.046788227
44	0x3d4eb3da	0.05046449
45	0xbdd53e53	-0.10412278
46	0x3d037b40	0.032099962
47	0xbd631f72	-0.05544991
48	0x3cc1c90a	0.023655433
49	0xbe336362	-0.1751838
50	0xbc6e127c	-0.014530774
51	0xbddd0f09	-0.10793883
52	0xbb5ef723	-0.0034021817
53	0xbe36bf78	-0.17846477
54	0xbdfbf4e6	-0.1230257
55	0x3d8c82dd	0.06860898
56	0x3dab1202	0.08353044
57	0xbe121256	-0.14264807
58	0xbdef7e2c	-0.11693987
59	0xbe3563f2	-0.17713907
60	0x3a39a1a5	0.0007081277
61	0x3de3f7d6	0.11131255
62	0x3e6a04bb	0.22853367
63	0xbd290345	-0.041262884
64	0x3e11ae75	0.14226706
65	0xbe1ffc5c	-0.15623611
66	0xbe08a6f3	-0.13344936
67	0xbe35a786	-0.17739686
68	0x3cd40951	0.025883349
69	0xbe9c5496	-0.30533284
70	0xbd991d63	-0.07476308
71	0x3c25abf2	0.010111796
72	0xbdccde56	-0.10003345
73	0xbdacceaa	-0.084378555
74	0x3dc0f20c	0.09421167
75	0x3e1758e3	0.14780001
76	0x3de434d4	0.11142889
77	0xbd3a0f78	-0.04542491
78	0x3de75bdf	0.1129682
79	0x3cd5ffeb	0.026123008
80	0xbe1849b8	-0.14871871
81	0x3d05d6b8	0.032675475
82	0xbe1288db	-0.14310019
83	0xbe49d557	-0.19710289
84	0xbe4b5326	-0.19855937
85	0xbc1c8799	-0.009553813
86	0xbe1a8455	-0.15089543
87	0xbe7e2b14	-0.2482112
88	0xbc75a1ec	-0.014992218
89	0x3d7ca5bf	0.061681505
90	0xbd647ba8	-0.05578199
91	0xbe38198a	-0.17978492
92	0xbda15872	-0.07878198
93	0xbe621cec	-0.22081345
94	0xbd3a96db	-0.045554023
95	0xbd8578bf	-0.06517171
96	0x3ddd3289	0.108006544
97	0x3cd001e1	0.025391521
98	0xbe1a9a0d	-0.15097828
99	0xbe895c31	-0.2682815
100	0x3d2f6199	0.042817686
101	0x3e56329e	0.20917746
102	0xbd8b78ae	-0.06810127
103	0x3d8caf00	0.06869316
104	0xbe53d564	-0.20686871
105	0x3e2ad9a9	0.16684593
106	0x3e261c63	0.16221766
107	0xbd5a133f	-0.05324101
108	0xbe1eb799	-0.15499724
109	0xbedcf834	-0.43158114
110	0x3cccff05	0.025023947
111	0xbdee7a2f	-0.116443984
112	0x3afe30a4	0.0019393158
113	0x3d139125	0.036027092
114	0xbe08d62b	-0.13362949
115	0xbdf5e5b6	-0.120067045
116	0x3d99b98f	0.075060956
117	0xbdb31cf6	-0.08745758
118	0xbbf826c4	-0.0075729806
119	0xbd89c279	-0.06726546
120	0xbe322c84	-0.17399794
121	0xbe88d1c4	-0.26722538
122	0xbcf6e52b	-0.030138573
123	0xbdad125c	-0.084507674
124	0xbea59b83	-0.3234521
125	0x3db9908b	0.090607725
126	0xbe6b8262	-0.22998956
127	0xbe56d704	-0.2098046
128	0x3a67d9bf	0.00088443974
129	0xbd722c59	-0.059124324
130	0x3db6845c	0.08911964
131	0x3d94571b	0.072431765
132	0x3bdde83f	0.0067720707
133	0xbdbbc36e	-0.09168135
134	0x3da91713	0.08256354
135	0xbe2394c1	-0.15974714
136	0x3ddc0586	0.10743241
137	0x3d08a2c9	0.03335837
138	0x3e4e6970	0.20157409
139	0xbd665611	-0.056234423
140	0xbe11f872	-0.1425493
141	0xbd64c238	-0.055849284
142	0xbc9c7b25	-0.019101689
143	0xbcc08c03	-0.023504263
144	0x3d02b34a	0.031909265
145	0x3d9cb412	0.07651533
146	0x3df20af5	0.11818496
147	0xbe1fc178	-0.15601146
148	0x3e6dec87	0.2323476
149	0x3d8ae1e8	0.067813694
150	0xbe1a9e3c	-0.15099424
151	0xbe7f8046	-0.24951276
152	0x3d2eda6e	0.04268878
153	0xbe2059c6	-0.15659246
154	0xbe30ca7b	-0.1726474
155	0xbd767e94	-0.060179308
156	0xbda007db	-0.07813998
157	0x3ddf9332	0.10916747
158	0x3cf5ef87	0.030021442
159	0xbdd85831	-0.10563696
160	0xbea9c673	-0.33159217
161	0xbdee4205	-0.11633686
162	0xbd552e70	-0.05204624
163	0xbcead649	-0.028666632
164	0xbe363510	-0.17793679
165	0xbd0e8e94	-0.03480394
166	0xbd742cfd	-0.059613217
167	0xbda98acc	-0.082784265
168	0x3a6bd33c	0.0008996015
169	0x3e3b2103	0.18274312
170	0x3e2aee7e	0.1669254
171	0x3e20261c	0.15639538
172	0x3cc73d83	0.024321323
173	0x3d7d321b	0.061815362
174	0x3e1fa1d3	0.15589075
175	0x3cc79ecc	0.024367712
176	0xbe54d760	-0.20785284
177	0xbbc2a7b3	-0.0059404015
178	0x3d23e524	0.040013447
179	0x3d61585a	0.0550159
180	0xbdb8e75f	-0.090285055
181	0x3dc065df	0.0939443
182	0x3d173bb5	0.036922175
183	0x3ac26eb4	0.0014834017
184	0xbe49d78f	-0.19711135
185	0xbd5abb4a	-0.05340127
186	0xbd48889b	-0.048958402
187	0x3d6e5efa	0.058196045
188	0x3dc72ef7	0.09725755
189	0xbcb02cd3	-0.021505749
190	0xbc334581	-0.010941864
191	0xbe848ca7	-0.2588856
192	0x3de4f1e8	0.111789525
193	0xbdffbb17	-0.124868564
194	0x3e246ebe	0.1605787
195	0x3c9c116b	0.019051274
196	0xbe0f7b9d	-0.14011998
197	0x3e04d75a	0.12972775
198	0xbe3d9235	-0.18512805
199	0x3e161383	0.1465588
200	0xbe4bd434	-0.19905168
201	0x3e07750b	0.13228242
202	0x3ddf784a	0.10911615
203	0x3ddfda27	0.10930281
204	0xbd06aba0	-0.032878518
205	0xbd9a1eab	-0.07525381
206	0xbe6f5e45	-0.23375805
207	0xbc77ac39	-0.015116745
208	0x3e06ef71	0.13177277
209	0x3e0f305e	0.13983294
210	0x3d792ef7	0.060835805
211	0x3e3a931d	0.18220182
212	0xbe3bf7f5	-0.18356307
213	0xbdbff89b	-0.093735896
214	0x3db23b87	0.0870276
215	0x3e24f9dc	0.16110939
216	0xbdfa803b	-0.12231489
217	0x3d9b1d98	0.07574004
218	0x3d3b4f19	0.04572973
219	0x3d5cfd4e	0.053952508
220	0xbb1a08af	-0.002350371
221	0xbdd35fcf	-0.103210084
222	0x3e1c149c	0.15242237
223	0x3db67272	0.089085475
224	0xbd8130d0	-0.06308138
225	0xbd5dda0d	-0.054163028
226	0x3d95125f	0.07278895
227	0x3e3eb72a	0.18624559
228	0x3d66b45b	0.056324344
229	0x3c5a2cc6	0.013316339
230	0x3d696784	0.056983486
231	0xbd8c2c98	-0.06844443
232	0xbdb7e3b4	-0.08978978
233	0xbe9c89f7	-0.3057401
234	0x3e43cd88	0.19121373
235	0x3b3d20da	0.0028858692
236	0xbcb08d19	-0.021551656
237	0x3b30ee93	0.002699767
238	0xbe246803	-0.16055302
239	0xba1101d0	-0.0005531581
240	0xbe1726ef	-0.14760946
241	0x3e6f2063	0.23352198
242	0xbcb9b23d	-0.022667998
243	0xbd543aee	-0.051814012
244	0xbd218dc1	-0.039441828
245	0xbe4875f4	-0.19576246
246	0x3d0b1a62	0.033960707
247	0x3e0fc506	0.14040002
248	0xbdc8a2db	-0.09796687
249	0x3e060de7	0.13091241
250	0xbdc2a62c	-0.09504351
251	0xbd239b21	-0.039942864
252	0x3d6b560d	0.05745511
253	0x3d5199a8	0.05117193
254	0xbe33fa41	-0.17575933
255	0xbe071178	-0.13190258

fc2.bias f4 [128]
0	0x3e85b37d	0.261135
1	0xbe384db1	-0.17998387
2	0x3d13fbdb	0.03612886
3	0x3d03a23e	0.032137148
4	0xbd43c062	-0.047790892
5	0x3dd80638	0.10548061
6	0xbcf06de5	-0.029349277
7	0xbd96ab5d	-0.07356904
8	0xbc78e2f5	-0.0151908295
9	0xbc61554e	-0.013753248
10	0xbdad52bb	-0.08463045
11	0xbb8b8424	-0.0042576957
12	0xbdfd5e05	-0.123714484
13	0xbc3fe0e7	-0.011711336
14	0xbe70f965	-0.23532636
15	0xbe95df76	-0.2927205
16	0x3b536f79	0.0032262488
17	0xbe5dd0e0	-0.2166171
18	0xbd88cc1f	-0.06679558
19	0xbd90ce31	-0.07070578
20	0xbe1135c7	-0.1418067
21	0xbdb043be	-0.08606671
22	0x3e1d9f1f	0.15392731
23	0x3d93e31c	0.07221052
24	0xbd41ab8f	-0.04728275
25	0x3d77db58	0.060511917
26	0xbd926e03	-0.07149889
27	0x3e20ff42	0.15722373
28	0x3d4cc8ee	0.04999631
29	0x3e1a5a59	0.15073527
30	0xbdeebd1a	-0.11657162
31	0x3df2b92e	0.118517265
32	0x3deafb8b	0.11473759
33	0xbe2095e0	-0.15682173
34	0xbddec951	-0.10878242
35	0x3ef80c79	0.48447016
36	0xbd7834f3	-0.06059737
37	0xbe8f7c3d	-0.28024474
38	0x3dc998f8	0.098436296
39	0x3e05c0f6	0.1306189
40	0xbe7fcf54	-0.24981433
41	0x3eca90c0	0.3956356
42	0x3e247cf6	0.16063294
43	0xbe09f68c	-0.13472956
44	0xbd9267c0	-0.07148695
45	0x3e3da6af	0.18520616
46	0x3dfbb7a0	0.12290883
47	0xbed8d6cf	-0.42351386
48	0x3cab46f2	0.020907853
49	0xbe448e9f	-0.1919503
50	0xbe3d844d	-0.185075
51	0x3ea9e91a	0.33185655
52	0x3da04da0	0.07827306
53	0x3cbc0737	0.022952659
54	0x3d1a1f0d	0.03762727
55	0x3c913ae1	0.017728271
56	0xbe88626d	-0.26637593
57	0x3c85bb5e	0.016324695
58	0xbd323b5c	-0.04351364
59	0x3e074675	0.13210471
60	0xbe8a9f0c	-0.27074468
61	0xbc277871	-0.010221587
62	0x3e21eb3f	0.15812396
63	0xbe2f9adf	-0.17148922
64	0xbeadf6d2	-0.3397737
65	0xbd2f977b	-0.042869072
66	0x3d286623	0.04111303
67	0xbd1a4d2c	-0.037671253
68	0x3d955b49	0.07292802
69	0xbce345be	-0.027743217
70	0xbd8db09b	-0.069184504
71	0x3e13f534	0.14449006
72	0xbbf34e65	-0.007425117
73	0xbe6e06c0	-0.23244762
74	0x3d7036a4	0.05864586
75	0x3d60c76c	0.054877684
76	0x3d836971	0.06416596
77	0x3ca2e0e8	0.019882634
78	0xbd9f1f33	-0.07769623
79	0xbd26afc6	-0.040694974
80	0x3d0474e3	0.032338034
81	0xbe3af72e	-0.18258354
82	0xbd80e319	-0.062933154
83	0xbd3cfa5d	-0.046137203
84	0xbc89afdd	-0.016807491
85	0xbe29ba4b	-0.16574971
86	0xbe10b711	-0.14132334
87	0xbd55d1c5	-0.052202005
88	0x3cf1da48	0.02952303
89	0xbcb309c0	-0.021855235
90	0x3e341a0b	0.1758806
91	0x3e4aecd2	0.19816902
92	0xbda96fa6	-0.082732484
93	0x3c8b82a4	0.017030068
94	0xbe62e57f	-0.22157858
95	0xbd92cb70	-0.07167709
96	0xbd513e3f	-0.051084753
97	0x3bbbd171	0.0057317545
98	0xbd38871e	-0.045050733
99	0x3dab4c33	0.08364143
100	0xbdd18ec0	-0.102323055
101	0x3d7be876	0.06150099
102	0x3dbf9564	0.09354666
103	0x3e8f3840	0.27972603
104	0x3d9b771d	0.075910784
105	0xbe7a9301	-0.2447014
106	0x3dd35664	0.10319212
107	0x3c5de73e	0.013543902
108	0x3cbebdab	0.0232838
109	0xbe562f94	-0.20916587
110	0x3c58352f	0.013196274
111	0x3c706f9e	0.014675049
112	0x3e9bcba2	0.30428797
113	0xbd8523c8	-0.06500965
114	0x3d8d79dc	0.069080085
115	0xbdc9466e	-0.098278865
116	0xbc7e2f19	-0.015514159
117	0x3e334221	0.17505695
118	0xbccd64bc	-0.025072448
119	0xbe2443b4	-0.16041452
120	0xbcf0bcce	-0.029386904
121	0x3d9c18bc	0.07621905
122	0x3d9bdcd9	0.07610483
123	0xbe1d0e5d	-0.1533751
124	0xbd09b0aa	-0.033615746
125	0x3cf896fd	0.030345434
126	0xbd15c39d	-0.036563504
127	0xbd758a4e	-0.05994635

fc3.weight f4 [51, 128]
0	0xbda3a744	-0.07990888
1	0xbd9285ac	-0.07154402
2	0xbdc09778	-0.0940389
3	0xbdff68ab	-0.12471136
4	0xbe920305	-0.2851793
5	0xbe146163	-0.14490275
6	0x3e5cda47	0.21567641
7	0xbdb7f97e	-0.08983134
8	0xbed2ea97	-0.41194603
9	0x3e049d05	0.12950523
10	0xbd238d35	-0.039929587
11	0xbd9a9f81	-0.07549954
12	0xbd348845	-0.04407527
13	0xbdce7871	-0.10081566
14	0xbd487ec7	-0.04894903
15	0xbcd9c83f	-0.026584743
16	0xbeaa28c9	-0.33234242
17	0xbd5e47c9	-0.05426768
18	0xbe94f760	-0.29094982
19	0xbd0897ff	-0.03334808
20	0xbd73ee61	-0.059553508
21	0xbd1b8d19	-0.037976358
22	0xbe5f8aab	-0.21830241
23	0xbde6e6d9	-0.112744994
24	0xbd4376c1	-0.047720674
25	0xbf1d29ec	-0.6139209
26	0xbe003cd0	-0.12523198
27	0xbe25e963	-0.16202311
28	0xbe6ae775	-0.22939856
29	0x3e032673	0.12807636
30	0xbf0e05a8	-0.5547738
31	0xbe5b79ad	-0.21433134
32	0xbe13e708	-0.144436
33	0xbd939bfe	-0.072074875
34	0xbf19ca57	-0.6007437
35	0xbf692e3b	-0.9108617
36	0xbcddc602	-0.027071957
37	0xbd68d3c3	-0.056842577
38	0xbb85b9ea	-0.0040810006
39	0xbea6b17d	-0.32557288
40	0xbe087b4f	-0.13328288
41	0xbf642c93	-0.89130515
42	0xbea13567	-0.31486055
43	0xbcd1c401	-0.025606157
44	0xbc10c2c5	-0.008835499
45	0x3e3c0ddd	0.18364663
46	0xbe69351c	-0.22774166
47	0xbd842dbd	-0.064540364
48	0xbc9be0c9	-0.019028084
49	0xbe18515a	-0.14874783
50	0x3da4ab39	0.08040471
51	0xbf22c7d0	-0.6358614
52	0x3e0a13a9	0.13484062
53	0xbf836481	-1.0265046
54	0x3e3c9af0	0.18418479
55	0xbe60f4f5	-0.21968444
56	0xbe871f2c	-0.2639097
57	0xbecdb94e	-0.4018044
58	0x3ddd351c	0.108011454
59	0xbcc7bed7	-0.024382992
60	0xbdc9b2e6	-0.09848575
61	0xbb8ab34e	-0.0042328006
62	0xbc09fcb9	-0.00842207
63	0xbe013bf8	-0.12620533
64	0xbded650e	-0.1159154
65	0x3e5a7948	0.21335328
66	0xbf48e586	-0.78475225
67	0xbdb59866	-0.08866958
68	0xbed53f33	-0.4164978
69	0xbef08497	-0.46976158
70	0xbea47b6c	-0.32125413
71	0xbef2fbf9	-0.47457865
72	0xbe020c1b	-0.1269993
73	0xbeafd170	-0.34339476
74	0x3e086edc	0.1332354
75	0xbeb9ccf8	-0.3628919
76	0x3de3ceaa	0.111234024
77	0xbe0af7ab	-0.1357104
78	0xbd0f0b8f	-0.034923133
79	0xbdfd73ea	-0.123756245
80	0xbdb6fd36	-0.08935015
81	0xbe2c89f6	-0.16849503
82	0xbeaff364	-0.3436538
83	0xbd0a2508	-0.033726722
84	0x3e07b9c1	0.13254453
85	0xbe84782d	-0.25872937
86	0xbdad81c9	-0.0847202
87	0xbdebdbce	-0.11516534
88	0x3de8e4db	0.11371776
89	0xbd2bd552	-0.041951485
90	0xbe65f950	-0.22458386
91	0xbf0b417a	-0.54396784
92	0x3dd7f033	0.10543861
93	0xbd3fbe2a	-0.046812214
94	0xbdbd1e6a	-0.09234317
95	0x3e1eceaa	0.15508524
96	0xbd358984	-0.0443206
97	0xbd997546	-0.07493071
98	0xbe0744d3	-0.13209848
99	0x3e8ad0cc	0.27112424
100	0x3e1bc19b	0.15210573
101	0xbe664436	-0.22486958
102	0xbea36fc2	-0.31921202
103	0xbe3691fc	-0.17829126
104	0xbd8ed40e	-0.0697404
105	0xbdd841e0	-0.1055944
106	0xbc3ce399	-0.011528873
107	0xbe6c1daa	-0.23058191
108	0xbd3146cf	-0.04328042
109	0xbd953879	-0.07286162
110	0xbd06d79d	-0.03292047
111	0x3e47a7b4	0.19497567
112	0xbe34b872	-0.17648485
113	0x3e06ede9	0.13176693
114	0xbe6e36d2	-0.232631
115	0xbd732955	-0.05936559
116	0x3e26e030	0.16296458
117	0xbe84da33	-0.25947723
118	0xbcd33804	-0.025783546
119	0xbdb7200d	-0.0894166
120	0xbdb0e313	-0.08637061
121	0xbe93d0fc	-0.2887038
122	0xbe1cdac0	-0.15317822
123	0xbe9c19fe	-0.3048858
124	0xbf48276d	-0.7818516
125	0xbe0372a0	-0.12836695
126	0xbf84b945	-1.036904
127	0xbd52ca46	-0.051462434
128	0xbdae3feb	-0.08508285
129	0xbd96b55a	-0.07358809
130	0xbdc10d74	-0.09426394
131	0xbdfe2add	-0.12410519
132	0xbe90fcea	-0.28317958
133	0xbe12f90a	-0.14352813
134	0x3e5eedd3	0.2177041
135	0xbdb517da	-0.0884244
136	0xbed0ba82	-0.40767294
137	0x3e067c25	0.13133295
138	0xbd102b7d	-0.035197724
139	0xbd99d1c5	-0.075107135
140	0xbd32586e	-0.043541364
141	0xbdd12e48	-0.102139056
142	0xbd5139d8	-0.051080555
143	0xbcc6322f	-0.024193851
144	0xbeabc760	-0.3355055
145	0xbd6458b9	-0.055748675
146	0xbe94dd2a	-0.29074985
147	0xbd00e1b8	-0.031465262
148	0xbd78cde7	-0.06074324
149	0xbd284340	-0.04107976
150	0xbe5d5926	-0.21616039
151	0xbde7cc0b	-0.11318215
152	0xbd3d75a9	-0.046254788
153	0xbf1dd88c	-0.6165855
154	0xbdfdce4c	-0.12392864
155	0xbe25851c	-0.16164058
156	0xbe689d22	-0.22716191
157	0x3e0542ab	0.13013713
158	0xbf0f2ada	-0.5592476
159	0xbe59d9c8	-0.21274483
160	0xbe123e14	-0.14281493
161	0xbd95882c	-0.07301363
162	0xbf19c9cf	-0.6007356
163	0xbf691482	-0.9104692
164	0xbcdab0eb	-0.02669569
165	0xbd6bba53	-0.05755074
166	0xbb7e329b	-0.0038787487
167	0xbea6804f	-0.32519767
168	0xbe0a1f62	-0.13488534
169	0xbf6434ab	-0.89142865
170	0xbea04985	-0.3130609
171	0xbcc50d98	-0.024054334
172	0xbc256479	-0.010094755
173	0x3e3c46f2	0.18386438
174	0xbe6a0f93	-0.22857504
175	0xbd8341d8	-0.06409043
176	0xbcc1fa85	-0.023679027
177	0xbe17c39e	-0.14820716
178	0x3da24394	0.07923046
179	0xbf230d63	-0.636923
180	0x3e0b1acb	0.1358444
181	0xbf83b1cf	-1.0288638
182	0x3e3d1319	0.18464316
183	0xbe609a57	-0.21933876
184	0xbe874543	-0.2642003
185	0xbecdca48	-0.4019339
186	0x3ddb4eb9	0.107083745
187	0xbcbcf8a8	-0.023067787
188	0xbdcbd6ad	-0.099530555
189	0xbacc6dcb	-0.0015596686
190	0xbc24a40b	-0.0100488765
191	0xbe048339	-0.12940682
192	0xbde71fa8	-0.11285335
193	0x3e5b5351	0.21418501
194	0xbf48d49c	-0.78449416
195	0xbdb5b032	-0.08871497
196	0xbed4e5f3	-0.41581687
197	0xbef10529	-0.4707425
198	0xbea56e2e	-0.32310623
199	0xbef2fcdc	-0.4745854
200	0xbe02e6f7	-0.12783419
201	0xbeb0726f	-0.34462306
202	0x3e09b803	0.13449101
203	0xbebb314f	-0.36561057
204	0x3de90d0e	0.11379443
205	0xbe0b4d57	-0.13603722
206	0xbd0fc76c	-0.035102293
207	0xbdfadc02	-0.122489944
208	0xbdbe6c6c	-0.092980236
209	0xbe2f60be	-0.17126748
210	0xbeb0461e	-0.34428495
211	0xbd027273	-0.03184743
212	0x3e058277	0.1303805
213	0xbe8526a0	-0.2600603
214	0xbdafa11c	-0.08575651
215	0xbde2e3fd	-0.110786416
216	0x3de99337	0.11405032
217	0xbd3651fe	-0.044511788
218	0xbe646f08	-0.2230798
219	0xbf0c9e1c	-0.54928756
220	0x3de352b7	0.11099761
221	0xbd4bc0a8	-0.04974428
222	0xbdbab5aa	-0.09116681
223	0x3e20f89f	0.15719841
224	0xbd32e435	-0.043674666
225	0xbda02dca	-0.078212336
226	0xbe08809f	-0.13330315
227	0x3e8853bb	0.2662638
228	0x3e1ce1ae	0.15320465
229	0xbe68bd2b	-0.22728412
230	0xbea3a5e1	-0.31962493
231	0xbe35f585	-0.1776944
232	0xbd876fea	-0.06613143
233	0xbdd9e833	-0.106399916
234	0xbc29ec55	-0.010371287
235	0xbe6866b2	-0.22695425
236	0xbd2c0b75	-0.042003114
237	0xbd8f0f4e	-0.06985341
238	0xbd09ac5c	-0.03361164
239	0x3e4979d5	0.19675381
240	0xbe32c4f5	-0.17457946
241	0x3e090451	0.13380553
242	0xbe6e9610	-0.23299432
243	0xbd60a04b	-0.054840367
244	0x3e2d6dc1	0.16936399
245	0xbe85ab63	-0.2610732
246	0xbce91ffb	-0.028457632
247	0xbdb40d31	-0.087915786
248	0xbdaae254	-0.0834395
249	0xbe93e512	-0.28885704
250	0xbe1d9cf8	-0.1539191
251	0xbe9dc5de	-0.30815023
252	0xbf483267	-0.7820191
253	0xbe04f517	-0.1298412
254	0xbf84de02	-1.0380251
255	0xbd5282a3	-0.051394116

fc3.bias f4 [51]
0	0xbe4d2efc	-0.20037454
1	0xbe3d5377	-0.1848887
2	0xbe1dda82	-0.15415385
3	0xbef35fe2	-0.4753409
4	0xbef7fa30	-0.48433065
5	0xbf004717	-0.50108474
6	0xbeebb47f	-0.46036145
7	0xbf0b88ac	-0.5450542
8	0xbf042c0c	-0.5162971
9	0xbef92411	-0.4866033
10	0xbf0255cf	-0.50912184
11	0xbf0c7ffc	-0.5488279
12	0xbf1133eb	-0.56719846
13	0xbf1c653f	-0.6109199
14	0xbf20e371	-0.6284705
15	0xbf24125a	-0.640905
16	0xbf2a4a78	-0.6651988
17	0xbf20112c	-0.625262
18	0xbf25205c	-0.645025
19	0xbf35d295	-0.7102445
20	0xbf460144	-0.7734568
21	0xbf47dcbb	-0.7807118
22	0xbf44cf9f	-0.76879305
23	0xbf15eed8	-0.5856757
24	0xbeb5cfce	-0.35510105
25	0x3e593778	0.21212566
26	0x3c88d20f	0.016701726
27	0x3d99cab8	0.07509369
28	0x3de71445	0.11283163
29	0x3dc4a90b	0.09602555
30	0x3d709e84	0.058744922
31	0x3db9c8f7	0.09071534
32	0x3e33f0b8	0.17572296
33	0x3e7e38e2	0.24826387
34	0x3e292961	0.16519691
35	0x3e2b7627	0.1674429
36	0x3e0c7cbe	0.1371946
37	0x3d5bb0b0	0.0536353
38	0xbc9ac0e7	-0.018890811
39	0xbcaed231	-0.021340461
40	0xbd727982	-0.05919791
41	0xbe133a79	-0.14377774
42	0xbe27f9f9	-0.16403951
43	0xbe528546	-0.20558652
44	0xbe7feb93	-0.24992208
45	0xbeb42c74	-0.35190165
46	0xbeae9a7f	-0.34102246
47	0xbf00ef53	-0.5036518
48	0xbecde957	-0.40217087
49	0xbeb1b829	-0.34710816
50	0xbe9a6021	-0.30151466
