data/Agent1_Critic_checkpoint_latest.pth (torch_old, 185818 bytes, 7 tensors)

supports f4 [51]
00000000: 3333 33bf 3108 2cbf 2fdd 24bf 2db2 1dbf
00000010: 2b87 16bf 295c 0fbf 2731 08bf 2506 01bf
00000020: 46b6 f3be 4260 e5be 3d0a d7be 39b4 c8be
00000030: 355e babe 3108 acbe 2db2 9dbe 295c 8fbe
00000040: 2506 81be 4260 65be 39b4 48be 3108 2cbe
00000050: 295c 0fbe 4260 e5bd 3108 acbd 4260 65bd
00000060: 4260 e5bc 0000 0000 4260 e53c 4260 653d
00000070: 3108 ac3d 4260 e53d 295c 0f3e 3108 2c3e
00000080: 39b4 483e 4260 653e 2506 813e 295c 8f3e
00000090: 2db2 9d3e 3108 ac3e 355e ba3e 39b4 c83e
000000a0: 3d0a d73e 4260 e53e 46b6 f33e 2506 013f
000000b0: 2731 083f 295c 0f3f 2b87 163f 2db2 1d3f
000000c0: 2fdd 243f 3108 2c3f 3333 333f
-0.7 -0.672 -0.644 -0.616 -0.588 -0.56 -0.532 -0.504
-0.476 -0.448 -0.42 -0.392 -0.364 -0.336 -0.308 -0.28
-0.252 -0.224 -0.196 -0.168 -0.14 -0.112 -0.084 -0.056
-0.028 0.0 0.028 0.056 0.084 0.112 0.14 0.168
0.196 0.224 0.252 0.28 0.308 0.336 0.364 0.392
0.42 0.448 0.476 0.504 0.532 0.56 0.588 0.616
0.644 0.672 0.7

fc1.weight f4 [256, 24]
00000000: b1cd 693c 134e ed3c a058 10bc 8f6f 6f3b
00000010: 2be2 cd3e 1a98 833b 2c0a 453c 0b61 743c
00000020: 29ca febb 826a 6cbd 469b 09bd de3c 11bd
00000030: 3b02 f6bd 0c58 bf3d e05b 173d d48b f33c
00000040: d738 e8bc 4fa1 11bd b4ff fe38 2601 363d
00000050: 0b30 48bf 8661 923c 7daf 8839 b2b8 4dbd
00000060: 548a fd3d 3b8d 5c3c 6326 d0bc 787a 623d
00000070: ecb2 c8bb b219 acbe 2704 cfbc 6d34 f7bb
00000080: 3238 373d 7cc3 e63c 262c b4bc bc2f de3d
00000090: f7d5 253e 9bbd 0abe 4cde a53c d99c 1d3d
000000a0: d365 983d 61cc 94bd ea6c f1bb 8627 7abd
000000b0: 133e 543e 1e57 a63e fb99 bf3b 70ab 06bd
000000c0: 59df 9bbc 74de 673e 1020 8abc 9495 c23d
000000d0: 0fd5 cbbd 8658 ca3e 0518 a83c 7972 043e
000000e0: 6d6a 803c fc64 a63e f084 3d3c 5ecf 8ebd
000000f0: f1da 81bc 9005 eb3d 4861 9cbc 3297 a9bd
00000100: e5d8 3c3d a839 d43e 2c9a d43b 75e5 22bd
00000110: 232f d13d a57f f1be f40b 4cba 6cbe d3bb
00000120: a35c 973d 26e5 a4bd bdef 3b3d 997a 3cbe
00000130: 6fa1 69be f1d3 45be acb0 c13c 9994 32be
00000140: aa08 f73d 08c1 9abd 62de 26bd f6c2 8cbd
00000150: 0625 18be 9411 b9bd 0f2c d83b 3142 003d
00000160: 5280 a73d ac4a 97bc 2d44 00bd 914e 103d
00000170: 51de 593d 6d8c 7c3e 1771 a13c 43ed db3c
00000180: 870d 983d adc4 abbc 0944 b33c c244 263d
00000190: 7353 b7bd c635 31be 96a5 00bd 884d e23c
000001a0: a7f5 293e 0fca 9dbd 7588 92bc 0fae 7e3d
000001b0: bc49 5fbe 6252 fbbd ccfa 433d 9417 a43d
000001c0: 50b0 393e ae47 a1bd be20 153d 6b25 c13c
000001d0: f5d7 87be c50a 1c3e 5c9f 4e3d 33ff 963d
000001e0: dbcd e33d d22f d03d 9b25 08bd 6bbb f3bc
000001f0: 5ba7 a1bc 347d fa3d 4bd7 e73c bdec ce3c
00000200: 0b64 cb3d 77fb 233e 1264 183d f12b 5d3d
00000210: 314f 8d3d 33fd 983e 907c 0ebd 0566 50bd
00000220: 199f 293d e3e9 173e 0bf6 dd3b 8834 cd3c
00000230: 9c9a 0f3e b244 293f 0677 063c 957a 85bc
00000240: 46dc a73d a007 57be a475 2c3c c5ca 573c
00000250: c9bd ffbd 8588 a43d 1b18 d73b 12a6 743c
00000260: 0b8b 263d 26f2 2fbe ceab d6bc ae91 b13c
00000270: b36c 9d3c 66ac 08bc ebf8 3f3d 5974 9c3d
00000280: cc3f 3b3c 73ec 14be 2a16 5dbc 9113 003d
00000290: 358d 833d 2bc2 dcbe 79d8 05bd b3bc eb3d
000002a0: fa14 ed3d c410 533e 6b4a e63c 96a6 973c
000002b0: 3d65 21bd c03d e13d 9fcc 93bc add5 0b3d
000002c0: f688 243e b7e7 bc3e 66c7 f139 f7cb a33d
000002d0: 1e61 b0bd f719 573d f6aa 483c 454c f73d
000002e0: ed27 8e3e 6552 ef3e 413a c13c 1126 683e
000002f0: 8018 3fbd 4504 f4bd cc54 42bd ba15 a33e
00000300: 4de1 57bc aa01 343a fed0 1dbc 9ec1 a23c
00000310: e936 603c 41f3 79bd 807f 3a3b d599 4c3d
00000320: 86bd 9b3d e137 dbbc 920e 17bd f971 a23c
00000330: 0aac 8dbd 556f ccbd a74c 14bb 5c2f 39bd
00000340: 74ff 693d ce31 0bbc b078 4ebd ee51 4e3d
00000350: a295 8dbe bf2a ecbe 5230 fa3c 3186 fb3d
00000360: 5ffb ad3d c54f 713d 7a9e 35bd 907d abbd
00000370: e52f ebbb ea8a 3abe 0d6d ac3c eae0 1cbd
00000380: 26b5 0c3e e1a2 c63b 9060 c33c dcea 0d3d
00000390: 1f98 bdbc bbe7 7ebe da55 b63c 92a8 0fbd
000003a0: 7456 693e 34ec 273d 67ee 883d 7805 3b3d
000003b0: 4011 943d 113a debe b59d b93d 6754 883d
000003c0: 86fa 7cbd c7a2 36bd eae4 0fbb 5d2f a63c
000003d0: e84c 1f3e d023 973e 2945 9cbb 476d 8d3c
000003e0: dca6 9fbc 7bfc 953c 744d 19bc aad5 f3bd
000003f0: a6fc c53d defe 6439 3a97 88ba 5179 82bd
0.014270232 0.028967893 -0.008810192 0.0036535 0.40211615 0.0040159347 0.012026351 0.014915715
-0.007775564 -0.05771876 -0.033595346 -0.035458438 -0.12012144 0.093429655 0.036952853 0.029729761
-0.028347416 -0.035554226 0.00012159292 0.04443469 -0.7819831 0.017868768 0.0002607069 -0.050224967
0.123798996 0.013461406 -0.02540893 0.055292577 -0.006124845 -0.33613354 -0.025270535 -0.0075440914
0.044731326 0.028169386 -0.021993708 0.10848948 0.16194902 -0.13548891 0.020247601 0.03847966
0.074412964 -0.07265545 -0.00736772 -0.06107285 0.20726804 0.3248834 0.0058472133 -0.03287834
-0.019027399 0.22643453 -0.016860992 0.09501186 -0.09952747 0.39520663 0.020519266 0.12934293
0.015675748 0.3249892 0.011567339 -0.06973146 -0.01585147 0.1147567 -0.019089356 -0.08280791
0.046105284 0.41450238 0.0064881053 -0.03976961 0.10214069 -0.47167698 -0.00077837636 -0.006461909
0.07390716 -0.08051519 0.04588293 -0.18406142 -0.22815488 -0.1931913 0.023643814 -0.17439498
0.120621994 -0.07556349 -0.040739425 -0.06873123 -0.14857873 -0.09036556 0.006597049 0.031313125
0.08178772 -0.018468224 -0.031315017 0.035231177 0.053190533 0.24662943 0.019707246 0.026846534
0.07424455 -0.020967806 0.021883028 0.040592916 -0.089514636 -0.17305669 -0.031407915 0.02762486
0.16597615 -0.07704555 -0.017887333 0.062177714 -0.21805471 -0.12271573 0.0478466 0.0801231
0.18133664 -0.07875 0.03640818 0.023577413 -0.2653195 0.15238483 0.050444946 0.07372894
0.11123248 0.10165371 -0.03323899 -0.029752454 -0.019733122 0.12230912 0.028300902 0.02525937
0.09931191 0.16013895 0.03720481 0.053996984 0.0689987 0.29880676 -0.03478676 -0.050878543
0.041411493 0.14835314 0.0067737154 0.025049463 0.14023823 0.66120446 0.008207088 -0.016293803
0.08196311 -0.20999002 0.010526095 0.013170903 -0.124873705 0.080338515 0.006564153 0.014932172
0.040659945 -0.17182216 -0.02620497 0.02167591 0.01921687 -0.008341884 0.046868246 0.07639379
0.011428785 -0.14543323 -0.013494054 0.03126866 0.064234175 -0.43116888 -0.032677148 0.11510601
0.115762666 0.20611864 0.028111657 0.018512052 -0.03940319 0.10998106 -0.018041907 0.034139324
0.16067871 0.36895534 0.00046115665 0.079978876 -0.08612274 0.052514996 0.0122477915 0.12075094
0.27764836 0.4674255 0.023587348 0.22670771 -0.046654224 -0.11914877 -0.04744415 0.31852514
-0.0131762745 0.0006866703 -0.009632347 0.019867714 0.013684967 -0.061023 0.0028457344 0.049951393
0.07604508 -0.026760044 -0.03687913 0.019829737 -0.069175795 -0.099821724 -0.0022628696 -0.04521118
0.057128385 -0.008495761 -0.050408065 0.050371103 -0.27653223 -0.46126363 0.030540619 0.12281454
0.08495211 0.058913965 -0.04434059 -0.083735585 -0.0071773403 -0.18217054 0.021048093 -0.038300432
0.13740978 0.006061897 0.023849756 0.034647807 -0.023143826 -0.24893086 0.022257734 -0.03507287
0.22786885 0.040996745 0.06686097 0.045659512 0.07229853 -0.43403676 0.09063283 0.066567235
-0.061762355 -0.04458883 -0.0021956512 0.020286256 0.15556681 0.2951951 -0.0047689867 0.017264022
-0.019488744 0.018308869 -0.009356845 -0.119059876 0.096673295 0.0002183872 -0.0010421046 -0.063707955

fc1.bias f4 [256]
00000000: 725e e43d 9f8e 313e 4056 5d3d 84c4 5e3e
00000010: bc44 5cbe 4620 88bd d090 543e 7485 f33d
00000020: 9a31 513d f3b8 0d3e f994 833e 5d2e c5be
00000030: b0e4 af3d 3358 8cbe aece 803e 719a 85be
00000040: bc1f 2dbe 7bf0 4bbe 8b65 583d 10a6 93bd
00000050: 81dd 6dbe 192a 5a3e bf68 2bbd 4f7a b23e
00000060: f0fe 8b3e b9d3 37bd b836 a2be d345 67bd
00000070: bd1f 923e 2d1c d4bd d314 93bd 5fb2 9a3e
00000080: 8f4b ba3d 8ace 08be bf51 a63c 35df 19be
00000090: 891b 6dbe e788 2e3e 58ad c2be dba5 f4be
000000a0: 3b52 20be 7d4d 1b3c 811d 893d 09ef a1be
000000b0: b895 89be 9446 08be 2273 383e a22a 90be
000000c0: ff3b f23d 6fb5 a13c 5926 82be f74c aabe
000000d0: ad4e 733e d166 36be 485b bebd 8a98 8c3d
000000e0: b17b 413e 1e33 c2bd 4441 ee3e 97e2 9b3d
000000f0: 11d7 8dbe 4201 bc3e cc98 29be d1f7 9a3e
00000100: 31b6 6d3d c743 18be bfb5 b3be 04f1 5d3d
00000110: 667f 63b9 2115 b9bd 5970 f4bc b7ea 4ebe
00000120: 1eb3 4ebd 8125 c53d dd7b a2be c232 f53e
00000130: 1851 ce3c 00ff 203a 722a 703e 42d3 8abd
00000140: 685c 053c 6b24 9abe a62c a9be e782 91be
00000150: 1c8b 4d3e 7735 51be 7450 15bd 2ec0 f6bd
00000160: 2fb9 c5bd 4575 1c3e 0fc5 39bd 8687 0bbb
00000170: ff62 08be 58e5 8d3e ffd2 31be 1093 663e
00000180: c2f3 d23e de1d 553d d482 d1bd 3af1 a5be
00000190: 50de 913e 1e23 673e b161 b5be 3fcc 733e
000001a0: d7e3 3ebe 82bc 673d d756 963e 3f95 3a3e
000001b0: 6a76 6fbe 17eb 803d f2a1 27be 2989 53be
000001c0: 785b 3ebb b68b 6ebe cc5e db3d e588 81be
000001d0: e528 1dbe 27ff 2d3e 9424 97bd e748 853e
000001e0: 5fba 263e 9caa 373e d7c5 4ebe aef4 573c
000001f0: 854b 12bd 4a57 9fbe fd64 bd3e 0bb7 71bd
00000200: 0390 1a3e e0bf 463d 9253 093c f2a9 e6bd
00000210: 64aa 9c3e 924c 0a3c 6636 adbe e696 1fbd
00000220: e5eb 60bc 4a5b b4bd dacb 343e 1df0 7b3d
00000230: 531d 873d d3df a23d a01b 5a3c b824 053e
00000240: e6d5 ee3d 5af9 c23d b9f4 78bd bd75 a8be
00000250: 43b1 b4bc 3f33 723e 0686 c63e 5d07 13be
00000260: 75e2 83bd d70c 853b d0a2 833a f4eb 94bd
00000270: bde5 72bd 5bbe ed3d 6f92 893e 824e 20bd
00000280: 8c00 533e 144c 11be 5db5 d6bc 51b6 c73e
00000290: be4a e53c 17fc 68be 19e7 63bd 0f03 3e3e
000002a0: af69 bd3d 6869 98be f85c 1d3e 1918 093e
000002b0: 4ffb 78be cccf 47be d026 273e 77a2 7abd
000002c0: 431d 47bd 9b66 81be c287 54be a43b c83e
000002d0: 0946 333d 8813 5d3e 4631 b53e 0405 2ebe
000002e0: 6396 71be 1461 2d3c c85a 2dbe 2501 623e
000002f0: fbe1 3f3e 539f 3b3d bf10 c83d 3c27 5e3d
00000300: 4113 ef3d 62e6 793d d7a9 083b ee44 c8be
00000310: e885 743e ceea 2cbe 8b51 7abe c3c8 a73e
00000320: 6c15 b9be 574e 82be eafb 4c3e 6959 17bd
00000330: 9992 09be a90c 243e 2bd4 7bbb 08ef f03d
00000340: e0ca 84bc 0a3c 063e a670 d63e 8d51 eb3e
00000350: c3d7 213e 356c c9bc da61 14bd 0a9a bcbc
00000360: 3541 eabc 3824 c1be 3e7e 1fbe 02ec acbd
00000370: 9e50 2b3e 5b7b 5e3e 0fbd 4dbe c1a7 88be
00000380: c90c 10be 2ab6 bfbc 9995 11be 5386 af3e
00000390: 9fa4 48bd be56 453d f96f 90be 5661 41be
000003a0: c823 7fbd 4f1c 953c f340 a53e dbe3 0fbe
000003b0: 7312 efbd ac0a 403d 8391 c4be d079 ba3e
000003c0: 2659 ca3d b6fc ae3e 8e0d 773c 4656 cabd
000003d0: f0df f43e b498 c73c 0741 4bbe a170 c93d
000003e0: cd04 07be 871f 9d3e 9a90 5abe f574 853c
000003f0: 39dd 253e 52f2 103e e4c0 5e3b 80f6 24be
0.111508265 0.17339562 0.054037333 0.21754652 -0.21510595 -0.06646781 0.20758367 0.118906885
0.051072694 0.13840084 0.25699595 -0.38511935 0.085885406 -0.2741104 0.25157684 -0.26094392
-0.16906637 -0.19915955 0.052831214 -0.07209408 -0.23229028 0.21305121 -0.04184794 0.3485894
0.2734294 -0.04487965 -0.31682372 -0.056463074 0.2853984 -0.103569366 -0.07181706 0.3021421
0.09096443 -0.13360038 0.020302651 -0.15026553 -0.23155035 0.17044412 -0.38022876 -0.47782788
-0.15656368 0.009478924 0.066950805 -0.31627682 -0.2687204 -0.13308173 0.1801267 -0.28157526
0.118278496 0.019739835 -0.25419882 -0.33261845 0.23760481 -0.17812659 -0.09294754 0.06865032
0.18894841 -0.09482406 0.4653417 0.07611578 -0.27703145 0.3671971 -0.16562194 0.30267194
0.05803508 -0.14869605 -0.350996 0.05418493 -0.00021695867 -0.09037233 -0.029838728 -0.20206724
-0.05046379 0.09626294 -0.31735125 0.47890288 0.025185153 0.00061415136 0.23453692 -0.067785755
0.008139707 -0.3010591 -0.33041877 -0.28420183 0.20072597 -0.20430551 -0.03645368 -0.12048374
-0.096544616 0.1527911 -0.045353945 -0.0021290495 -0.13319014 0.27714038 -0.17365645 0.22517037
0.41201597 0.052030437 -0.102300316 -0.32410604 0.28489923 0.2257199 -0.35426095 0.23808382
-0.18641602 0.05657626 0.2936313 0.18220995 -0.23385015 0.0629484 -0.16370371 -0.20657791
-0.002904622 -0.23295483 0.107114404 -0.25299755 -0.15347631 0.16991864 -0.073800236 0.26032183
0.16282032 0.17936176 -0.20192657 0.013180895 -0.035716552 -0.31121284 0.3699111 -0.059012454
0.15093999 0.04852283 0.008381741 -0.11262883 0.30598748 0.008441107 -0.33830565 -0.038962267
-0.013728117 -0.088064745 0.17655888 0.061508287 0.0659739 0.07952847 0.01331225 0.13002288
0.11661892 0.09520216 -0.06078026 -0.32902327 -0.022057181 0.23652361 0.38774127 -0.14358278
-0.064396776 0.0040603685 0.0010043029 -0.07271567 -0.059301127 0.11608573 0.26869532 -0.03913737
0.20605677 -0.14189178 -0.026209528 0.39006284 0.027989741 -0.22752415 -0.055640314 0.18555854
0.09248673 -0.2976792 0.15367496 0.13388099 -0.24314617 -0.19512862 0.163234 -0.061190095
-0.04861189 -0.25273594 -0.20754912 0.39108002 0.043767963 0.21589482 0.35389155 -0.16994101
-0.23592524 0.010582227 -0.16929162 0.22070749 0.18738548 0.04580624 0.09768819 0.054236636
0.11673594 0.061010726 0.0020853186 -0.3911509 0.23879206 -0.16886446 -0.24445169 0.32770357
-0.36149156 -0.25450394 0.20017973 -0.036950503 -0.13434829 0.16020454 -0.0038426023 0.117643416
-0.01621002 0.1310884 0.4188282 0.45960656 0.15804963 -0.02458773 -0.03622613 -0.02302267
-0.028595546 -0.37722945 -0.15575501 -0.084434524 0.16729972 0.21726744 -0.20091651 -0.26690486
-0.14067377 -0.023402292 -0.14217223 0.3428217 -0.04898512 0.048178427 -0.28210428 -0.18884787
-0.062289983 0.018201975 0.32276115 -0.14051764 -0.11673441 0.046885177 -0.38392267 0.3642106
0.09880285 0.34177178 0.015078915 -0.098797366 0.478271 0.024364807 -0.19849025 0.098359354
-0.13185425 0.30688116 -0.21344224 0.016291121 0.16197671 0.14154938 0.0033989483 -0.16109657

fc2.weight f4 [128, 258]
00000000: 6f11 e8bd 9033 14be dabb 113c b569 483e
00000010: c90c a53d b676 09be f2d8 c23c d9c1 873c
00000020: ca2c 3a3d 50b3 ec3d 7b57 80bc cd3d 583e
00000030: bc67 863d e8f5 03be 93e5 49be 94c0 42be
00000040: b3b2 4d3d c79e 39be 8ad2 14be b7a9 e8bd
00000050: 355c d0bd 4896 4abd 08f4 0ebe cf9b a2bc
00000060: b3b9 07be 9e23 33be 8d20 28bd a061 60be
00000070: 3713 573c 2f0c a7bd b932 543e 638b e8bd
00000080: 9c2a 6cbe 387a 8d3c 14c7 d4bd bbf6 cd3c
00000090: fbcf 923d 98fa 09be 4ced 36bd 8f76 7d3d
000000a0: 8f4b 1bbc 4879 19be ec15 22be 82e7 fd3d
000000b0: 2bde 9f3d 45cb ba3c 9ddb 74bd e6a8 e03c
000000c0: bccb 93be 8c02 30bc 5f32 81be 8541 9abd
000000d0: 97b5 0f3c a693 b3bd 7667 39be bc73 173e
000000e0: 05ce 843e 78b7 0fbe 476f 03be 5373 2abe
000000f0: 1685 6fbd 8d02 1a3e 6855 eabe 2e84 e0bd
00000100: 7122 bf3d e158 debd afdc a0bd 6e6c 7bbd
00000110: f63b e5bc 2594 ff3d f0c6 d0bb 3b0a 69bd
00000120: a1f1 c33c ef50 9cbc 64f0 093e bea2 6a3c
00000130: 5d4e 8ebc 5458 303d e230 bb3b 210b ccbc
00000140: b223 863c 3d91 87bc 649c 37bc b0eb e63c
00000150: 1bf2 103d 3364 dd3d 5be1 0bbe 3b82 e8bd
00000160: 4953 233c 4663 80bd 4c15 6bbd 35d7 85be
00000170: 8fd3 8ebe 3661 b83a aa57 04bd b912 bc3c
00000180: 8ad4 983d 0af8 e43d 9d00 41bd 7c87 4dbe
00000190: d038 0c3e 2f37 d53c a229 82be 2a82 ce3d
000001a0: f545 83be fd23 7bbd c6d5 bc3d bcf5 ddbb
000001b0: 729d ddba 6455 aebe 6e28 4abd 7b25 7abd
000001c0: fa55 4ebd 4961 1a3d b92d 06bc a57f 333d
000001d0: fd74 ff3d 6d38 073e b1df 593b 62f7 aa3d
000001e0: d856 dcbd 352c d8bd 21fc ef3c 5d7b 8abd
000001f0: 21c0 663c 4108 7fbe 8dc6 39be 00ee 96bc
00000200: 84d6 0bbe 7264 c6bd e734 163e 51e5 09be
00000210: ae33 e9bc 7051 bebd 150b 053e d944 7dbe
00000220: 0f40 92be f678 1b3e 1a29 aa3d a596 913d
00000230: a175 47be 4e62 c53d 8059 523d 0f49 bf3c
00000240: 46cb 15bd 6745 2abe ee90 9abd c194 b5bd
00000250: 7929 7bbd 4253 6cbc 0602 a63c cb7b fbbb
00000260: ee92 9bbc d10f d13d f53f da3d 5b02 663d
00000270: 0535 9dbd c677 923d 5a8e 04be ea67 d23c
00000280: b80f d1bc b695 42bd d053 22bd ba96 e2bd
00000290: e5d6 9d3c da17 d43c 5e06 c03d 1915 c43b
000002a0: 87df 1cbd 9eb2 163e fcd3 063d 53a1 8f3d
000002b0: 7e2f 72be 4933 e93d 91a6 e63d b512 07bd
000002c0: 45e2 423a 0f8e 063e 2764 76bc 29b5 56bd
000002d0: bce4 6ebd 7d61 1f3d e7e8 a33e 3c20 723d
000002e0: 7614 dabd 0a50 af3d 8c28 25bd 2c35 343d
000002f0: 1121 4fbc 1ee1 82bd 46b0 37be 6fd6 86bd
00000300: 7c8e 42bd ec81 f0bd c0b3 d7bc f549 e1bd
00000310: b877 3bbe e802 8e3c 67d1 18be 7a6a 523d
00000320: deb0 e8bd f104 d03d 5b9d 523d f1de 05bc
00000330: 2479 a6bc f22b 99bc a504 2dbd 2fa4 aebd
00000340: fbfc dfbd aa11 2d3c ca92 eb3d f7a3 023d
00000350: e020 1dbe 27ec f6bc 9520 edbd 04e1 b1bb
00000360: 8fed 97bc bb26 87bc be39 53bd 5dd5 7a3e
00000370: 5585 193e 9104 b2bd bd01 c53c e275 d63c
00000380: 9209 cebd 51cb 4c3e 973b 76be 9851 453d
00000390: 2877 d73d 4b3b adbd 9c2d 443d 2d4e 903d
000003a0: 4c04 97bc ddf0 fb3c 4aa1 0b3e 552c eebd
000003b0: 57ee a1bd 55e7 19bd 23d1 1bbe 8a63 d9be
000003c0: 7b8a 893d db94 893d 191e 21bc 28e5 2abe
000003d0: fbd5 31be f704 833b 1419 79be 8094 673d
000003e0: 9169 c73c e81c 153e 7130 13be a1d3 c3bd
000003f0: c0fa cebd 946a debd 43a0 92be cd6c 6ebe
-0.1133145 -0.14472795 0.008894885 0.19571574 0.08059079 -0.13424191 0.023785088 0.016571926
0.04545287 0.11557639 -0.015666714 0.21117325 0.065627545 -0.12886775 -0.19716482 -0.19018775
0.05021925 -0.18126975 -0.1453344 -0.113604955 -0.10173837 -0.049459726 -0.13960278 -0.019849686
-0.13254432 -0.17494056 -0.041046668 -0.21912241 0.01312714 -0.08156621 0.20722474 -0.11354711
-0.23063129 0.017270193 -0.10389534 0.025142064 0.071685754 -0.134745 -0.044659898 0.061880644
-0.009478464 -0.14987671 -0.15828675 0.12397672 0.07806047 0.022802005 -0.059779752 0.027424287
-0.28866374 -0.010742795 -0.25233743 -0.07532028 0.008771322 -0.08768396 -0.18105873 0.14790243
0.2593843 -0.14034832 -0.12835418 -0.16645555 -0.05847653 0.15040036 -0.45768285 -0.10962711
0.09332741 -0.10856796 -0.07854592 -0.061382703 -0.027982693 0.12479428 -0.0063713714 -0.056894522
0.023918929 -0.01908156 0.13470608 0.014321027 -0.01737135 0.043052986 0.0057126144 -0.02490765
0.016374443 -0.016548747 -0.01120672 0.028188556 0.03538714 0.10810127 -0.13660185 -0.113529645
0.009968587 -0.06268935 -0.057393357 -0.26140752 -0.2789578 0.0014067057 -0.032310165 0.022958146
0.074624136 0.11180122 -0.047119725 -0.20071214 0.13693547 0.02602729 -0.25422388 0.100834206
-0.2563931 -0.061313618 0.092204615 -0.0067736786 -0.0016907884 -0.34049523 -0.049354963 -0.0610709
-0.050374962 0.037690435 -0.008189612 0.043822903 0.124734856 0.13205118 0.0033244903 0.08347966
-0.10758752 -0.10555307 0.02929503 -0.06761811 0.014083893 -0.24905492 -0.18142147 -0.018424034
-0.1365605 -0.09687127 0.14668618 -0.13466384 -0.028467026 -0.09292877 0.12992509 -0.24733295
-0.28564498 0.15182862 0.08308621 0.07108811 -0.19478466 0.09637891 0.051354885 0.023350267
-0.03657081 -0.16628037 -0.075471744 -0.08866263 -0.06131885 -0.014424147 0.020264637 -0.0076746694
-0.01899096 0.10208095 0.1065673 0.05615459 -0.07676128 0.07151751 -0.12944928 0.025684316
-0.02552019 -0.047506057 -0.03963071 -0.11063905 0.019267509 0.02589028 0.093762144 0.0059839603
-0.03829911 0.14716575 0.032917008 0.07013192 -0.2365093 0.11386735 0.11262239 -0.032976825
0.00074342295 0.13140129 -0.015038527 -0.05241886 -0.058323607 0.03891133 0.32013628 0.059112772
-0.10648434 0.08560188 -0.04032187 0.04399602 -0.012642161 -0.06390594 -0.17938337 -0.06583869
-0.047499165 -0.11743531 -0.026330829 -0.11000434 -0.18307388 0.01733537 -0.1492363 0.051371075
-0.1136186 0.101571925 0.051419597 -0.008170829 -0.020321436 -0.018697713 -0.042240757 -0.08527409
-0.10936924 0.0105632935 0.11502607 0.03189465 -0.15344572 -0.030141903 -0.1157848 -0.0054284353
-0.018545894 -0.01649796 -0.05156874 0.24495454 0.14992268 -0.08692277 0.02404868 0.026179258
-0.10060419 0.19999434 -0.24046169 0.048173517 0.10520774 -0.08458575 0.04789506 0.07046161
-0.018434666 0.030754501 0.13635746 -0.116295494 -0.07906788 -0.03757413 -0.15216498 -0.42458755
0.06715866 0.06717845 -0.009833836 -0.16688979 -0.17366783 0.0039983946 -0.24325973 0.056538105
0.02434233 0.14561808 -0.14373948 -0.095618494 -0.101064205 -0.10860172 -0.28637895 -0.23283692

fc2.bias f4 [128]
00000000: 3b47 6a3e 35a2 41be 11c8 9bbd caf0 503d
00000010: f0da 2dbe 48f2 5abe 1da2 9ebd 0ba2 ae3d
00000020: d6d9 89bb 217b 8d3e faed b6bd eff9 893e
00000030: 15d8 2dbe e787 cdbe 819b 21be df1f 74bd
00000040: aa1d 43bd 1a81 3c3d 9bd4 a9bd adc4 0b3b
00000050: 43f2 20be 3477 46be 0450 f83d 3b70 cebd
00000060: 1d76 b0bd 0d60 84be 3ce9 7a3c de89 a63e
00000070: f87e ee3d 9211 e13c 4c2c 98be 0d55 68be
00000080: 4012 40be 3ca2 07be 71c3 efbd e8d9 293d
00000090: 8d91 00bd 1947 74be 6da7 52be b66c a5bd
000000a0: 674a 77be e772 d73d 0f47 4fbe ded4 18bc
000000b0: 2577 3c3d 9e66 d73e 3bf0 92bd 436a 783d
000000c0: e2f4 31bd f937 5c3e 4746 b9bd 66f7 96be
000000d0: 7ce0 073e 4a7c b9be 8c22 283d edbc 51be
000000e0: cd55 c2be c560 c1bc 89af 02bf 1894 ac3d
000000f0: 3e6e 2cbd c2bb b83c 2c81 df3d a355 f63d
00000100: db4f 63be b213 52be 5a4a a43d fd3f 28be
00000110: 3d51 023e e504 adbd e058 fbbd ec5d a03d
00000120: e781 89bd 0cf9 983e 29a0 e43b b167 2a3d
00000130: 0f2b ae3d 7898 0b3d 7577 2b3e 9a05 0dbe
00000140: 5b86 983d 2965 b3be 69f3 e6bd 9902 513e
00000150: e107 93be 952f 5bbe 3e0e febd 46b1 00be
00000160: 503e e53d 8336 8f3e dd67 9c3e daf6 ab3d
00000170: f972 3bbe 894b 153e 52b2 0bbe 50e6 78be
00000180: a82f 55be f9a1 9ebc 3fc9 b2bd 0b4e 3fbd
00000190: 647a 10be 58ec 74be 522a 90bd e19d 093e
000001a0: 69aa b63d db46 e1bc 2a35 e93d d6cf 41bb
000001b0: 5b93 c2bc cc47 cd3d ea46 813e 5a6f 373e
000001c0: 41a3 1f3e c1a9 973e 6da9 273e a57a be3d
000001d0: 61b9 da3e 37dc 93bd bc89 32bd 507a d1be
000001e0: 5687 03be 6783 b2be b6c7 52be 4c8c aabd
000001f0: 5190 913d 828c 0b3e c82a bdbe fc38 a5be
0.22878735 -0.18909533 -0.07606519 0.051010884 -0.1697805 -0.21381485 -0.077457644 0.08527001
-0.0042068763 0.27633002 -0.08932109 0.26948497 -0.1697696 -0.40142748 -0.15781976 -0.059600707
-0.04763571 0.04602156 -0.082925044 0.0021326945 -0.15717416 -0.1938141 0.12124637 -0.1008
-0.08616278 -0.2585453 0.0153143965 0.3252706 0.11645311 0.027474198 -0.29721296 -0.22688694
-0.18756962 -0.13245481 -0.11707199 0.041467577 -0.031388808 -0.23855247 -0.2057168 -0.080773756
-0.24149476 0.10519963 -0.2024195 -0.009328095 0.046012063 0.42070478 -0.071747266 0.060648214
-0.04344643 0.21505727 -0.090466075 -0.29485625 0.13269228 -0.36227638 0.04104857 -0.20482226
-0.37956086 -0.023605714 -0.51049095 0.08426684 -0.042097323 0.022550467 0.109133095 0.12028053
-0.22198431 -0.20515326 0.08021994 -0.1643066 0.12726302 -0.08448199 -0.12272811 0.07830414
-0.0671423 0.29877508 0.0069771004 0.041602794 0.085043065 0.034080952 0.16744788 -0.13771668
0.07447501 -0.35038117 -0.112768956 0.20411147 -0.2871695 -0.2140487 -0.1240506 -0.12567624
0.11193526 0.27971277 0.3054799 0.083966926 -0.18305577 0.14579596 -0.13642243 -0.24306607
-0.2081896 -0.019364344 -0.08729791 -0.046705287 -0.14109188 -0.23918283 -0.07039322 0.13439132
0.08919222 -0.027499607 0.11387093 -0.0029573343 -0.023751905 0.1002346 0.25249416 0.17913571
0.1558962 0.296217 0.16373225 0.09300736 0.42719558 -0.07219737 -0.043588385 -0.4091363
-0.12844595 -0.34865877 -0.20583996 -0.08327541 0.07107604 0.13627818 -0.36946702 -0.32270038

fc3.weight f4 [51, 128]
00000000: 03f2 32be c28b c7bd 6d34 3fbd 5456 9cbd
00000010: beee 04be b539 eebd 6d9c 893e 5618 50be
00000020: 213f 38be 7b04 e8be 43cc 55bd 81b7 3cbe
00000030: b25b 63bd 060c d8bd 89b4 52bd c3da 47bd
00000040: 506b 1ebf a1c6 2abe 75ac 78be 8ef4 b1bd
00000050: a142 11bd e57f 44bd ae5f 00bf 4324 31bc
00000060: 21a7 d5bd ef3e 76bd 2d1f bfbc fda9 e4be
00000070: 520a 0abe f3df 033e d9c2 a6be 7756 c2bd
00000080: 0e9d b9bd 0321 1ebc 4ec2 0bbf f813 01bd
00000090: 031e 29bd 5f4e 45be 50ac 033e b1db f9bd
000000a0: 31e3 d1bd 0923 b2bd 22d7 95be e608 84bd
000000b0: b866 943e 71b7 50bf 4dac 80be 2c23 f5bd
000000c0: 1653 95bc c5df afbe a719 ff3d d8c5 a23e
000000d0: 916e 96be cc5c e43d 9f8c 493e 35fc aebe
000000e0: fea0 58be c587 bdbe babb 223e da52 bfbd
000000f0: 534a 53bd cc00 e83d 1034 323c 65b5 04bf
00000100: d4fa 98be 4987 783e 93b7 56bf 38ea d1bd
00000110: 6fa4 3bbe 15c0 dcbe 5b5d 2dbd aeda b5be
00000120: 07d5 c83d b527 eebe a84f 223e 8fdd 23bf
00000130: 0e98 7dbe 4f86 a4bd df02 edbe f8a6 12be
00000140: 025b a4bd 2eae bfbd 15b8 99be b11b 1cbd
00000150: e1a0 1d3e a1cd 86be 65d3 c1bd a905 0dbe
00000160: 43ed 92be 5e1d f0bd b854 55be b7aa ee3d
00000170: 1d7a f33d 8fd3 53be adfe 17be f517 2c3e
00000180: 293a 34bd 0051 ecbc 5d99 b0bd 92b5 9a3e
00000190: 1517 353e 4722 b6bd 7bbb d7be a790 5f3e
000001a0: 535b f3bd 6d9f 0abf 096f bf3b 42dc 80bf
000001b0: 7a32 7dbc 68d2 4fbe ce5e 80be 7e0c 583e
000001c0: b1de 3fbb 9e06 85be 20b2 bcbe 3683 f9bd
000001d0: 8387 66bf 733c e1be 956f 97bc 1d5c f6bd
000001e0: 7297 ecbd e6bc 72bd c860 8a3e 4d5f 5bbe
000001f0: a261 20bf 6c52 3dbe 6c93 3f3e bf6d 9cbc
00000200: 9d0a 37be 9c5e ccbd 8eb0 3fbd 939e 9abd
00000210: 37cc 02be 9967 eabd ead3 8a3e da19 4fbe
00000220: 5e3e 33be 287b e8be 03bf 43bd 6654 3dbe
00000230: 6a41 60bd f392 dbbd fa01 5cbd 5030 3fbd
00000240: cb18 1fbf 8e2b 2cbe 85ff 77be e250 afbd
00000250: 5c60 14bd 0120 4fbd 428e ffbe 00ff 29bc
00000260: c196 d3bd a77b 7bbd ad94 acbc 6639 e4be
00000270: 2da6 08be 111c 053e 84fd a8be 31d7 bbbd
00000280: 739b b4bd bbe8 32bc 0ef1 0bbf 1797 01bd
00000290: bc30 28bd 50a4 45be 1cc9 053e 0802 fabd
000002a0: 0d65 d4bd 5450 adbd d9ba 94be a8b5 81bd
000002b0: cd37 943e d630 51bf 2097 80be 8e9e f5bd
000002c0: 23ce b9bc 7d8c afbe 55f1 fc3d 7368 a33e
000002d0: 8d83 96be d946 e03d 2b19 4a3e 1f22 afbe
000002e0: 8b87 58be 7f3c bdbe d12e 213e 8423 bdbd
000002f0: 8857 57bd ed43 ef3d 720e 183c 0496 05bf
00000300: d72d 98be 302b 793e 6bb5 56bf 70de d1bd
00000310: 04b1 3abe de76 ddbe 4af7 32bd 2ede b4be
00000320: e815 ca3d b980 eebe 81cd 233e 4158 24bf
00000330: bd6c 7cbe c213 a5bd 4f27 edbe 1885 11be
00000340: a270 abbd 8419 c5bd 8cc7 99be ee2a 16bd
00000350: da34 1b3e ee90 87be 271a c4bd fe42 09be
00000360: e30a 93be 4fa7 f5bd 5aac 55be eeb7 e63d
00000370: 98c4 fe3d 3e69 57be 2367 17be a83d 2e3e
00000380: 2288 31bd cce7 03bd 4e36 b2bd 9d6b 983e
00000390: cc5e 363e 69e6 babd 9105 d7be 7fc0 613e
000003a0: 09a6 ecbd caea 0abf 2343 e93b bb8c 80bf
000003b0: 2a7b 66bc b603 4ebe 6903 81be 9c28 5a3e
000003c0: 1f04 8eb9 6d02 85be 529b bdbe 262c f0bd
000003d0: 4a0c 66bf 1840 e2be a623 acbc ba32 f3bd
000003e0: 7009 e7bd e68a 6abd 2249 8a3e 33f2 5ebe
000003f0: 3de0 20bf 8a29 3fbe 54a1 3e3e cd88 9bbc
-0.17475133 -0.097434536 -0.046680856 -0.07633653 -0.12981698 -0.116321005 0.26877156 -0.20321783
-0.17992832 -0.45315918 -0.052196752 -0.18429376 -0.05550737 -0.10549168 -0.051441703 -0.04879261
-0.61882496 -0.16677333 -0.24284537 -0.08689223 -0.035463933 -0.047973532 -0.50145996 -0.010811868
-0.10432268 -0.060118612 -0.023330295 -0.4466094 -0.134805 0.12878399 -0.32570532 -0.09489148
-0.09063159 -0.009651425 -0.5459336 -0.031513184 -0.041288387 -0.19268177 0.12858701 -0.12200106
-0.102484114 -0.08698089 -0.29265696 -0.0644701 0.28984618 -0.8152991 -0.25131455 -0.11969599
-0.018228095 -0.3435041 0.12456065 0.31791568 -0.2938123 0.11150512 0.19682549 -0.34176794
-0.21155164 -0.37017646 0.15891925 -0.093419746 -0.051584553 0.11328277 0.0108766705 -0.51839286
-0.29878867 0.24270357 -0.8387386 -0.10249752 -0.18324445 -0.43115297 -0.04232536 -0.35518402
0.09806257 -0.4651467 0.15850699 -0.64009947 -0.24765036 -0.0803343 -0.46291253 -0.14321506
-0.08025171 -0.09359394 -0.30023256 -0.038112346 0.15393402 -0.26328757 -0.094641484 -0.1377169
-0.2869664 -0.11724351 -0.20833099 0.11653655 0.11888526 -0.20686172 -0.14843245 0.16806014
-0.04400078 -0.028847218 -0.08623002 0.30216652 0.17684586 -0.08893257 -0.42135224 0.21832524
-0.11882653 -0.54149514 0.005842094 -1.0067217 -0.015453929 -0.20295107 -0.2507233 0.21098515
-0.0029277022 -0.2598161 -0.3685465 -0.121832296 -0.90050524 -0.43991432 -0.018485824 -0.12029288
-0.115523234 -0.05926218 0.27026963 -0.21423073 -0.62648976 -0.18488473 0.1870858 -0.0190953
-0.17875142 -0.09978983 -0.046799235 -0.07549777 -0.12773214 -0.11445541 0.27114803 -0.20224705
-0.1750426 -0.4540646 -0.047789585 -0.18489227 -0.054749884 -0.10721388 -0.053712822 -0.046676934
-0.62147206 -0.1681349 -0.24218567 -0.08560349 -0.036224708 -0.05056763 -0.49913222 -0.010375738
-0.103314884 -0.06139722 -0.021066988 -0.44575042 -0.13344641 0.12998988 -0.33005917 -0.09171904
-0.08818712 -0.010919745 -0.54664695 -0.03163823 -0.0410621 -0.19300961 0.13064998 -0.12207419
-0.103708364 -0.08462587 -0.29048803 -0.06333476 0.28948823 -0.8171514 -0.251153 -0.119931325
-0.022681301 -0.34286872 0.12350718 0.31915626 -0.2939724 0.10951013 0.19736163 -0.3420572
-0.21145456 -0.36960217 0.15740515 -0.0923529 -0.05257371 0.11682878 0.009280788 -0.5218203
-0.29722473 0.24332881 -0.8387057 -0.10247505 -0.18231589 -0.4325475 -0.043692864 -0.3532576
0.098674595 -0.46582583 0.15996362 -0.64197165 -0.24650855 -0.08060409 -0.46319053 -0.14210927
-0.083710924 -0.09624007 -0.30035055 -0.036662035 0.1515688 -0.2647776 -0.09575301 -0.13404462
-0.28719243 -0.11994802 -0.20866528 0.112655506 0.12439841 -0.2103624 -0.14785437 0.17015707
-0.043342717 -0.03220348 -0.08701764 0.29769602 0.178096 -0.091259785 -0.41996434 0.22046088
-0.11555106 -0.5426451 0.007118599 -1.0042948 -0.014067451 -0.20118603 -0.25197914 0.21304554
-0.0002708742 -0.25978413 -0.37032562 -0.11727171 -0.898625 -0.44189525 -0.021013092 -0.1187491
-0.11281097 -0.05726137 0.2700892 -0.21772079 -0.6284216 -0.1866819 0.1861623 -0.01898613

fc3.bias f4 [51]
00000000: a5db 8bbe 52bf 83be 0c3d 6ebe dc4c 0cbf
00000010: 4363 0ebf 0a80 13bf dc47 0abf 3098 1fbf
00000020: 0874 18bf 0168 12bf 1131 18bf 4b21 24bf
00000030: f145 28bf 0cfd 33bf be58 38bf 8922 39bf
00000040: f079 3ebf ce73 34bf eece 3abf 8cbc 4ebf
00000050: 289d 65bf 16bf 77bf 9e0b 83bf 7145 52bf
00000060: b566 07bf a46c 473e 4cf4 613c 08b5 b83d
00000070: b5f6 013e 743b f43d da44 f53d 2612 263e
00000080: f227 793e 8e24 ad3e 8e2d 6a3e 5245 3b3e
00000090: 48c0 0a3e 3aed 013d e067 9cbd 446d bcbd
000000a0: 149c 22be e112 44be 7c7e 70be 24ef 8bbe
000000b0: fda2 b3be da6d fcbe 04bd 00bf 9224 25bf
000000c0: 2654 febe be5f e4be 5c46 d8be
-0.27316013 -0.25731903 -0.23265475 -0.5480478 -0.5562021 -0.5761725 -0.540159 -0.62341595
-0.5955205 -0.5718995 -0.5944987 -0.641133 -0.6573172 -0.70307994 -0.7201041 -0.7231832
-0.7440481 -0.70489204 -0.72972 -0.8075645 -0.89692926 -0.9677595 -1.023792 -0.8213721
-0.52891093 0.19475037 0.013791155 0.09018904 0.12691768 0.11925402 0.11976023 0.1621786
0.24331644 0.33816952 0.2286894 0.18288162 0.13549912 0.031720378 -0.07637 -0.09200528
-0.15879852 -0.19147827 -0.2348575 -0.27330887 -0.35085288 -0.4930256 -0.50288415 -0.64508927
-0.49673575 -0.44604295 -0.4224118
