data/Agent2_Critic_checkpoint_latest.pth (torch_old, 185818 bytes, 7 tensors)

supports f4 [51]
-0.7 -0.672 -0.644 -0.616 -0.588 -0.56 -0.532 -0.504
-0.476 -0.448 -0.42 -0.392 -0.364 -0.336 -0.308 -0.28
-0.252 -0.224 -0.196 -0.168 -0.14 -0.112 -0.084 -0.056
-0.028 0.0 0.028 0.056 0.084 0.112 0.14 0.168
0.196 0.224 0.252 0.28 0.308 0.336 0.364 0.392
0.42 0.448 0.476 0.504 0.532 0.56 0.588 0.616
0.644 0.672 0.7
00000000: 3333 33bf 3108 2cbf 2fdd 24bf 2db2 1dbf
00000010: 2b87 16bf 295c 0fbf 2731 08bf 2506 01bf
00000020: 46b6 f3be 4260 e5be 3d0a d7be 39b4 c8be
00000030: 355e babe 3108 acbe 2db2 9dbe 295c 8fbe
00000040: 2506 81be 4260 65be 39b4 48be 3108 2cbe
00000050: 295c 0fbe 4260 e5bd 3108 acbd 4260 65bd
00000060: 4260 e5bc 0000 0000 4260 e53c 4260 653d
00000070: 3108 ac3d 4260 e53d 295c 0f3e 3108 2c3e
00000080: 39b4 483e 4260 653e 2506 813e 295c 8f3e
00000090: 2db2 9d3e 3108 ac3e 355e ba3e 39b4 c83e
000000a0: 3d0a d73e 4260 e53e 46b6 f33e 2506 013f
000000b0: 2731 083f 295c 0f3f 2b87 163f 2db2 1d3f
000000c0: 2fdd 243f 3108 2c3f 3333 333f

fc1.weight f4 [256, 24]
0.0052435882 -0.00029969847 -0.010319484 -0.02655382 0.36588484 -0.01160125 0.010517132 -0.015291605
-0.015311616 -0.09036118 -0.03523552 -0.030229408 -0.07629505 0.082354344 0.035312686 0.03495926
-0.018400505 -0.050926927 0.0020778493 0.049082473 -0.62133515 0.0219667 0.0022169612 -0.04557719
-0.04095586 0.028354159 0.006569731 0.06078145 0.08554486 -0.39359418 0.0067081414 -0.0020546247
-0.14319508 0.04876404 -0.027010635 0.00978913 0.20445022 -0.3131862 0.015230426 -0.06022026
-0.11158785 -0.06522461 -0.020371318 -0.13721338 0.14862892 0.20278881 -0.0071566 -0.10901869
-0.019372728 0.16969119 -0.02436713 -0.0058406633 -0.054147452 0.1191366 0.013013214 0.028490376
0.001950838 0.17348 0.0087097585 -0.040017053 -0.016055904 -0.18991032 -0.021947037 -0.053093627
0.01927878 0.28397426 -0.0001118973 0.028483866 0.0039414703 -0.8083523 -0.007378371 0.06179145
0.0052987863 -0.23171146 0.0039766035 -0.083508275 -0.39281023 -0.17451738 -0.018262757 -0.07384166
0.081055485 -0.22641477 -0.028386183 -0.026839994 -0.26196632 0.023784915 0.018950626 0.07320364
0.0511048 -0.1598155 -0.030901136 0.07563302 -0.0065536033 0.42393896 0.020121159 0.06724815
-0.02590922 -0.09785847 0.02696441 -0.0014587546 0.26633826 -0.08260728 -0.026326338 -0.014426868
0.038239617 -0.20594494 -0.03612214 -0.060130782 -0.11145715 0.019528436 0.029611697 -0.042185534
-0.005560668 -0.23505902 -0.009469563 -0.09503403 -0.53696495 0.101536274 0.004567028 -0.04488321
-0.00024011999 0.16590272 -0.026916053 -0.043900836 0.008487045 0.035458874 0.034623697 0.011110603
-0.037719198 0.245288 0.04661367 0.06664285 0.16794625 0.09525415 -0.025377946 -0.03823313
-0.08312593 0.23052326 0.010288527 -0.017468065 0.33640096 0.50095135 0.011721807 -0.058811136
0.13161558 0.060582113 -0.0067949183 -0.038782757 0.09378158 0.012817908 -0.010756825 -0.0370216
0.1506111 0.08848079 0.013985745 -0.06209863 0.11794957 -0.21715629 0.08705865 -0.0073818043
0.116064504 0.08967875 -0.026216831 -0.0341944 0.05578713 -0.629836 -0.045400284 0.04964393
0.04098281 0.35282037 0.022556007 0.05510459 -0.0011785955 -0.028953353 -0.023597382 0.07073156
0.023970509 0.51110727 -0.0364977 -0.14593592 -0.09783122 -0.24041481 -0.02471108 -0.10516378
0.10775772 0.47446835 0.05994597 0.0033391176 -0.06662625 -0.43669516 -0.011085599 0.09515631
-0.025074575 -0.010474204 -0.0059444066 -0.009142066 0.25991127 0.13306284 0.0065336972 0.020941542
0.031766295 -0.051725514 -0.019448174 0.062224764 -0.1054181 0.10990596 0.015168151 -0.0028161176
-0.0119713405 -0.0330069 -0.040135104 -0.06723156 -0.692797 -0.11332614 0.040813822 0.0052124383
0.0018249892 -0.16059592 -0.07565883 0.06400928 -0.025799805 -0.5064351 -0.01027041 0.10944455
-0.0041774143 -0.21203585 0.00028974068 0.1375281 0.052236672 -0.5663273 -0.0013024912 0.06780701
0.014289904 -0.19103532 -0.0155183375 -0.01006595 0.25289062 0.09570927 0.00825348 0.010841441
-0.09105764 0.05409281 0.00343114 0.029535238 0.19532965 0.26073614 0.0008578375 0.026513116
-0.049842447 0.12931429 -0.0066340766 -0.037850194 0.110791296 -0.06987729 0.0016806464 0.017502429
00000000: 68d2 ab3b d920 9db9 0e13 29bc 6687 d9bc
00000010: 4255 bb3e 2b13 3ebc 0c50 2c3c a489 7abc
00000020: 92dd 7abc 480f b9bd 1f53 10bd aaa3 f7bc
00000030: 9440 9cbd 65a9 a83d 09a4 103d 7131 0f3d
00000040: a8bc 96bc c198 50bd 872c 083b b40a 493d
00000050: d20f 1fbf 82f3 b33c 704a 113b 26af 3abd
00000060: 55c1 27bd fb46 e83c e646 d73b f8f5 783d
00000070: 2532 af3d 2d85 c9be f8cf db3b e2a6 06bb
00000080: bba1 12be cdbc 473d 6845 ddbc 9662 203c
00000090: 665b 513e f159 a0be 0989 793c 85a9 76bd
000000a0: 2c88 e4bd 7b94 85bd c0e1 a6bc aa81 0cbe
000000b0: 2e32 183e dfa7 4f3e e981 eabb 3145 dfbd
000000c0: 8eb3 9ebc 87c3 2d3e 939d c7bc 0963 bfbb
000000d0: b8c9 5dbd e4fd f33d 6035 553c a664 e93c
000000e0: 43b3 ff3a bea4 313e 60b3 0e3c ece8 23bd
000000f0: ac87 83bc da77 42be 46ca b3bc b478 59bd
00000100: 88ee 9d3c 1365 913e 68aa eab8 ff56 e93c
00000110: 7327 813b 2df0 4ebf 43c6 f1bb 0819 7d3d
00000120: 71a1 ad3b c545 6dbe 2b4e 823b 6306 abbd
00000130: 6c1e c9be afb4 32be c79b 95bc 4c3a 97bd
00000140: 6b00 a63d 46d9 67be 248a e8bc 8cdf dbbc
00000150: 7320 86be 95d8 c23c 583e 9b3c caeb 953d
00000160: 4453 513d ada6 23be 6124 fdbc 7ce5 9a3d
00000170: 9cbf d6bb 870e d93e 21d5 a43c 66b9 893d
00000180: 933f d4bc 066a c8bd 77e4 dc3c af33 bfba
00000190: 7d5d 883e 012e a9bd 55aa d7bc ac5e 6cbc
000001a0: 25a1 1c3d 3be3 52be cff4 13bd b24b 76bd
000001b0: a543 e4bd 19fa 9f3c 3b94 f23c bdca 2cbd
000001c0: 4436 b6bb 50b3 70be 3a26 1bbc 34a1 c2bd
000001d0: 8976 09bf 40f2 cf3d 02a7 953b 75d7 37bd
000001e0: b8c8 7bb9 67e2 293e 0e7f dcbc 5dd1 33bd
000001f0: 3f0d 0b3c 533d 113d 94d1 0d3d 3f09 363c
00000200: 727f 1abd c72c 7b3e faed 3e3d 0c7c 883d
00000210: 1afa 2b3e 9c14 c33d 69e5 cfbc 589a 1cbd
00000220: ed3d aabd 4a0e 6c3e 3691 283c 3019 8fbc
00000230: bf3c ac3e 593e 003f d20c 403c f2e3 70bd
00000240: 3cc6 063e f324 783d e8a7 debb abda 1ebd
00000250: 8f10 c03d 3402 523c 653d 30bc f6a3 17bd
00000260: cc39 1a3e 6b35 b53d 7724 653c 225b 7ebd
00000270: 8b8f f13d 385e 5ebe ce4b b23d 10e3 f1bb
00000280: 3ab3 ed3d 7ea9 b73d aec4 d6bc 6d0f 0cbd
00000290: 0c81 643d ef3c 21bf a6f5 39bd 6f57 4b3d
000002a0: 97dd 273d dfa4 b43e 60c7 b83c 5ab5 613d
000002b0: 1a7b 9aba 952f edbc 4c4f c1bc b5db 903d
000002c0: cd5d c43c edd7 023f 9d7e 15bd 3a70 15be
000002d0: bc5b c8bd 4d2f 76be e46e cabc 1c60 d7bd
000002e0: 14b0 dc3d 84ed f23e e889 753d 19d5 5a3b
000002f0: 5873 88bd 8296 dfbe 5fa0 35bc 50e1 c23d
00000300: 3269 cdbc ff9b 2bbc 4cc9 c2bb 9bc8 15bc
00000310: 1713 853e a041 083e a018 d63b 998d ab3c
00000320: 601d 023d 22de 53bd c751 9fbc 65df 7e3d
00000330: 72e5 d7bd 6016 e13d d683 783c 9d8e 38bb
00000340: 7123 44bc 3e32 07bd b564 24bd b3b0 89bd
00000350: 255b 31bf 8917 e8bd 652c 273d 1acd aa3b
00000360: 7a34 ef3a 4273 24be 04f3 9abd 4c17 833d
00000370: 1d5a d3bc bba5 01bf 3945 28bc 7724 e03d
00000380: b1e2 88bb ed1f 59be 56e8 9739 2bd4 0c3e
00000390: 1ff6 553d d3fa 10bf 5ab8 aaba 67de 8a3d
000003a0: 3420 6a3c c39e 43be a040 7ebc a8eb 24bc
000003b0: e17a 813e 3903 c43d 9b39 073c 4da0 313c
000003c0: 6e7c babd 6c90 5d3d fadc 603b e2f3 f13c
000003d0: 7f04 483e 357f 853e 80e0 603a 0932 d93c
000003e0: 9827 4cbd f76a 043e ab62 d9bb ce08 1bbd
000003f0: 8ce6 e23d d31b 8fbd 2349 dc3a 4161 8f3c

fc1.bias f4 [256]
0.12029503 0.3040616 -0.030485967 0.15517576 -0.22097221 0.07654003 0.042097855 0.121647954
0.24931419 0.29290977 0.27740085 -0.32761914 0.079771146 -0.3140733 0.21003102 -0.26196077
-0.4065492 -0.14844938 0.014977703 -0.2889223 -0.22752377 0.29105565 -0.12569614 0.31009424
0.28794357 0.14303304 -0.2725989 -0.077346474 0.18527073 -0.18144648 -0.09720388 0.2229356
0.13560908 -0.103671685 -0.15934706 0.024809796 -0.2631696 0.18728878 -0.11830715 -0.48708126
-0.13230202 -0.1164131 0.091388926 -0.34732744 -0.12011822 0.06489456 0.12361856 -0.23003149
0.16194439 -0.009376244 -0.14141637 -0.38525844 0.02369072 -0.077377535 -0.23877355 -0.08464932
0.023428028 -0.078717165 0.06606872 -0.23599416 -0.2405967 0.33205974 -0.073359735 0.30250466
0.24639112 -0.12011046 -0.3471839 0.072725646 -0.11296845 -0.15726566 -0.11427537 -0.016814345
-0.2155952 0.12169826 -0.40740383 0.12085419 -0.052013315 0.0013471119 0.3655891 0.0075376956
-0.14688136 -0.27472317 -0.29144168 -0.41927654 0.2313534 -0.32378417 0.05561021 -0.27933022
-0.07808956 -0.1064026 -0.033125073 -0.18364996 -0.26960245 0.49114335 -0.05325194 -0.057230953
0.1502149 0.14821611 -0.11464181 -0.15566455 0.124716006 0.35853422 -0.3600803 0.017442575
-0.2290957 -2.371694e-05 0.3299278 0.04975618 -0.124172375 -0.521357 -0.09478329 -0.28554085
0.10073555 -0.13439412 0.13610756 -0.2015619 -0.022536695 -0.07020794 0.03608385 0.17547883
0.18966493 0.24929515 -0.025528224 -0.018181514 0.2783769 -0.35223052 0.42818007 -0.09978264
0.2598706 -0.0027885723 0.03161256 -0.026377201 0.19664024 0.04967885 -0.34658754 0.15407285
0.35490748 0.10600143 0.3873881 0.23929825 0.3077401 -0.21557856 0.056848664 0.11099782
-0.000772971 0.15078714 -0.124558814 -0.22172152 0.003872279 0.24399254 0.13490795 -0.117935814
-0.14437264 0.048388034 0.15416643 0.01988581 -0.08184939 0.37532306 -0.04264594 -0.1451434
-0.1408903 -0.3809001 -0.020523269 0.39522582 0.104928926 -0.35903832 -0.022610817 0.032098364
-0.004713843 -0.28256384 0.115675464 -0.13999075 -0.17514703 -0.040514078 0.034286875 -0.15933965
-0.08600538 -0.13902754 -0.14879209 0.15786462 -0.017807094 0.08617861 0.19098036 -0.32822528
-0.14227465 0.031634536 -0.04873028 0.21198969 0.22712745 -0.13131641 -0.02039965 0.31934062
-0.020283932 -0.09425611 0.091682374 -0.3078572 0.2073354 -0.057186484 -0.5076189 0.24071085
-0.48972696 0.029664133 0.10613325 -0.15127383 -0.12847675 0.100293085 0.25111172 0.2563743
0.31272942 0.14137731 0.20563659 0.33543748 -0.20944473 -0.13184568 -0.05755862 -0.08740602
-0.04744235 -0.42751643 -0.19817446 0.12513381 0.090828285 0.11433173 -0.21694703 -0.32752627
0.067241624 -0.09090007 -0.3376899 0.4325634 0.058112238 0.050220963 0.06269688 -0.063733675
-0.088548206 -0.14163539 0.06411442 -0.12893055 -0.14232123 0.088384084 0.06940246 0.1696139
0.015406341 0.47111642 -0.25398228 -0.116339535 0.39327502 0.26372543 -0.06904415 0.1670572
-0.18218069 0.15259919 -0.108182885 0.18243079 0.25407457 0.18637381 -0.022969346 -0.14109348
00000000: 3e5d f63d f6ad 9b3e b5bd f9bc 65e6 1e3e
00000010: 8a46 62be 05c1 9c3d cd6e 2c3d 9022 f93d
00000020: 384c 7f3e 45f8 953e 7c07 8e3e b2bd a7be
00000030: 0e5f a33d 37ce a0be 5f12 573e b91f 86be
00000040: 3727 d0be 1d03 18be 0a65 753c a0ed 93be
00000050: fefb 68be 3f05 953e 7db6 00be acc4 9e3e
00000060: 576d 933e 4177 123e 1592 8bbe d467 9ebd
00000070: 9cb7 3d3e 1bcd 39be d412 c7bd 3b49 643e
00000080: 1bdd 0a3e d251 d4bd e02b 23be ea3d cb3c
00000090: 2abe 86be a1c8 3f3e 054b f2bd b762 f9be
000000a0: 2e7a 07be fe69 eebd 1e2a bb3d e7d4 b1be
000000b0: 8b00 f6bd 70e7 843d ba2b fd3d 608d 6bbe
000000c0: c0d4 253e d19e 19bc 74cf 10be 9840 c5be
000000d0: 0a13 c23c 1d78 9ebd 0e81 74be 9f5c adbd
000000e0: 23ec bf3c 7736 a1bd 094f 873d 74a8 71be
000000f0: fb5e 76be bc03 aa3e a13d 96bd e4e1 9a3e
00000100: f44d 7c3e 79fc f5bd 17c2 b1be 2ff1 943d
00000110: 015c e7bd 400a 21be 3509 eabd 3dbe 89bc
00000120: fdc4 5cbe f03c f93d 3c97 d0be 6782 f73d
00000130: ea0b 55bd 9391 b03a 7f2e bb3e c6fe f63b
00000140: 1168 16be 84a8 8cbe d837 95be 6aab d6be
00000150: e8e7 6c3e 0ac7 a5be 88c7 633d 5f04 8fbe
00000160: 6bed 9fbd 9be9 d9bd 28ae 07bd bc0e 3cbe
00000170: 5509 8abe 2477 fb3e b51e 5abd 016b 6abd
00000180: efd1 193e f7c5 173e 53c9 eabd 8766 1fbe
00000190: 1b6b ff3d cc91 b73e 725c b8be bbe3 8e3c
000001a0: 1098 6abe bef3 c6b7 4cec a83e 23cd 4b3d
000001b0: 164e febd a777 05bf be1d c2bd 6932 92be
000001c0: 714e ce3d 9d9e 09be c85f 0b3e 3e66 4ebe
000001d0: e09e b8bc 2ec9 8fbd a9cc 133d b9b0 333e
000001e0: 8637 423e 3a47 7f3e 9120 d1bc 66f1 94bc
000001f0: 6b87 8e3e 8f57 b4be 6b3a db3e d75a ccbd
00000200: c20d 853e 7bc0 36bb 2c7c 013d 0015 d8bc
00000210: 0f5c 493e 0d7c 4b3d ec73 b1be 46c5 1d3e
00000220: 6fb6 b53e 4717 d93d bc57 c63e 9a0a 753e
00000230: 1c90 9d3e a0c0 5cbe 25da 683d d352 e33d
00000240: 35a1 4aba f267 1a3e b118 ffbd f70a 63be
00000250: 10c6 7d3b 2ed9 793e 4f25 0a3e 5588 f1bd
00000260: 6cd6 13be 8832 463d cedd 1d3e 91e7 a23c
00000270: a7a0 a7bd 582a c03e 82ad 2ebd 79a0 14be
00000280: 8c45 10be 5705 c3be 6a20 a8bc 0a5b ca3e
00000290: fae4 d63d dfd3 b7be 523a b9bc 9379 033d
000002a0: 9576 9abb 35ac 90be 42e7 ec3d bc59 0fbe
000002b0: be59 33be 17f2 25bd 6570 0c3d ef29 23be
000002c0: 9723 b0bd 3c5d 0ebe f45c 18be 43a7 213e
000002d0: 2fe0 91bc 697e b03d 5b90 433e 250d a8be
000002e0: 72b0 11be 3793 013d 6799 47bd d313 593e
000002f0: 1994 683e cf77 06be 2b1d a7bc 9d80 a33e
00000300: 7d2a a6bc 5909 c1bd f8c3 bb3d 759f 9dbe
00000310: bb4f 543e 603c 6abd 50f3 01bf e87c 763e
00000320: 7ebd fabe 3202 f33c 645c d93d 87e7 1abe
00000330: 698f 03be 7666 cd3d b791 803e 7e43 833e
00000340: 121e a03e 37c5 103e 6692 523e 76be ab3e
00000350: ae78 56be 8e02 07be 96c2 6bbd ed01 b3bd
00000360: e952 42bd 6fe3 dabe 3fee 4abe 1423 003e
00000370: 2e04 ba3d c126 ea3d 5d27 5ebe 86b1 a7be
00000380: fab5 893d d129 babd b1e5 acbe f378 dd3e
00000390: 1907 6e3d 7fb4 4d3d 3967 803d cd86 82bd
000003a0: c358 b5bd de08 11be 6c4e 833d 5f06 04be
000003b0: a8bc 11be b702 b53d e022 8e3d 44af 2d3e
000003c0: e16a 7c3c 2c36 f13e f709 82be 6c43 eebd
000003d0: 585b c93e 0507 873e 0567 8dbd 0b11 2b3e
000003e0: 938d 3abe f642 1c3e fd8e ddbd 23cf 3a3e
000003f0: 1016 823e c7d8 3e3e 362a bcbc cf7a 10be

fc2.weight f4 [128, 258]
-0.2192511 0.0016969251 0.024399031 0.23496522 -0.06653865 -0.13474166 0.07105977 -0.0064191595
-0.12235682 0.20089023 -0.060407057 0.038419798 0.10929212 -0.07523406 -0.21635966 0.052098647
-0.17228389 -0.101085365 -0.18173903 0.015479578 -0.16881882 0.054396886 -0.01457589 -0.03436401
0.33497497 -0.053334426 -0.055620037 -0.103538334 -0.23737751 -0.0036826767 -0.045558877 0.06691119
-0.3048165 -0.014557023 -0.22395317 -0.22359823 -0.14064111 0.032435305 -0.31612748 -0.1351408
-0.35713202 -0.15814988 -0.102659486 -0.043250464 0.035755776 0.018800605 0.035233993 -0.06248407
0.053870965 -0.09889856 0.0054167137 -0.09182648 -0.015472678 -0.18469752 -0.12653022 0.05787678
0.09030748 -0.15282251 -0.08466772 -0.17808011 -0.0060184724 0.117073804 0.25122106 -0.030609386
0.16171016 -0.14143436 -0.14836416 -0.16158836 0.05446354 -0.343097 -0.08500978 0.0042883754
-0.09555137 -0.069526695 0.09206028 0.18324967 0.0728323 -0.065739825 0.122635365 0.0128083555
-0.09502386 0.029516662 -0.13155489 -0.18705545 -0.2322899 0.0005306287 -0.20720953 -0.25642675
-0.017014148 0.0602231 -0.036928132 -0.13667372 -0.083804324 -0.22286184 -0.06387017 -0.07395858
0.13925098 0.020264868 -0.19997527 -0.24891424 0.043638382 0.2347952 -0.0866214 0.052764934
-0.19186303 0.14811987 0.18075725 -0.012831108 -0.14030492 -0.46578005 0.014653841 -0.0098162405
0.009015135 0.030316334 -0.1460447 -0.09139276 0.085065 -0.11904658 -0.044511925 -0.044465937
-0.16158326 -0.26854554 -0.114949636 -0.10696515 -0.28415504 0.11257444 -0.19561334 -0.18561985
0.004161479 -0.07035099 0.055368252 0.06060496 0.03566668 -0.07364283 0.08107406 -0.15653892
0.20612852 0.01153099 0.21287772 -0.033541452 -0.13873339 -0.08329352 0.0034774838 -0.07659516
0.023142546 0.07633717 0.121708386 -0.12555715 0.2458212 0.07953485 -0.13822484 -0.21639898
0.03260376 -0.13990578 -0.26422507 -0.09398236 -0.12906334 0.14886281 -0.002606312 -0.08699733
-0.3454812 -0.12543646 -0.027992822 -0.012411824 -0.15276758 -0.030773824 -0.0981348 -0.07504048
0.0025311732 0.15977822 0.15753901 0.14681174 -0.028975565 0.07404287 0.16430132 0.0134181045
-0.2700982 -0.04284288 0.048969854 0.07043693 -0.057640288 0.09784373 -0.029503107 -0.003480336
-0.22213319 -0.06607536 -0.017817704 0.0342371 0.094217144 -0.012213011 -0.03357798 -0.27348742
0.0975279 -0.11023959 0.13030058 0.0351145 -0.19143791 0.113312215 -0.18632591 0.2309246
-0.24206716 0.14391883 0.11993043 0.12476303 -0.044697303 -0.057885062 -0.2636278 0.007930322
0.12616047 0.14094152 0.10484533 0.21201716 -0.22542034 -0.10816998 0.093547665 0.13769504
-0.14679317 0.063088864 0.053423174 0.033497058 -0.037372448 -0.13386366 0.15320261 0.078729615
-0.03809145 -0.088260815 0.05887244 0.19521 0.05584159 -0.0051043024 0.022405 -0.037795585
-0.11812098 -0.34445134 0.16957198 -0.008883434 -0.021441273 -0.0006786684 -0.17332199 0.034791593
-0.06642198 0.23783502 0.004656248 -0.06419996 -0.01820104 -0.22289564 0.04491831 0.14481293
-0.18597613 0.12169602 -0.09910707 -0.0362433 0.059101153 0.06123801 -0.19533774 -0.13655752
00000000: 5c83 60be 5c6b de3a 7ae0 c73c b99a 703e
00000010: 6a45 88bd b8f9 09be c987 913d d057 d2bb
00000020: 3696 fabd 2bb6 4d3e 646d 77bd 145e 1d3d
00000030: 8cd4 df3d 5114 9abd 638d 5dbe 6465 553d
00000040: 306b 30be d805 cfbd cc19 3abe 0e9e 7d3c
00000050: d7de 2cbe 45cf 5e3d b7cf 6ebc 47c1 0cbd
00000060: d781 ab3e 3375 5abd d6d1 63bd e80b d4bd
00000070: 1713 73be 1059 71bb f29b 3abd bc08 893d
00000080: e910 9cbe 9480 6ebc fb53 65be eff6 64be
00000090: 3904 10be e2da 043d 76db a1be 5a62 0abe
000000a0: 02da b6be 0bf2 21be 233f d2bd 6627 31bd
000000b0: a674 123d ba03 9a3c 8551 103d 4cef 7fbd
000000c0: cda7 5c3d 548b cabd b07e b13b 860f bcbd
000000d0: 1d81 7dbc 5921 3dbe 2391 01be 3410 6d3d
000000e0: 21f3 b83d 817d 1cbe 4566 adbd a25a 36be
000000f0: 9b36 c5bb 64c4 ef3d 0ca0 803e 89c0 fabc
00000100: 5997 253e 2bd4 10be c6ec 17be 6b77 25be
00000110: 2915 5f3d 69aa afbe 9c19 aebd 8085 8c3b
00000120: 70b0 c3bd 0364 8ebd 1a8a bc3d cda5 3b3e
00000130: 1a29 953d 9aa2 86bd 4028 fb3d 23da 513c
00000140: df9b c2bd edcc f13c 53b6 06be 778b 3fbe
00000150: 67dd 6dbe e419 0b3a bc2e 54be 5e4a 83be
00000160: 4161 8bbc 7fac 763d f441 17bd 32f4 0bbe
00000170: 9aa1 abbd e535 64be 5dce 82bd 9977 97bd
00000180: cf97 0e3e 8202 a63c 51c6 4cbe 60e3 7ebe
00000190: 29be 323d 276e 703e 9066 b1bd 0b20 583d
000001a0: be77 44be bcac 173e 6e18 393e 9139 52bc
000001b0: 18ac 0fbe b97a eebe aa16 703c 4cd4 20bc
000001c0: 37b4 133c f659 f83c be8c 15be 212c bbbd
000001d0: 8f36 ae3d b1ce f3bd 2352 36bd ea21 36bd
000001e0: 1576 25be cd7e 89be b76a ebbd 8b10 dbbd
000001f0: c57c 91be 6e8d e63d dd4e 48be 2113 3ebe
00000200: 045d 883b 2e14 90bd d2c9 623d e83c 783d
00000210: 3a17 123d 0dd2 96bd 280a a63d bd4b 20be
00000220: 5b13 533e 7aec 3c3c 9efc 593e c362 09bd
00000230: 2010 0ebe cb95 aabd 7fe6 633b ecdd 9cbd
00000240: 7095 bd3c aa56 9c3d 3f42 f93d 0e92 00be
00000250: 8db8 7b3e 2be3 a23d d08a 0dbe b297 5dbe
00000260: 858b 053d 7643 0fbe 8248 87be d379 c0bd
00000270: 2e29 04be 7e6f 183e a9ce 2abb a82b b2bd
00000280: e9e2 b0be 6a72 00be 3451 e5bc f75a 4bbc
00000290: 1b6f 1cbe 6319 fcbc e6fa c8bd d3ae 99bd
000002a0: 0ae2 253b e79c 233e e851 213e d155 163e
000002b0: 2a5e edbc caa3 973d 9b3e 283e 9cd7 5b3c
000002c0: 504a 8abe 047c 2fbd 9d94 483d 3d41 903d
000002d0: 3918 6cbd 4b62 c83d 80b0 f1bc 5916 64bb
000002e0: e276 63be 8552 87bd 6ff6 91bc 343c 0c3d
000002f0: ebf4 c03d 1519 48bc 1089 09bd 8b06 8cbe
00000300: b5bc c73d 4bc5 e1bd 846d 053e 39d4 0f3d
00000310: 4d08 44be 3c10 e83d 38cc 3ebe 8077 6c3e
00000320: 74e0 77be 755f 133e 169e f53d c283 ff3d
00000330: 8514 37bd e318 6dbd 39fa 86be 2eee 013c
00000340: 3630 013e f952 103e 26b9 d63d 071b 593e
00000350: 97d4 66be 3988 ddbd eb95 bf3d eeff 0c3e
00000360: f350 16be bc34 813d 42d2 5a3d 3634 093d
00000370: da13 19bd 8e13 09be 25e1 1c3e fe3c a13d
00000380: c805 1cbd 16c2 b4bd 3a24 713d 21e5 473e
00000390: 27ba 643d fe41 a7bb b18a b73c 8bcf 1abd
000003a0: 6ae9 f1bd ed5b b0be 47a4 2d3e d38b 11bc
000003b0: 9ca5 afbc aae8 31ba 527b 31be a181 0e3d
000003c0: 3f08 88bd 068b 733e 7093 983b 457b 83bd
000003d0: 591a 95bc c13e 64be 43fc 373d d749 143e
000003e0: 8770 3ebe c33b f93d a6f8 cabd db73 14bd
000003f0: 0d14 723d b5d4 7a3d 9e06 48be bcd5 0bbe

fc2.bias f4 [128]
0.2555982 -0.20862943 0.03675916 0.01073801 -0.06301339 0.13302259 -0.012905005 -0.11803098
-0.05647776 -0.00434435 -0.15162073 0.019487455 -0.12586063 -0.051533148 -0.2666155 -0.38646144
0.017286556 -0.2625379 -0.14676662 -0.07481391 -0.15899861 -0.090162836 0.18824762 0.075274594
-0.03903497 0.05327486 -0.12544253 0.15654577 0.024258511 0.1787742 -0.1512663 0.13884215
0.1373667 -0.17483594 -0.108111225 0.5617317 -0.09775547 -0.384781 0.13322844 0.15396367
-0.27207437 0.4426111 0.1842041 -0.1704142 -0.07722323 0.22314085 0.14091222 -0.48969105
0.0034651773 -0.25543663 -0.23588295 0.41092116 0.07583438 0.032527305 0.04901949 0.015333398
-0.37112093 0.019350827 -0.030064374 0.100149386 -0.2999162 -0.010437513 0.16812342 -0.2618544
-0.41170523 -0.023844605 0.0027481394 -0.044125643 0.0633153 -0.062060177 -0.087958716 0.15925623
-0.01933045 -0.29418164 0.09592724 -0.038290136 0.105693124 -0.019603178 -0.09542767 -0.05693178
-0.032786265 -0.27165458 -0.14254898 -0.05344971 0.021897212 -0.20248663 -0.16317593 -0.098910294
0.053574346 -0.07180181 0.21189049 0.21127565 -0.07624393 0.04102768 -0.25218678 -0.04960883
-0.06815636 0.02331328 -0.062022634 0.10321314 -0.06418315 0.066090755 0.109844975 0.32737097
0.08786518 -0.3381401 0.093263015 -0.039157815 0.010259077 -0.245412 -0.007386776 0.024924358
0.3604807 -0.07447728 0.024475252 -0.130296 0.01426192 0.20520414 -0.03156402 -0.17048123
-0.06125221 0.111673534 0.08597822 -0.17477505 -0.07361521 0.01879646 -0.05996092 -0.095676765
00000000: c4dd 823e f4a2 55be c690 163d 7aee 2f3c
00000010: 2a0d 81bd 1337 083e 846f 53bc 3aba f1bd
00000020: 3955 67bd 0d5b 8ebb 7742 1bbe 28a4 9f3c
00000030: 9ce1 00be 6c14 53bd d481 88be 46de c5be
00000040: 899c 8d3c 5e6b 86be fd49 16be 0938 99bd
00000050: 88d0 22be 4ba7 b8bd fcc3 403e 9129 9a3d
00000060: 22e3 1fbd bd36 5a3d 0274 00be 894d 203e
00000070: c9b9 c63c 9510 373e 8ee5 1abe a32c 0e3e
00000080: dba9 0c3e 3108 33be 6b69 ddbd a6cd 0f3f
00000090: 0534 c8bd 0402 c5be 096d 083e a7a8 1d3e
000000a0: 554d 8bbe ec9d e23e 00a0 3c3e 0f81 2ebe
000000b0: 3627 9ebd 097f 643e 4b4b 103e c9b8 fabe
000000c0: 0718 633b 97c8 82be 4d8b 71be 4264 d23e
000000d0: 0e4f 9b3d 5a3b 053d a9c8 483d ef38 7b3c
000000e0: 9003 bebe a085 9e3c 9049 f6bc 1f1b cd3d
000000f0: 9e8e 99be 1a02 2bbc 8c28 2c3e c811 86be
00000100: 07cb d2be c355 c3bc 211a 343b 17bd 34bd
00000110: 74ab 813d d032 7ebd b323 b4bd 1114 233e
00000120: e45a 9ebc fa9e 96be 8075 c43d 1ed6 1cbd
00000130: a375 d83d d896 a0bc 956f c3bd 4c31 69bd
00000140: e44a 06bd 4f16 8bbe 5cf8 11be 15ee 5abd
00000150: c861 b33c a858 4fbe 9717 27be 7b91 cabd
00000160: c670 5b3d d40c 93bd d2f9 583e a558 583e
00000170: c725 9cbd a40c 283d a01e 81be a132 4bbd
00000180: 9095 8bbd 7efb be3c 720b 7ebd 6961 d33d
00000190: 7572 83bd 975a 873d 67f6 e03d 2b9d a73e
000001a0: a9f2 b33d b320 adbe ae00 bf3d f263 20bd
000001b0: b015 283c 494d 7bbe c50c f2bb 2b2e cc3c
000001c0: ed90 b83e 8b87 98bd 5380 c83c 516c 05be
000001d0: d4aa 693c 0921 523e 4649 01bd a292 2ebe
000001e0: 99e3 7abd 18b5 e43d 5915 b03d 3bf8 32be
000001f0: 92c3 96bd 09fb 993c 9599 75bd 2ef2 c3bd

fc3.weight f4 [51, 128]
-0.095031574 -0.0773498 -0.09673404 -0.15458298 -0.41836393 -0.19108985 0.22041409 -0.08713981
-0.42919278 0.13453405 -0.029811066 -0.07548025 -0.0429386 -0.10730529 -0.04428407 -0.019745177
-0.43336874 -0.051797982 -0.30533528 -0.029117702 -0.06743673 -0.03650118 -0.24085724 -0.1910633
-0.043547463 -0.69701433 -0.14277884 -0.17240196 -0.2900547 0.12493182 -0.6434974 -0.24120662
-0.15488884 -0.06854257 -0.6060892 -0.9343229 -0.022551838 -0.054085024 -0.04164375 -0.34234375
-0.13274144 -0.91970366 -0.42603767 -0.021572338 -0.0051677884 0.18929757 -0.24806385 -0.059639778
-0.015516695 -0.16330421 0.0879589 -0.634922 0.13689461 -1.0171506 0.18777707 -0.21715064
-0.28332603 -0.4061638 0.11143254 -0.017728949 -0.09881703 -0.0023546822 -0.0029144315 -0.14871001
-0.11404272 0.2163441 -0.9283938 -0.10360948 -0.49409917 -0.4705347 -0.3855976 -0.47304177
-0.16802011 -0.34607145 0.1372591 -0.39101762 0.106984064 -0.20994172 -0.030509816 -0.12117437
-0.09766568 -0.19012856 -0.41143087 -0.030012367 0.13408193 -0.2565428 -0.08121509 -0.11385477
0.11758399 -0.034161653 -0.22150718 -0.58518326 0.10710956 -0.043488264 -0.090252645 0.1570252
-0.056169916 -0.07498315 -0.14492981 0.27346572 0.15569803 -0.2721247 -0.35206574 -0.17711028
-0.12658347 -0.10259085 -0.006489462 -0.23401543 -0.05119276 -0.06877608 -0.027351474 0.19808926
-0.19150126 0.13463272 -0.23419021 -0.05474393 0.16610186 -0.29920834 -0.0236417 -0.09736404
-0.07245859 -0.3283359 -0.15229085 -0.3381024 -0.89186484 -0.19852628 -1.0403349 -0.049190458
-0.10025456 -0.079267226 -0.09693802 -0.15405157 -0.41634214 -0.18993957 0.22245249 -0.08572918
-0.4250451 0.13638411 -0.025045186 -0.07508925 -0.042404696 -0.10865667 -0.04639525 -0.017332565
-0.43642032 -0.05323512 -0.30518186 -0.027208108 -0.068549685 -0.039604757 -0.23882192 -0.19176187
-0.042069796 -0.6995922 -0.1416093 -0.17206235 -0.28768948 0.12704323 -0.64797914 -0.23977719
-0.15331098 -0.069466196 -0.60604596 -0.9340023 -0.022158453 -0.054791257 -0.04165992 -0.3420129
-0.13432209 -0.91999036 -0.4242795 -0.020003704 -0.0064158267 0.18953395 -0.24895239 -0.059177227
-0.02015486 -0.1627751 0.086809464 -0.6359865 0.13789976 -1.019473 0.18825221 -0.21680048
-0.28369233 -0.4062481 0.1105196 -0.016394919 -0.09983206 0.00035162136 -0.004499164 -0.15195642
-0.1109702 0.21718758 -0.9280574 -0.10359284 -0.4936337 -0.47150162 -0.38741097 -0.4730171
-0.1691486 -0.34724304 0.13853317 -0.39367348 0.109608866 -0.21055135 -0.030670809 -0.11987986
-0.10134709 -0.19301343 -0.41232508 -0.02811478 0.13197733 -0.2578566 -0.08223615 -0.10947746
0.11793135 -0.036695346 -0.21996588 -0.5902388 0.11267524 -0.046407033 -0.0890541 0.15914337
-0.055511482 -0.078273 -0.14619425 0.26861092 0.15680164 -0.2744141 -0.3525023 -0.17651647
-0.12339546 -0.10338467 -0.0053212917 -0.23033135 -0.049951486 -0.06575084 -0.028024504 0.19987541
-0.1896876 0.13669057 -0.23455402 -0.05020693 0.17250787 -0.30077833 -0.026309704 -0.09592006
-0.069476634 -0.32858515 -0.15303816 -0.3411666 -0.8920205 -0.20002225 -1.0414073 -0.049094502
00000000: ea9f c2bd 9269 9ebd 7f1c c6bd 004b 1ebe
00000010: cc33 d6be 0fad 43be 3bb4 613e 5b76 b2bd
00000020: 28bf dbbe 4bc3 093e 5636 f4bc 6495 9abd
00000030: 63e0 2fbd e0c2 dbbd 3763 35bd a3c0 a1bc
00000040: 82e2 ddbe 1f2a 54bd e854 9cbe 3f88 eebc
00000050: 451c 8abd 4382 15bd 48a3 76be 19a6 43be
00000060: d35e 32bd 886f 32bf 9e34 12be 248a 30be
00000070: 0d82 94be 41dc ff3d 3fbc 24bf defe 76be
00000080: 2e9b 1ebe 0c60 8cbd a928 1bbf c92f 6fbf
00000090: a2be b8bc 4288 5dbd a392 2abd ae47 afbe
000000a0: 5fed 07be b371 6bbf 9c21 dabe 79b8 b0bc
000000b0: 8d56 a9bb 39d7 413e 7304 7ebe d748 74bd
000000c0: bc39 7ebc 3839 27be cc23 b43d 408a 22bf
000000d0: 1a2e 0c3e fe31 82bf a248 403e bd5c 5ebe
000000e0: 1c10 91be b4f4 cfbe be36 e43d 4d3c 91bc
000000f0: 9560 cabd 0351 1abb 0c00 3fbb 7047 18be
00000100: 3b8f e9bd 4f89 5d3e 37ab 6dbf 3531 d4bd
00000110: 91fa fcbe ede9 f0be 0c6d c5be 8832 f2be
00000120: 770d 2cbe 4730 b1be a68d 0c3e 7633 c8be
00000130: 761a db3d f6fa 56be b9ef f9bc 452a f8bd
00000140: f204 c8bd 10b1 42be 11a7 d2be 7fdc f5bc
00000150: c64c 093e 9459 83be 1954 a6bd b12c e9bd
00000160: e0cf f03d 17ed 0bbd c7d2 62be 92ce 15bf
00000170: 425c db3d c020 32bd 61d6 b8bd 37cb 203e
00000180: 6d12 66bd c490 99bd 7b68 14be b303 8c3e
00000190: 4e6f 1f3e ee53 8bbe f641 b4be 665c 35be
000001a0: 199f 01be 271b d2bd 8ea5 d4bb bea1 6fbe
000001b0: 80af 51bd 79da 8cbd 3310 e0bc e9d7 4a3e
000001c0: e818 44be 29dd 093e 8fcf 6fbe 2c3b 60bd
000001d0: 9b16 2a3e d631 99be 3dac c1bc cc66 c7bd
000001e0: 2b65 94bd a51b a8be 22f2 1bbe c21b adbe
000001f0: 4151 64bf 794a 4bbe b229 85bf ef7b 49bd
00000200: 4352 cdbd db56 a2bd 7187 c6bd b2bf 1dbe
00000210: cc2a d5be 857f 42be 96ca 633e c892 afbd
00000220: 839f d9be 47a8 0b3e 902b cdbc 65c8 99bd
00000230: 8cb0 2dbd 6387 debd f208 3ebd 06fd 8dbc
00000240: 7c72 dfbe 120d 5abd cc40 9cbe 8ae3 debc
00000250: c763 8cbd 9938 22bd bc8d 74be 395d 44be
00000260: 6151 2cbd 7918 33bf 0702 11be 1d31 30be
00000270: 094c 93be 9f17 023e f6e1 25bf 2788 75be
00000280: 8efd 1cbe 4b44 8ebd d425 1bbf c61a 6fbf
00000290: a585 b5bc cc6c 60bd 98a3 2abd 511c afbe
000002a0: bb8b 09be 7d84 6bbf 2a3b d9be cfde a3bc
000002b0: db3b d2bb 3015 423e 60ed 7ebe d263 72bd
000002c0: ce1b a5bc 84ae 26be 29c9 b13d 03d0 22bf
000002d0: 9835 0d3e 177e 82bf 30c5 403e f200 5ebe
000002e0: 1f40 91be c0ff cfbe 1a58 e23d a34e 86bc
000002f0: c074 ccbd d259 b839 b96d 93bb 779a 1bbe
00000300: 5844 e3bd 6c66 5e3e 2b95 6dbf 7c28 d4bd
00000310: 8ebd fcbe a968 f1be bb5a c6be 4c2f f2be
00000320: 4a35 2dbe d7c9 b1be a4db 0d3e 928f c9be
00000330: 9d7a e03d c69a 57be 5941 fbbc 9283 f5bd
00000340: 108f cfbd 50a5 45be 461c d3be f850 e6bc
00000350: 1125 073e c805 84be 6d6b a8bd b835 e0bd
00000360: fe85 f13d dc4d 16bd bc3e 61be e419 17bf
00000370: 47c2 e63d 4d15 3ebd ff61 b6bd 7bf6 223e
00000380: 0260 63bd 984d a0bd f2b3 15be 5f87 893e
00000390: 9c90 203e 0180 8cbe 2e7b b4be bcc0 34be
000003a0: c2b6 fcbd 58bb d3bd 3b5e aebb fbdb 6bbe
000003b0: ee99 4cbd 60a8 86bd a593 e5bc 24ac 4c3e
000003c0: 773d 42be 9df8 0b3e ee2e 70be c8a5 4dbd
000003d0: e7a5 303e 9eff 99be 7387 d7bc bd71 c4bd
000003e0: c449 8ebd 503c a8be 09b6 1cbe 63ad aebe
000003f0: 755b 64bf a2d2 4cbe d64c 85bf 5117 49bd

fc3.bias f4 [51]
-0.27723238 -0.26186502 -0.23458447 -0.5580195 -0.5667395 -0.5863165 -0.5486539 -0.63582975
-0.6145173 -0.59393543 -0.6273902 -0.67804027 -0.70773846 -0.7619043 -0.789131 -0.8104057
-0.84203327 -0.80953836 -0.8349221 -0.9047709 -0.97718096 -1.008214 -1.0515126 -0.88817924
-0.4834995 0.2299435 -0.00826723 0.069175474 0.13009118 0.09651521 0.03853448 0.10645602
0.2139987 0.2848965 0.17645514 0.17948422 0.16575009 0.05776103 -0.042962912 -0.038524102
-0.07881877 -0.13124655 -0.1661393 -0.22628409 -0.2791507 -0.39181942 -0.39261076 -0.5566274
-0.45645022 -0.4141849 -0.38697478
00000000: 67f1 8dbe 2c13 86be e936 70be 5eda 0ebf
00000010: d715 11bf d718 16bf 9574 0cbf bdc5 22bf
00000020: 0151 1dbf 270c 18bf a59c 20bf 0c94 2dbf
00000030: 592e 35bf 290c 43bf 7d04 4abf bf76 4fbf
00000040: 7e8f 57bf e83d 4fbf 74bd 55bf 119f 67bf
00000050: 8828 7abf 280d 81bf f797 86bf b75f 63bf
00000060: 3f8d f7be 4f76 6b3e 4773 07bc dfab 8d3d
00000070: 9f36 053e c4a9 c53d 55d6 1d3d 9d05 da3d
00000080: 7a22 5b3e f4dd 913e a8b0 343e b6ca 373e
00000090: 64ba 293e d496 6c3d e1f9 2fbd 73cb 1dbd
000000a0: bc6b a1bd 7f65 06be 6c20 2abe 04b7 67be
000000b0: d7ec 8ebe 8e9c c8be 4704 c9be 227f 0ebf
000000c0: d8b3 e9be 0b10 d4be 8f21 c6be
