data/Agent1_Actor_checkpoint_target.pth (torch_old, 159687 bytes, 10 tensors)

fc1.weight f4 [256, 24]
-0.04607513 0.29105544 -0.017822044 0.09534191 0.17483342 0.08133517 0.04766551 0.20279026
-0.069885276 0.33343664 -0.05923448 0.10418258 0.13120557 -0.12554316 0.0013402177 0.15441468
-0.07140667 0.32452568 0.039215248 -0.14102376 0.042910583 -0.4314573 0.0060284133 -0.096945554
0.20590849 0.16306046 -0.0443548 -0.03449493 -0.1114512 -0.030945003 0.060298502 0.01347102
0.196733 0.23373674 0.04441019 -0.02134773 -0.12388 -0.21338989 -0.045577303 0.048820604
0.09002421 0.17353387 0.03109771 -0.03263371 -0.087379225 -0.45834878 -0.02466471 -0.03416356
0.056855313 0.2524783 -0.0012567416 0.035945468 0.057213098 0.004714897 0.03234059 0.033154324
0.10273549 0.35065597 0.0032274039 0.102008164 0.06310621 -0.15590395 -0.0208377 0.089208305
-0.011083557 0.30446705 -0.0018722189 -0.10536183 0.084616 -0.23448151 0.011852314 -0.08765213
-0.015679836 0.44029456 -0.055360094 0.04627523 -0.06928098 -0.13715598 -0.055134583 0.070898496
-0.020627143 0.47401407 -0.05459199 0.01433002 0.023598336 -0.3447045 0.048954234 0.028099054
-0.012127752 0.44780293 -0.015263245 0.10447194 0.084802315 -0.47848168 0.03582496 0.14573464
0.10107521 0.21925713 0.012728803 -0.046982598 0.26634473 -0.07882688 -0.0032904078 -0.03544033
0.059948284 0.15148605 0.0090714395 -0.165525 0.04934042 -0.18172133 -0.026668375 -0.09278609
0.049375597 0.048034914 0.010989118 -0.09837387 -0.1493526 -0.18065417 -0.072082065 -0.09527437
0.07058373 0.2751724 -0.017590886 -0.026569627 -0.0048573078 -0.17976451 -0.018755557 0.0017971209
0.12999596 0.23237659 -0.04534099 0.019152919 0.043148696 -0.2687075 0.037871007 0.00920994
0.13525596 0.2878494 0.023440788 0.118432276 -0.04083309 -0.26631495 0.007758719 0.12858969
0.1448119 0.055590663 -0.048508793 -0.11669072 -0.026011877 -0.1819972 -0.0383342 -0.13751277
0.17456475 0.10352518 -0.02265026 0.08998482 0.021947367 -0.16172461 0.033620138 0.04036565
0.094834805 0.15237501 -0.04310393 0.03631075 0.010691809 -0.09550599 -0.0052767694 -0.022210428
-0.047589894 0.04858995 -0.0613238 0.040424496 0.41344562 -0.17231408 0.03264458 0.012771701
0.03530104 0.06065184 0.062817544 0.040967267 0.113446556 -0.14719586 -0.021190992 0.059384212
0.018696448 -0.016795298 0.04653752 -0.04019669 -0.28421536 -0.0069927117 -0.0362776 -0.04540238
0.017046854 -0.037920933 -0.01812798 -0.03900381 -0.28038487 -0.116477065 0.0056221294 -0.031786177
-0.051685557 -0.002234575 0.02361319 -0.013136514 0.07593094 -0.07413738 -0.042174667 0.008230823
-0.089889705 -0.029839942 0.062833734 -0.045530956 0.32153285 -0.040912658 -0.010630376 -0.07526818
0.013292098 0.1395121 0.018049078 -0.018922748 0.15579137 0.0022826528 0.042508952 -0.123072855
-0.037602134 0.22180967 0.021339843 -0.08817793 0.16836675 -0.10173146 -0.0038350145 -0.1097024
0.06341655 0.14929658 -0.039815567 -0.11962592 0.22306366 -0.21921511 0.0039546667 -0.115380056
0.005510607 -0.10776384 0.02726683 0.019207234 -0.34072012 -0.30484968 -0.021546464 0.05772686
0.00026987083 -0.11597582 0.02360034 -0.04223002 -0.1640366 -0.03534172 -0.039264075 -0.04696048
00000000: 47b9 3cbd 3805 953e 89ff 91bc 9f42 c33d
00000010: 8807 333e 0e93 a63d e93c 433d 40a8 4f3e
00000020: 0320 8fbd 35b8 aa3e db9f 72bd ad5d d53d
00000030: c15a 063e 638e 00be 3eaa af3a e21e 1e3e
00000040: a93d 92bd 3b28 a63e 2ba0 203d 8868 10be
00000050: 02c3 2f3d f9e7 dcbe ff89 c53b 648b c6bd
00000060: add9 523e 52f9 263e 61ad 35bd 8e4a 0dbd
00000070: 8740 e4bd 6080 fdbc 90fb 763d 8eb5 5c3c
00000080: 6074 493e af58 6f3e 76e7 353d 6fe1 aebc
00000090: ccb4 fdbd e182 5abe 44af 3abd 1df8 473d
000000a0: 9d5e b83d ddb2 313e a0c0 fe3c edaa 05bd
000000b0: e1f3 b2bd b1ac eabe a50d cabc 17ef 0bbd
000000c0: 1ee1 683d d644 813e 40b9 a4ba 8e3b 133d
000000d0: 4858 6a3d 6c7f 9a3b 9177 043d d4cc 073d
000000e0: fc66 d23d 2e89 b33e da82 533b a8e9 d03d
000000f0: d43d 813d 49a5 1fbe d3b3 aabc d8b2 b63d
00000100: cf97 35bc 1be3 9b3e 3e65 f5ba f1c7 d7bd
00000110: 274b ad3d ec1b 70be 3530 423c f682 b3bd
00000120: 0073 80bc 4a6e e13e 44c1 62bd 188b 3d3d
00000130: 30e3 8dbd 9e72 0cbe cdd4 61bd 3b33 913d
00000140: 41fa a8bc f9b1 f23e da9b 5fbd 76c8 6a3c
00000150: 4c51 c13c 1c7d b0be 3c84 483d fd2f e63c
00000160: 7bb3 46bc 6d46 e53e b112 7abc 62f5 d53d
00000170: d6ac ad3d 8dfb f4be 31bd 123d 763b 153e
00000180: 8500 cf3d f184 603e 788c 503c d370 40bd
00000190: 565e 883e fd6f a1bd e2a3 57bb e129 11bd
000001a0: 558c 753d 291f 1b3e 60a0 143c 637f 29be
000001b0: 2e19 4a3d 2815 3abe a377 dabc a206 bebd
000001c0: 113e 4a3d 42c0 443d b40b 343c 3d78 c9bd
000001d0: e3ef 18be 68fd 38be c39f 93bd 351f c3bd
000001e0: 348e 903d 66e3 8c3e c31a 90bc 8ca8 d9bc
000001f0: 0d2a 9fbb 3014 38be 41a5 99bc 5f8d eb3a
00000200: a91d 053e 21f4 6d3e 79b7 39bd 95e6 9c3c
00000210: b0bc 303d 0894 89be a11e 1b3d 4ae5 163c
00000220: 8a80 0a3e ff60 933e e506 c03c 9f8c f23d
00000230: 9940 27bd 6f5a 88be da3c fe3b 04ad 033e
00000240: 9249 143e 09b3 633d 28b1 46bd 8bfb eebd
00000250: dc16 d5bc 795d 3abe 5204 1dbd 26d0 0cbe
00000260: 1ac1 323e 0205 d43d 0a8d b9bc f649 b83d
00000270: f7ca b33c 239b 25be 45b5 093d 7456 253d
00000280: c038 c23d 3208 1c3e bf8d 30bd 95ba 143d
00000290: b22c 2f3c a598 c3bd c0e8 acbb a5f2 b5bc
000002a0: 9fed 42bd 4106 473d aa2e 7bbd 2894 253d
000002b0: 25af d33e 1a73 30be 53b6 053d 6640 513c
000002c0: d397 103d 106e 783d 7ca6 803d 4bcd 273d
000002d0: ab56 e83d 83ba 16be bb98 adbc dc3c 733d
000002e0: 4b29 993c 4b96 89bc 209e 3e3d 49a5 24bd
000002f0: ad84 91be 1e23 e5bb d297 14bd d9f7 39bd
00000300: d8a5 8b3c fb52 1bbd 2181 94bc 76c2 1fbd
00000310: 9b8e 8fbe 878b eebd d739 b83b 3932 02bd
00000320: 3cb4 53bd f371 12bb 7370 c13c 893a 57bc
00000330: ae81 9b3d 57d5 97bd 58bf 2cbd 93da 063c
00000340: 1818 b8bd e572 f4bc f9ae 803d ab7e 3abd
00000350: f49f a43e 0894 27bd 072b 2ebc 3426 9abd
00000360: 1ac7 593c 43dc 0e3e a9db 933c e103 9bbc
00000370: c687 1f3e 8f98 153b de1d 2e3d 9f0d fcbd
00000380: b204 1abd 1322 633e e5d0 ae3c a196 b4bd
00000390: 5568 2c3e 9558 d0bd de54 7bbb a7ab e0bd
000003a0: 89e0 813d 34e1 183e a615 23bd 6ffe f4bd
000003b0: cd6a 643e ed79 60be 2696 813b 614c ecbd
000003c0: 5292 b43b 4ab3 dcbd b05e df3c 7d58 9d3c
000003d0: de72 aebe 4215 9cbe 3682 b0bc 0073 6c3d
000003e0: 737d 8d39 bb84 edbd 8055 c13c 63f9 2cbd
000003f0: 36f9 27be 7bc2 10bd 5ed3 20bd a259 40bd

fc1.bias f4 [256]
0.33853197 0.2780585 -0.15517902 0.099659294 -0.21360016 -0.051874477 -0.053259015 0.12676954
0.20699903 0.08355814 0.08231872 -0.21407247 -0.09211174 -0.12002533 0.29666647 -0.14361094
-0.1400039 -0.1252206 -0.09073295 -0.24006273 -0.19972181 0.2684764 -0.025451478 0.17302494
-0.07807725 0.04594534 -0.1979515 -0.06867838 -0.15806253 0.19029546 -0.14158858 0.018815313
-0.087837726 -0.29898226 -0.25917315 0.103702374 -0.20911892 0.09043287 -0.19592628 -0.41434532
-0.26265714 -0.039304256 0.15059121 -0.06806455 -0.3649104 -0.056188483 0.20989528 -0.17059891
-0.037919983 0.051844817 -0.19142267 -0.27407214 0.1070389 -0.30576426 -0.0062557734 -0.033045094
0.099976406 -0.052975792 0.1240642 -0.17382033 -0.07488133 0.23299474 -0.27191538 0.07888064
-0.0031737096 -0.3750062 -0.011430576 -0.08207866 -0.1012237 -0.055258904 -0.2865791 -0.12956819
-0.09738321 -0.16900162 -0.17277928 0.16786768 0.020458901 -0.23653793 0.14381114 0.023430154
-0.3200483 -0.3757678 -0.12553443 -0.054886907 -0.2428359 -0.14185297 0.08228056 -0.18249962
-0.3944596 -0.009548602 -0.0872566 -0.052408215 -0.118669406 0.15801825 -0.26981354 -0.06210839
0.16890635 -0.010129504 -0.10806472 0.13550039 0.06816926 0.11895077 -0.28608343 0.11305542
0.0938938 0.110727794 0.028284451 0.0027222626 -0.16688514 -0.026701784 0.061031375 -0.32670718
-0.12742978 -0.3196315 0.1579167 -0.23066622 -0.3287983 -0.014581019 0.34348896 0.09488943
-0.04728028 0.21725415 -0.14374483 0.13588099 0.045553725 -0.21215805 0.19574259 0.001078885
0.06177796 -0.13087699 -0.007891681 -0.23272558 0.19097702 -0.124678284 -0.15182033 0.16237052
-0.18973413 -0.07330635 0.13327976 0.038380124 -0.0168328 -0.17823328 -0.22101155 0.01135405
-0.0257086 0.11543327 0.075857095 -0.14033484 -0.08650641 -0.0085265525 0.17753474 0.23028257
-0.10470097 0.22245602 0.0658763 0.11757185 -0.13258813 0.25608888 -0.10752803 -0.29216167
-0.1565577 -0.112739556 -0.14466517 0.3338095 0.07153656 -0.2649721 0.15431696 -0.13766785
-0.20736544 -0.34536415 0.017700082 -0.0077887247 -0.12763114 -0.34323457 -0.022412527 -0.19761847
0.18020613 -0.10347302 -0.23806475 0.20357518 0.039822213 -0.26082173 0.101133615 -0.2417993
0.14332536 -0.057751156 -0.21707259 0.12617268 -0.060220007 -0.20569049 -0.1046115 0.1485169
0.017521853 -0.32604373 -0.15214548 -0.2882046 -0.020113742 -0.29775402 -0.39886498 0.098888285
-0.019332845 -0.13512158 0.08238845 -0.13602778 0.16978237 0.42641208 0.24021833 0.05494643
-0.030000363 -0.08080746 0.25524813 -0.02172876 0.010025818 -0.30255812 -0.16744144 0.009548398
-0.42288318 -0.23334374 -0.35500318 0.017539026 0.1201484 -0.09391913 -0.074759535 -0.10516142
-0.03622574 0.09414741 -0.03236582 0.011289771 -0.20448707 -0.0997637 -0.33407694 -0.057097215
-0.123489544 -0.18149123 0.021584945 0.1265588 -0.26215017 0.09340237 -0.2053564 0.022749128
-0.114955775 0.23923121 -0.20261337 -0.16906855 0.20202547 -0.17013577 -0.2645879 -0.06997162
-0.26004294 0.03912179 -0.17096591 -0.06573824 0.20035298 -0.054778133 -0.1893376 -0.07761731
00000000: 1054 ad3e af5d 8e3e 40e7 1ebe 2c1a cc3d
00000010: 00ba 5abe 557a 54bd 2026 5abd e0cf 013e
00000020: 8ef7 533e 8820 ab3d b896 a83d d035 5bbe
00000030: 14a5 bcbd d7cf f5bd abe4 973e bf0e 13be
00000040: 2f5d 0fbe d439 00be 32d2 b9bd 01d3 75be
00000050: e083 4cbe bd75 893e 9e7f d0bc 732d 313e
00000060: f7e6 9fbd 2e31 3c3d ccb3 4abe 40a7 8cbd
00000070: 25db 21be d0dc 423e 99fc 10be 9222 9a3c
00000080: 44e4 b3bd 3414 99be 58b2 84be e961 d43d
00000090: 4523 56be de34 b93d e6a0 48be 1225 d4be
000000a0: ff7a 86be 80fd 20bd 9534 1a3e 6d65 8bbd
000000b0: 89d5 babe e525 66bd caee 563e 7bb1 2ebe
000000c0: fc51 1bbd 3b5b 543d 4e04 44be 2f53 8cbe
000000d0: 3637 db3d 228d 9cbe 3bfd ccbb 4b5a 07bd
000000e0: 6ec0 cc3d 25fd 58bd 5f15 fe3d f5fd 31be
000000f0: 625b 99bd 2c96 6e3e 7e38 8bbe 2c8c a13d
00000100: 03fe 4fbb d000 c0be 5047 3bbc db18 a8bd
00000110: 5f4e cfbd 2957 62bd 7fba 92be 86ad 04be
00000120: d970 c7bd c30e 2dbe 0ded 30be 81e5 2b3e
00000130: 6d99 a73c 0037 72be 3a43 133e 98f0 bf3c
00000140: 5fdd a3be a364 c0be 198c 00be 18d1 60bd
00000150: f9a9 78be e841 11be b682 a83d 2ee1 3abe
00000160: 9cf6 c9be bd71 1cbc 97b3 b2bd ffa9 56bd
00000170: f208 f3bd 89cf 213e 0025 8abe 5e65 7ebd
00000180: c9f5 2c3e 38f6 25bc 0951 ddbd 9dc0 0a3e
00000190: 539c 8b3d 769c f33d 8779 92be 9a89 e73d
000001a0: 654b c03d 41c5 e23d cbb4 e73c fd67 323b
000001b0: f0e3 2abe b3bd dabc 09fc 793d 2a46 a7be
000001c0: f47c 02be bda6 a3be eab4 213e c433 6cbe
000001d0: 4058 a8be 3ae5 6ebc c9dd af3e 6455 c23d
000001e0: f8a8 41bd df77 5e3e d831 13be 6324 0b3e
000001f0: 8b96 3a3d f63f 59be bf70 483e 6069 8d3a
00000200: e30a 7d3d 9e04 06be 1c4c 01bc 9d4f 6ebe
00000210: 7b8f 433e 5457 ffbd ca76 1bbe 7544 263e
00000220: aa49 42be a421 96bd 7d7a 083e 7a34 1d3d
00000230: f1e4 89bc c982 36be da50 62be 5606 3a3c
00000240: d89a d2bc 4768 ec3d f75a 9b3d f0b3 0fbe
00000250: 462a b1bd f4b2 0bbc abcb 353e 32cf 6b3e
00000260: 766d d6bd 83cb 633e 27ea 863d 83c9 f03d
00000270: 2fc5 07be 151e 833e a837 dcbd 3796 95be
00000280: a950 20be ffe3 e6bd 1b23 14be 14e9 aa3e
00000290: c381 923d 6caa 87be 4405 1e3e cdf8 0cbe
000002a0: 9b57 54be 92d3 b0be c3ff 903c 8f38 ffbb
000002b0: bdb1 02be 71bc afbe 7a9a b7bc 7f5c 4abe
000002c0: f587 383e aae9 d3bd 3fc7 73be 0376 503e
000002d0: 9e1c 233d 6d8a 85be 241f cf3d 3c9a 77be
000002e0: e2c3 123e 7a8c 6cbd 4748 5ebe 6933 013e
000002f0: 41a9 76bd 87a0 52be 8e3e d6bd d014 183e
00000300: fd89 8f3c 34ef a6be 06cc 1bbe 8e8f 93be
00000310: 93c5 a4bc 3773 98be 0838 ccbe f185 ca3d
00000320: ea5f 9ebc 505d 0abe 47bb a83d de4a 0bbe
00000330: 6edb 2d3e af52 da3e cbfb 753e 820f 613d
00000340: 52c3 f5bc 627e a5bd e2af 823e 8300 b2bc
00000350: 5443 243c e6e8 9abe c575 2bbe e270 1c3c
00000360: 2584 d8be a9f1 6ebe fac2 b5be 01ae 8f3c
00000370: 5d10 f63d ac58 c0bd 871b 99bd df5e d7bd
00000380: 7161 14bd 5bd0 c03d 0692 04bd bbf8 383c
00000390: 0f65 51be e950 ccbd 220c abbe c5de 69bd
000003a0: 16e8 fcbd d6d8 39be e9d2 b03c a198 013e
000003b0: 8c38 86be be49 bf3d f348 52be 615c ba3c
000003c0: ef6d ebbd 07f9 743e e179 4fbe 4e20 2dbe
000003d0: c4df 4e3e 1238 2ebe 1178 87be 484d 8fbd
000003e0: 5924 85be 2c3e 203d b011 2fbe c5a1 86bd
000003f0: 5529 4d3e 095f 60bd b7e1 41be d3f5 9ebd

fc2.weight f4 [128, 256]
-0.12432808 -0.07304453 0.049116198 -0.036506943 -0.059071418 -0.004147679 0.00033569642 -0.10134457
-0.06456756 -0.08929459 0.002191173 -0.053107157 -0.0019627216 -0.0022586023 -0.027826939 0.12349317
-0.07351172 -0.043850843 0.03383183 -0.0989551 -0.0787377 0.04709945 -0.016320879 0.026158176
-0.02591114 0.031357232 0.008634961 0.06585969 0.052428294 0.015323664 0.04570349 -0.060381625
0.0140306605 -0.09269426 -0.12770464 -0.09204986 0.019615132 -0.047093667 0.016563078 0.055606127
0.0070162397 0.017397445 0.05887729 0.020883473 0.05379196 -0.02537391 -0.117575675 -0.04568518
0.1375954 -0.05530629 -0.040719785 0.034887116 -0.09745143 0.011928461 0.08670277 -0.031240586
-0.10743229 -0.06400139 -0.11442214 -0.021361314 -0.033392016 0.014551768 0.029144762 0.0032140147
0.008824897 0.012216886 -0.017889265 -0.045307897 -0.057765238 0.04452151 0.04246641 -0.0055803745
-0.11045765 -0.07529201 -0.12264755 -0.10719886 0.07675102 -0.013545421 -0.08505256 0.04575929
-0.076743126 0.035630077 -0.08372653 0.018498665 -0.07744576 -0.041264337 0.05649473 -0.06538437
-0.07619943 -0.044185005 -0.0669616 0.034159113 0.14165515 -0.1570241 -0.0037866363 -0.10671992
-0.0154794 -0.08627179 -0.06544916 0.036831528 -0.098527834 -0.023017352 0.01006576 0.00034595176
0.022215411 0.012774934 0.06328165 -0.025506483 0.00040138516 -0.083924145 0.028049972 -0.09583469
0.028556898 -0.013061846 -0.07099695 0.025003018 0.0027085238 -0.03031076 0.046450675 -0.012228211
0.057474896 -0.028809918 0.0015017969 0.108809985 -0.10265916 -0.016341526 0.09399954 -0.056738984
0.053026598 0.06762344 -0.070050746 -0.031872656 0.05090447 0.011286004 0.0819486 -0.07842583
0.015861206 -0.05544534 -0.04043852 -0.06720708 -0.016127495 0.020895166 -0.034885276 0.026315901
-0.13043323 -0.0715467 0.010653778 -0.025543561 -0.012972053 -0.10279967 0.026634533 -0.021609277
0.05310458 0.05352927 0.009209166 -0.07001496 -0.11157477 0.040381085 -0.02184634 0.13671146
0.034118634 0.03221606 -0.013597036 0.09180346 -0.056468662 -0.0066969786 -0.0058806855 -0.038228285
-0.043562736 0.008936907 -0.02246714 0.0008782169 -0.08823303 0.1359564 -0.031613614 0.064165615
0.0499024 -0.08712356 0.015310752 -0.15593798 -0.08253059 0.09614132 -0.043253865 0.003053143
0.031657547 0.047358666 -0.15765788 0.06036904 0.06454941 -0.002891702 -0.05650706 0.024918132
-0.07438496 -0.01999647 -0.037993725 -0.030365732 0.061325505 0.119931795 0.035415165 0.06665607
-0.04627336 -0.15606806 0.036735713 -0.07944855 -0.10966683 -0.09993074 -0.069611065 -0.0348327
0.03053467 0.10680056 0.023345636 -0.048313033 0.0030316294 0.02600287 -0.049677297 -0.008233415
0.05712526 0.09874666 -0.037497073 -0.06907444 -0.09842111 -0.009305546 0.0030757468 -0.067656375
-0.12671268 -0.004773145 -0.052850567 -0.00042477288 -0.008033486 -0.09775164 -0.050111186 -0.06119259
-0.017176157 0.10184758 0.067457736 0.048389766 0.050487332 -0.016563797 0.10712494 -0.06271737
0.021072783 0.022020975 0.065299176 0.016561655 0.08011049 -0.057949048 -0.10958121 0.03142438
0.011567431 -0.0020177932 -0.024195528 0.039031908 -0.098727405 -0.07232596 0.014891999 -0.027743733
00000000: b89f febd 5f98 95bd 112e 493d 4e88 15bd
00000010: dff4 71bd 41e9 87bb 6900 b039 be8d cfbd
00000020: ff3b 84bd 15e0 b6bd c899 0f3b e486 59bd
00000030: 01a1 00bb 0f05 14bb 52f5 e3bc fde9 fc3d
00000040: 508d 96bd f19c 33bd 3f93 0a3d f9a8 cabd
00000050: 3b41 a1bd 5aeb 403d 5db3 85bc ac49 d63c
00000060: 9943 d4bc 7170 003d a779 0d3c 72e1 863d
00000070: 0dbf 563d 1b10 7b3c 9533 3b3d b952 77bd
00000080: dbe0 653c 7dd6 bdbd 01c5 02be a384 bcbd
00000090: eaaf a03c 4ae5 40bd 4baf 873c 40c3 633d
000000a0: 7ce8 e53b 1685 8e3c 5029 713d d113 ab3c
000000b0: f554 5c3d f2dc cfbc 84cb f0bd 6220 3bbd
000000c0: cfe5 0c3e d988 62bd cac9 26bd cbe5 0e3d
000000d0: 9e94 c7bd 976f 433c 3991 b13d 42ec ffbc
000000e0: 7605 dcbd 2913 83bd 2856 eabd ecfd aebc
000000f0: 11c6 08bd 8a6a 6e3c ffc0 ee3c 38a2 523b
00000100: 4d96 103c 5529 483c 828c 92bc c694 39bd
00000110: 3e9b 6cbd 305c 363d 42f1 2d3d 93db b6bb
00000120: 9f37 e2bd b332 9abd a42e fbbd 138b dbbd
00000130: a42f 9d3d 9ded 5dbc 0930 aebd 186e 3b3d
00000140: 802b 9dbd d8f0 113d d178 abbd 838a 973c
00000150: e29b 9ebd cb04 29bd 0567 673d 3ee8 85bd
00000160: 720e 9cbd 56fb 34bd 2a23 89bd 6dea 0b3d
00000170: 0c0e 113e edca 20be 3729 78bb f98f dabd
00000180: 4f9d 7dbc 44af b0bd 360a 86bd a8dc 163d
00000190: f6c8 c9bd e38e bcbc dcea 243c dc60 b539
000001a0: 18fd b53c f54d 513c cf99 813d f9f2 d0bc
000001b0: 0171 d239 6ce0 abbd 0ec9 e53c fa44 c4bd
000001c0: 28f0 e93c 5a01 56bc d966 91bd 21d3 cc3c
000001d0: 7d81 313b 454e f8bc 1043 3e3d d658 48bc
000001e0: cc6a 6b3d c702 ecbc f1d7 c43a c5d7 de3d
000001f0: f73e d2bd aade 85bc d582 c03d 2367 68bd
00000200: 6b32 593d 287e 8a3d c476 8fbd e78c 02bd
00000210: 3581 503d efe8 383c abd4 a73d b99d a0bd
00000220: 5cef 813c a71a 63bd dda2 25bd dea3 89bd
00000230: cf1d 84bc 572c ab3c dde3 0ebd 7294 d73c
00000240: 4a90 05be 1487 92bd 2f8d 2e3c bb40 d1bc
00000250: bc88 54bc a288 d2bd aa30 da3c f005 b1bc
00000260: 3084 593d 8241 5b3d 0be2 163c 0164 8fbd
00000270: 5081 e4bd a366 253d 18f7 b2bc 17fe 0b3e
00000280: fbbf 0b3d fdf4 033d 1ac6 5ebc 7403 bc3d
00000290: af4b 67bd 5472 dbbb c4b2 c0bb 4395 1cbd
000002a0: d76e 32bd 1b6c 123c 020d b8bc 2338 663a
000002b0: 85b3 b4bd 2838 0b3e 477d 01bd 4369 833d
000002c0: 7566 4c3d d66d b2bd f3d9 7a3c 35ae 1fbe
000002d0: cc05 a9bd bee5 c43d f72a 31bd 3d17 483b
000002e0: 58ab 013d 29fb 413d 1171 21be 8745 773d
000002f0: 7b32 843d b682 3dbb f273 67bd 1c21 cc3c
00000300: 2457 98bd a3cf a3bc 4f9f 1bbd 8ec1 f8bc
00000310: 7430 7b3d cd9e f53d 7e0f 113d fa82 883d
00000320: 2289 3dbd 4ed0 1fbe 3078 163d ecb5 a2bd
00000330: 0199 e0bd 7da8 ccbd 3f90 8ebd bcac 0ebd
00000340: d823 fa3c 41ba da3d 593f bf3c e3e3 45bd
00000350: 4dae 463b f903 d53c 6c7a 4bbd 72e5 06bc
00000360: 2dfc 693d b03b ca3d 8896 19bd e676 8dbd
00000370: 0291 c9bd 4a76 18bc 7892 493b 6d8f 8abd
00000380: f8c0 01be 0b68 9cbb d679 58bd 0db4 deb9
00000390: e29e 03bc 0332 c8bd 6341 4dbd 15a5 7abd
000003a0: 03b5 8cbc 7795 d03d 4827 8a3d 5934 463d
000003b0: cecb 4e3d cdb0 87bc 5264 db3d f771 80bd
000003c0: d4a0 ac3c 5565 b43c 93bb 853d 4fac 873c
000003d0: f810 a43d fb5b 6dbd 1d6c e0bd dab6 003d
000003e0: 5285 3d3c f43c 04bb b335 c6bc ecdf 1f3d
000003f0: 9831 cabd a21f 94bd 92fd 733c d346 e3bc

fc2.bias f4 [128]
-0.055885393 0.08959449 -0.014498791 -0.024108203 -0.1501368 -0.14150557 0.101672724 0.061975144
-0.17908545 0.005224187 0.09783154 -0.2292676 0.110661745 0.30728564 0.053512122 0.09618802
-0.087739006 -0.012922614 0.0048378063 -0.130714 0.34729996 -0.18073311 -0.10071875 0.2261894
-0.009007532 -0.1362064 0.10033864 0.033459645 -0.08969731 0.049863506 0.12197985 0.33747768
-0.10692557 -0.053027123 0.037862964 0.24903998 0.23486888 -0.045125727 -0.019859685 -0.07941759
0.019286834 0.101287045 -0.11358105 -0.021808282 0.034863662 0.029268878 0.20771675 -0.28350258
0.4373096 -0.085272804 -0.048675068 0.097985655 -0.06620666 -0.012365528 0.17577116 -0.08712821
-0.2821196 0.0006819569 0.34813094 -0.01132298 -0.0048445817 0.009658322 -0.11304141 -0.216398
-0.14199057 0.18116915 -0.038879503 -0.2146366 0.036261234 0.07763272 0.063763954 -0.029325584
0.008707373 0.023265954 -0.030064605 -0.21034828 0.18969372 -0.1203085 -0.011078024 -0.17362328
0.06226516 0.12418137 -0.10567154 0.08487523 0.11015004 0.16410659 0.41879988 -0.060914483
-0.39182022 -0.19256453 -0.51633304 -0.08913066 0.026908822 -0.029083975 0.3827483 -0.15959294
0.23750155 -0.16440512 -0.11442243 0.03238823 -0.10908495 0.039382007 0.037086137 0.026971033
9.080977e-07 0.13476685 -0.05987861 -0.034500185 -0.07941277 -0.06214226 -0.0020356216 0.23568527
0.033461686 -0.11776278 -0.18351963 0.027381694 -0.052214414 -0.20779657 0.06035189 -0.024776177
0.000775602 0.028255414 -0.15058163 -0.0054203845 -0.10138878 -0.12302467 0.16190025 0.23491763
00000000: 15e8 64bd 517d b73d 568c 6dbc 917e c5bc
00000010: 76bd 19be d6e6 10be ca39 d03d a6d9 7d3d
00000020: 2d62 37be a82f ab3b e75b c83d 20c5 6abe
00000030: a0a2 e23d 8b54 9d3e 872f 5b3d 3afe c43d
00000040: 82b0 b3bd 5fb9 53bc 7686 9e3b e4d9 05be
00000050: 4dd1 b13e 1a12 39be a245 cebd 329e 673e
00000060: 5494 13bc b179 0bbe 587e cd3d fb0c 093d
00000070: 39b3 b7bd ad3d 4c3d 92d0 f93d e0c9 ac3e
00000080: cbfb dabd f832 59bd 3216 1b3d 5604 7f3e
00000090: 7881 703e c1d5 38bd c7b0 a2bc b0a5 a2bd
000000a0: 6cff 9d3c 956f cf3d 2e9d e8bd 48a7 b2bc
000000b0: 33cd 0e3d 49c5 ef3c b3b3 543e 4027 91be
000000c0: 0be7 df3e 82a3 aebd 825f 47bd b4ac c83d
000000d0: 5b97 87bd c998 4abc 5bfd 333e 4670 b2bd
000000e0: fb71 90be 5ac5 323a 383e b23e 0584 39bc
000000f0: 4cbf 9ebb f03d 1e3c 4182 e7bd 7097 5dbe
00000100: fa65 11be 6884 393e 1d40 1fbd b2c9 5bbe
00000110: a986 143d e7fd 9e3d ad96 823d 353c f0bc
00000120: 5fa9 0e3c 3e98 be3c 0c4a f6bc 8a65 57be
00000130: 123f 423e 4e64 f6bd 9a80 35bc 4dca 31be
00000140: c109 7f3d cd52 fe3d 526a d8bd 11d3 ad3d
00000150: 5896 e13d 8f0b 283e f06c d63e 7781 79bd
00000160: a99c c8be a32f 45be 672e 04bf 238a b6bd
00000170: e46f dc3c 8441 eebc 96f7 c33e 556c 23be
00000180: 9b33 733e d159 28be 4f56 eabd 85a9 043d
00000190: ee67 dfbd 074f 213d a2e7 173d 5bf2 dc3c
000001a0: 00c4 7335 5200 0a3e 4643 75bd 1150 0dbd
000001b0: 2aa3 a2bd e288 7ebd 1068 05bb 7b57 713e
000001c0: 1f0f 093d 9d2d f1bd 92ec 3bbe 934f e03c
000001d0: c8de 55bd a0c8 54be 8b33 773d 69f7 cabc
000001e0: c551 4b3a e677 e73c 1232 1abe 7b9d b1bb
000001f0: eca4 cfbd 5cf4 fbbd 2ec9 253e 3f8e 703e

fc3.weight f4 [2, 128]
0.017400803 0.0027577167 0.006483376 0.062188454 -0.0042140465 -0.092341185 0.16625223 0.023533897
-0.08060997 0.019808354 -0.0027088202 -0.1045603 -0.1960957 0.107468605 0.017710295 0.08607917
-0.0013994563 -0.0752283 0.026549561 0.0011516672 0.0122457035 -0.14921398 0.0014285804 -0.019430809
-0.12545453 -0.2527344 -0.058497693 0.045875546 -0.033580087 -0.008053459 0.079105295 0.098821804
0.005861516 0.025208008 -0.0025379185 0.0745863 0.12086143 0.1943975 -0.0014104202 -0.20452262
-0.041794524 0.016340625 0.009186085 0.023863629 -0.3310727 0.2030558 -0.0047267615 -0.16479021
0.0021007594 0.017072514 -0.044779096 -0.042107496 -0.004386198 -0.061773807 0.049181417 -5.809593e-05
-0.05840789 0.27914163 0.043478984 0.0050007547 0.0047986046 0.1377848 -0.0042161266 -0.027085245
0.039482057 0.016720217 0.044470698 -0.01409176 -0.4189018 -0.0021557582 -0.013339053 -0.07707044
0.032529507 -0.06365695 -0.013451131 0.005471589 -0.18389696 0.017103428 0.00075429684 0.011200802
-0.036816917 -0.007854598 -0.010758736 -0.13682969 -0.24050622 0.0841386 0.052312035 0.0007341659
-0.034474984 -0.29966608 -0.15648924 -0.046761718 -0.0025541962 -0.17077856 0.016908417 -0.19746685
0.004475874 0.036028177 -0.02978019 0.006643125 0.026618868 -0.013989426 -0.37496054 -0.42273676
0.032549832 -0.38830486 0.017608924 0.036528 -0.0021072528 -0.016476601 0.06576552 -0.0058757197
0.015258212 -0.15050547 -0.0021167574 0.036757052 0.006165606 0.18706773 0.091019966 -0.16345142
0.041823015 -0.0020076802 -0.009885794 0.0095137805 0.004119537 -0.0016381837 0.14019677 -0.06414181
-0.010866693 -0.03859515 -0.100648284 -0.031864613 0.005105153 -0.08429528 0.20183134 -0.15143377
-0.07399264 0.074490815 -0.0075089405 -0.07109521 0.03828231 0.023120794 -0.43430212 -0.00884048
-0.029878912 -0.098616414 -0.15036483 -0.025710844 0.0972303 -0.007963694 -0.06745986 0.0035484517
-0.24737844 0.012836789 0.12852062 0.0753008 -0.05492182 -0.023738291 0.12468597 -0.08700037
0.021738721 0.025920598 0.024817314 -0.2502855 -0.19515485 -0.06009009 -0.054754812 0.06563819
0.014676556 -0.03314356 -0.009311918 0.008830566 0.13626003 -0.19211723 -0.020221451 -0.074254796
-0.0057945736 0.00729779 -0.121687934 -0.35343292 -0.12327322 0.10725256 -0.06952681 -0.10473245
0.104762524 -0.10770962 -0.05939385 -0.2097999 -0.021631641 -0.17315167 -0.078095295 -0.07566981
-0.07571904 -0.043493737 -0.19463745 -0.0058835093 0.04567707 0.02217999 0.047177553 0.09182494
0.091475196 0.031201743 0.04701546 -0.11010835 0.14668724 0.05294719 -0.011552509 0.02146989
-0.15395983 -0.00024626957 0.027999211 -0.20329988 -0.05158695 -0.25773138 0.0191563 0.001164585
0.03460498 0.10210581 0.043321084 -0.14212404 -0.0020377536 0.013086045 0.0030761398 0.011903144
-0.14570609 -0.13059153 0.03410002 0.0057707625 -0.059859212 0.020994846 -0.09024075 -0.08984531
0.095007256 -0.21373628 -0.04655376 0.045172077 -0.0038225255 0.022391988 0.042836197 -0.0027224075
-0.08293836 0.06356812 -0.025181524 -0.33057186 -0.1097067 -0.09394972 -0.007102029 -0.032418616
0.08991911 0.036905546 -0.09483785 0.28887993 -0.04564431 -0.15631627 -0.19689362 0.114911236
00000000: 218c 8e3c cfba 343b 8072 d43b 52b9 7e3d
00000010: fc15 8abb 601d bdbd 063e 2a3e 29ca c03c
00000020: d716 a5bd 2145 a23c 7686 31bb b623 d6bd
00000030: 50cd 48be 8018 dc3d 2e15 913c 474a b03d
00000040: f66d b7ba 4c11 9abd 777e d93c 8af3 963a
00000050: 34a2 483c 8dcb 18be 343f bb3a 5c2d 9fbc
00000060: 2777 00be 6766 81be 479b 6fbd ffe7 3b3d
00000070: 468b 09bd a8f2 03bc f501 a23d 1663 ca3d
00000080: f611 c03b 0681 ce3c 3553 26bb b4c0 983d
00000090: 3386 f73d 2310 473e d9dd b8ba 616e 51be
000000a0: bc30 2bbd c6dc 853c 3c81 163c a87d c33c
000000b0: 5c82 a9be dced 4f3e f3e2 9abb c4be 28be
000000c0: e5ac 093b a8db 8b3c 496a 37bd e978 2cbd
000000d0: 18ba 8fbb 8806 7dbd 7472 493d 08ac 73b8
000000e0: 1d3d 6fbd a7eb 8e3e 0517 323d 5fdd a33b
000000f0: 9d3d 9d3b 7517 0d3e 6f27 8abb e0e1 ddbc
00000100: f0b7 213d d6f8 883c e826 363d 20e1 66bc
00000110: 4c7a d6be 9f47 0dbb 0b8c 5abc 1bd7 9dbd
00000120: a93d 053d 935e 82bd 2262 5cbc 044b b33b
00000130: 7c4f 3cbe 7d1c 8c3c 01bc 453a 9283 373c
00000140: 56cd 16bd 92b0 00bc 6945 30bc 151d 0cbe
00000150: 4347 76be dc50 ac3d 2545 563d 0a75 403a
00000160: a435 0dbd d56d 99be b73e 20be 3789 3fbd
00000170: 4d64 27bb 93e0 2ebe 8583 8a3c c034 4abe
00000180: 5aaa 923b 4892 133d 96f5 f3bc 92ae d93b
00000190: d00f da3c e833 65bc d4fa bfbe f470 d8be
000001a0: f952 053d e5cf c6be 9740 903c 629e 153d
000001b0: d619 0abb f0f9 86bc 13b0 863d 1c89 c0bb
000001c0: 94fd 793c 1b1e 1abe 4cb9 0abb 908e 163d
000001d0: da08 ca3b af8e 3f3e ad68 ba3d cf5f 27be
000001e0: 9c4e 2b3d 4993 03bb 06f8 21bc b0df 1b3c
000001f0: 2efd 863b 53b8 d6ba be8f 0f3e c85c 83bd
00000200: 370a 32bc f315 1ebd b020 cebd 7884 02bd
00000210: 2149 a73b 01a3 acbd e0ac 4e3e 7411 1bbe
00000220: 7489 97bd a48e 983d 8f0d f6bb 5e9a 91bd
00000230: e9cd 1c3d d267 bd3c d95c debe a9d7 10bc
00000240: 9fc4 f4bc 67f7 c9bd 3df9 19be 8c9f d2bc
00000250: ae20 c73d 277a 02bc 6528 8abd 248d 683b
00000260: c650 7dbe 6551 523c e99a 033e 4e37 9a3d
00000270: b4f5 60bd ce76 c2bc 5c5b ff3d 402d b2bd
00000280: 6715 b23c 6f57 d43c ae4d cb3c 6c25 80be
00000290: acd6 47be 0721 76bd 9546 60bd 516d 863d
000002a0: f075 703c 8bc1 07bd 0491 18bc 14ae 103c
000002b0: c087 0b3e 61ba 44be 75a7 a5bc e612 98bd
000002c0: 68e0 bdbb 4d22 ef3b 8637 f9bd 29f5 b4be
000002d0: ac76 fcbd 3ba7 db3d 1264 8ebd f77d d6bd
000002e0: bc8d d63d dc96 dcbd f746 73bd c9d5 56be
000002f0: d734 b1bc ac4e 31be 6df0 9fbd c6f8 9abd
00000300: 9612 9bbd 7d26 32bd 0a4f 47be 74ca c0bb
00000310: e117 3b3d cfb2 b53c 403d 413d b70e bc3d
00000320: 5957 bb3d cc9a ff3c 4893 403d 7d80 e1bd
00000330: 2e35 163e 27df 583d bc46 3dbc 9fe1 af3c
00000340: a5a7 1dbe be1d 81b9 9a5e e53c d82d 50be
00000350: d64c 53bd 5ef5 83be aced 9c3c fda4 983a
00000360: f4bd 0d3d da1c d13d 7371 313d f788 11be
00000370: d58b 05bb da66 563c 1099 493b 6805 433c
00000380: fa33 15be c9b9 05be 76ac 0b3d aa18 bd3b
00000390: ef2e 75bd 62fd ab3c 24d0 b8bd d100 b8bd
000003a0: 2a93 c23d afdd 5abe 28af 3ebd 5b06 393d
000003b0: 5683 7abb 676f b73c 0275 2f3d 6b6a 32bb
000003c0: 96db a9bd 0130 823d 7c49 cebc b740 a9be
000003d0: e8ad e0bd b668 c0bd 23b8 e8bb 62c9 04bd
000003e0: 8327 b83d 452a 173d 593a c2bd 12e8 933e
000003f0: 87f5 3abd 5f11 20be 7b9e 49be 9556 eb3d

fc3.bias f4 [2]
1.1644088 0.08668658
00000000: 590b 953f bc88 b13d

b2.weight f4 [2]
3.904833 6.0919576
00000000: c9e8 7940 51f1 c240

b2.bias f4 [2]
-0.20141044 -1.4750198
00000000: 8a3e 4ebe 73cd bcbf

b2.running_mean f4 [2]
0.99292725 0.24037571
00000000: 7b30 7e3f 0d25 763e

b2.running_var f4 [2]
2.0895889 0.35561147
00000000: d3bb 0540 b512 b63e
